src/best_model.pth (torch, 152098 bytes, 10 tensors)

embedding.weight f4 [4, 5]
-0.8780131 -0.046937793 0.2635523 0.75706536 0.11419804 -0.028964026 -0.67579925 -0.48229232
-1.7928327 0.24876831 -1.5309774 -0.52236235 -1.1815723 0.45450255 -1.062389 1.2012128
-0.6756996 -0.17962469 -0.24359307 0.13791426
00000000: 77c5 60bf d841 40bd 54f0 863e 09cf 413f
00000010: a9e0 e93d f745 edbc 2e01 2dbf 05ef f6be
00000020: 8b7b e5bf 1fbd 7e3e 11f7 c3bf 8ab9 05bf
00000030: c33d 97bf 8fb4 e83e 5dfc 87bf 57c1 993f
00000040: a6fa 2cbf 89ef 37be 7670 79be 6539 0d3e

lstm.weight_ih_l0 f4 [256, 6]
0.10584011 -0.0765249 -0.02608523 0.01683485 -0.06986706 -0.025511557 0.14628491 -0.05680096
0.18168035 -0.057332158 -0.0048210677 -0.04604754 0.38377732 -0.054661874 -0.06034253 -0.021435857
0.17904 -0.16098395 0.3459965 -0.022605672 -0.026011022 0.07961568 0.13662818 -0.122086905
0.3853099 0.021269258 0.07505401 0.15829866 0.037350148 -0.016646147 0.26778626 -0.19254191
0.047168136 0.19321823 0.1382265 0.042384777 0.5986655 -0.2976858 0.12223732 0.13498804
0.14689134 -0.0097971205 -0.13059475 0.020259513 0.10107925 -0.05609041 0.11785948 -0.064305715
0.18826321 0.09168048 0.12828976 0.1138438 0.08806379 0.046088867 0.22804987 -0.13180572
-0.037396677 0.16925624 -0.019559594 -0.10263218 0.3896926 -0.1614139 0.0033174802 0.011565684
0.015160345 0.0751307 0.12673518 -0.043536436 0.16898443 0.15003778 0.1445396 -0.0556428
0.1817623 -0.16106151 0.13026494 0.14853776 0.044878162 0.06920424 0.1567319 -0.036879316
0.1457825 -0.0719398 0.10877733 -0.15224646 0.29145032 -0.1855642 0.028501112 0.14208001
0.20618191 0.090504736 0.08498348 -0.0050300546 -0.045538206 0.033260457 0.10036763 -0.022416813
0.25033823 0.010623062 0.010562891 0.20766331 0.067033015 -0.028156599 0.32568493 -0.062082496
0.018240204 0.066729724 0.12844206 -0.014315377 0.22577149 -0.13080329 0.08358536 0.17037554
0.11938422 0.17581366 0.1416917 -0.04613321 0.1252824 0.15053879 0.044218782 -0.03237613
0.32205245 -0.23859906 0.052584663 0.21053655 0.17744334 0.050724592 0.42860433 0.16654216
-0.09412441 -0.10033343 0.09973993 -0.033050403 0.08695242 -0.13863495 0.097908735 -0.02189121
-0.03763781 -0.03434492 0.25368884 0.062270604 -0.05511072 0.055043243 -0.077431545 -0.052967783
0.071761005 -0.08387851 0.11330812 -0.013841527 0.07225929 0.021488355 0.37944525 -0.08080392
0.10868197 0.14536978 0.018485615 0.10333918 0.32389656 -0.100825295 -0.040249784 0.08738452
0.031316463 -0.030833608 0.07651762 -0.0009786421 0.0223664 0.088696636 0.0825578 -0.11054418
0.21072608 -0.19972394 -0.030051937 -0.047863193 0.0020160235 -0.1074088 0.22920711 -0.1760937
0.1212961 0.09628865 0.12730753 -0.057697777 0.22223076 -0.09012729 -0.051607065 0.025080254
0.09595136 0.14164893 0.4847799 -0.10639891 0.24854355 0.12117748 0.3083612 -0.05157561
0.30947867 -0.04487186 -0.101454735 0.063790455 0.06360327 0.04438034 0.047296073 0.028791724
0.0807731 -0.03312045 0.04787324 0.03969806 0.21140079 0.04177401 0.023624927 0.042085838
0.1890023 -0.053819697 0.1767017 0.038633626 0.014602218 0.04405293 0.09756523 0.1100347
0.026752232 0.077244356 0.21218383 -0.035215393 0.003867892 -0.008096027 0.34571207 -0.13454959
0.20556931 0.0063415524 0.0589972 -0.15873957 0.15448076 0.018989436 -0.063674 0.055659693
-0.039094593 0.01100973 0.22856931 -0.13797612 -0.012650437 0.16462894 0.15774392 -0.115824886
0.081428245 -0.022228032 -0.02842254 -0.017080942 0.021616237 -0.0018830413 0.10761085 -0.05333555
0.12694024 0.035054196 -0.03306729 0.08892664 0.42926112 -0.1073042 0.103950076 0.28746855
00000000: b3c2 d83d 16b9 9cbd b1b0 d5bc 3de9 893c
00000010: 7616 8fbd 9dfd d0bc b6cb 153e 20a8 68bd
00000020: 6a0a 3a3e 20d5 6abd 0cfa 9dbb 589c 3cbd
00000030: 767e c43e 21e5 5fbd bb29 77bd 409a afbc
00000040: 4356 373e fad8 24be 7426 b13e 882f b9bc
00000050: 1115 d5bc 8c0d a33d 42e8 0b3e b308 fabd
00000060: 5747 c53e de3c ae3c ebb5 993d 0b19 223e
00000070: 78fc 183d 805d 88bc 481b 893e b529 45be
00000080: 6033 413d 00db 453e 3f8b 0d3e a99b 2d3d
00000090: 2442 193f 466a 98be 8f57 fa3d 4e3a 0a3e
000000a0: af6a 163e 1a84 20bc a1ba 05be 47f7 a53c
000000b0: a302 cf3d 0fbf 65bd 5060 f13d b7b2 83bd
000000c0: 12c8 403e fac2 bb3d 645e 033e f026 e93d
000000d0: ca5a b43d aec7 3c3d e885 693e 14f8 06be
000000e0: 422d 19bd 8251 2d3e 713b a0bc d230 d2bd
000000f0: ca85 c73e af49 25be 156a 593b ff7d 3d3c
00000100: 1863 783c 20de 993d dec6 013e 4353 32bd
00000110: 410a 2d3e 81a3 193e 3002 143e b4e9 63bd
00000120: e51f 3a3e 4fed 24be 2c64 053e 481a 183e
00000130: 2ad2 373d f4ba 8d3d 547e 203e c40e 17bd
00000140: 0248 153e 2d55 93bd a6c6 de3d 7fe6 1bbe
00000150: fa38 953e 8b04 3ebe 2a7b e93c 6c7d 113e
00000160: 5a21 533e 8c5a b93d d20b ae3d 28d3 a4bb
00000170: 4586 3abd 1e3c 083d 8b8d cd3d 77a3 b7bc
00000180: 552c 803e 5a0c 2e3c fa0f 2d3c b1a5 543e
00000190: 9b48 893d aba8 e6bc 2dc0 a63e 374a 7ebd
000001a0: 7b6c 953c 98a9 883d 5186 033e 0b8b 6abc
000001b0: a430 673e 4cf1 05be cd2e ab3d ed76 2e3e
000001c0: b77f f43d 7f08 343e a117 113e 2df6 3cbd
000001d0: 084a 003e d726 1a3e c11e 353d d59c 04bd
000001e0: 0fe4 a43e 5053 74be 0463 573d e596 573e
000001f0: b5b3 353e 97c4 4f3d 0772 db3e 078a 2a3e
00000200: 4cc4 c0bd 9d7b cdbd 7344 cc3d dc5f 07bd
00000210: 1c14 b23d 52f6 0dbe 6084 c83d 3255 b3bc
00000220: 1b2a 1abd 42ad 0cbd 81e3 813e 760f 7f3d
00000230: c7bb 61bd 0675 613d 6e94 9ebd bff4 58bd
00000240: 6ff7 923d 7fc8 abbd 160e e83d 92c7 62bc
00000250: aefc 933d 5908 b03c a646 c23e 877c a5bd
00000260: a794 de3d d1db 143e 256f 973c 7ea3 d33d
00000270: c5d5 a53e 7e7d cebd f5dc 24bd a8f6 b23d
00000280: b145 003d c396 fcbc 45b5 9c3d c845 80ba
00000290: be39 b73c 95a6 b53d 1014 a93d fd64 e2bd
000002a0: 94c8 573e 6f84 4cbe 7b2f f6bc 320c 44bd
000002b0: 431f 043b 25f9 dbbd 45b5 6a3e e851 34be
000002c0: 176a f83d fc32 c53d e85c 023e 8154 6cbd
000002d0: 7690 633e a894 b8bd ee61 53bd 1b75 cd3c
000002e0: 2682 c43d 6b0c 113e 1235 f83e ace7 d9bd
000002f0: 3382 7e3e e62b f83d 85e1 9d3e f240 53bd
00000300: fd73 9e3e 8ecb 37bd 80c7 cfbd 92a4 823d
00000310: 6e42 823d 29c8 353d 87b9 413d 9fdc eb3c
00000320: 5e6c a53d 4fa9 07bd bb16 443d 6f9a 223d
00000330: 7379 583e 391b 2b3d 1089 c13c 3362 2c3d
00000340: d289 413e 0b72 5cbd 4af1 343e 4b3e 1e3d
00000350: 243e 6f3c d870 343d 48d0 c73d df59 e13d
00000360: 7f27 db3c 4a32 9e3d b846 593e 043e 10bd
00000370: 767c 7d3b 33a5 04bc 2c01 b13e 5ec7 09be
00000380: c380 523e cccc cf3b 0ca7 713d a08c 22be
00000390: 3430 1e3e bc8f 9b3c 8467 82bd 6bfb 633d
000003a0: a721 20bd 2862 343c 130e 6a3e 9d49 0dbe
000003b0: c743 4fbc 7d94 283e 9f87 213e 9935 edbd
000003c0: dac3 a63d 9017 b6bc 63d6 e8bc 55ed 8bbc
000003d0: 8914 b13c 62d0 f6ba 1463 dc3d 6176 5abd
000003e0: 9ffc 013e fd94 0f3d 9171 07bd 2c1f b63d
000003f0: 1dc8 db3e 4ec2 dbbd c7e3 d43d 142f 933e

lstm.weight_hh_l0 f4 [256, 64]
-0.071202345 -0.056358617 0.040772177 -0.07671475 -0.08043637 -0.05377466 -0.02074614 0.10605747
-0.026628252 0.03784402 0.042089954 0.07958909 0.050906412 0.104952075 -0.005815263 0.042858113
0.08884601 0.12602575 0.07550013 0.09580653 -0.054504506 0.036777847 0.06294311 -0.12352325
0.11139185 0.08317511 0.16904017 0.13919066 -0.13629438 -0.023305759 0.006382807 -0.14525837
0.0685076 -0.015380827 0.068108715 -0.03915766 -0.06359669 -0.16642721 0.14454423 -0.050107844
-0.07328265 -0.028868973 0.07737601 0.09371158 -0.051327 -0.0703553 0.027569825 0.1382524
-0.011614898 0.015255573 -0.062069643 0.14894232 0.037159923 -0.1311884 -0.07486634 0.099805966
-0.0134320585 -0.04807497 -0.14198372 0.08478483 -0.019077303 -0.14604545 -0.036692854 0.047331944
-0.022370795 0.017964942 -0.068956375 0.14137495 0.03768484 -0.066076234 0.15276624 -0.0022346512
-0.04721502 0.045573045 -0.12522033 -0.011009753 0.056245983 0.014579597 -0.0002741095 -0.00713976
0.18115221 -0.062490564 -0.06057204 -0.008105962 -0.14390717 -0.0075236997 0.07523238 0.124096915
-0.095126145 -0.045826063 0.111343615 -0.040479753 -0.12798387 0.12852213 -0.075907946 -0.04491324
-0.14568157 0.062623344 -0.13825597 0.062366143 -0.16303752 0.015196509 -0.03339876 0.1111221
-0.0063960273 0.0241049 0.1482862 0.11037239 -0.0843453 -0.06499987 0.07288611 -0.014922649
0.0145722665 -0.053222492 -0.049765073 -0.13579276 0.062114555 -0.05728633 -0.09117478 -0.09881435
-0.03837741 -0.084083214 0.07802195 0.052111886 -0.024631646 -0.04894894 0.18910162 0.014014905
0.029486688 0.110316746 0.039208557 -0.07786932 -0.07247532 0.003617019 0.009168367 0.09303459
-0.055541284 -0.041087437 0.13865429 -0.03451777 0.095355414 -0.046040855 -0.02168891 -0.106370345
-0.06475694 -0.012284561 -0.06822112 0.09394489 -0.059872743 -0.05111442 -0.035503317 -0.08975751
-0.08443785 0.08929183 -0.02110363 -0.095454015 0.07996274 -0.07084832 0.043826587 -0.03586578
0.059834555 -0.10464897 0.12136049 0.08429056 0.083125345 0.07995912 -0.0027325137 -0.107524596
0.08185984 0.029963588 -0.019807678 -0.08057287 0.09896765 -0.0069697937 0.064477354 -0.12366275
-0.008693212 0.0076651033 -0.060439777 0.010767728 0.08428621 -0.05250454 -0.039518867 -0.15282694
-0.10690516 -0.097617865 -0.011469895 -0.005904156 0.14466919 0.052424543 0.10456419 0.0859303
0.08031493 0.035168253 -0.034031793 0.091190666 0.065428846 0.1036433 -0.0580294 0.08904273
-0.09779205 -0.083775595 -0.10546453 -0.103088826 0.053306792 0.01839601 -0.09939644 -0.05237339
0.006936246 -0.003690843 0.01304865 -0.113761775 -0.073297694 -0.10484977 0.01687132 -0.037701543
-0.044901088 -0.07734083 0.032463953 -0.013441739 -0.06341828 -0.11392683 -0.14058252 0.010513721
-0.007704892 0.06751377 0.09491192 -0.09258466 -0.015393299 -0.049781214 0.040704977 -0.017210519
-0.037603874 0.082087114 -0.06574802 -0.042039253 0.11806138 0.0096910205 0.036775585 -0.0627564
0.13257499 0.024655767 0.030474698 0.047249775 0.11624832 0.069376305 -0.049567383 -0.076386735
0.03376526 -0.10351828 0.14275634 0.016140884 -0.0051798294 0.103639305 0.15733227 -0.11793777
00000000: 89d2 91bd 4bd8 66bd ba00 273d 9f1c 9dbd
00000010: d3bb a4bd d142 5cbd cff3 a9bc a934 d93d
00000020: 7e23 dabc 5502 1b3d 8466 2c3d 9bff a23d
00000030: 3e83 503d 1df1 d63d f68d bebb fd8b 2f3d
00000040: e6f4 b53d e50c 013e d09f 9a3d 3736 c43d
00000050: 1e40 5fbd 5ea4 163d 51e8 803d c2f9 fcbd
00000060: 6921 e43d b657 aa3d de18 2d3e ff87 0e3e
00000070: c190 0bbe b8eb bebc de26 d13b 9cbe 14be
00000080: b64d 8c3d ddff 7bbc 957c 8b3d c863 20bd
00000090: fb3e 82bd e56b 2abe 6703 143e e23d 4dbd
000000a0: 3715 96bd a07e ecbc 5077 9e3d dbeb bf3d
000000b0: 433c 52bd 7116 90bd 1dda e13c 0a92 0d3e
000000c0: 6a4c 3ebc 83f2 793c bd3c 7ebd 5684 183e
000000d0: 0135 183d 4056 06be 8653 99bd 1267 cc3d
000000e0: 2312 5cbc 42ea 44bd 2e64 11be aba3 ad3d
000000f0: 0148 9cbc f08c 15be 3f4b 16bd 24df 413d
00000100: f542 b7bc 372b 933c 0039 8dbd 98c4 103e
00000110: 6b5b 1a3d fa52 87bd c16e 1c3e 3a73 12bb
00000120: 8964 41bd cdaa 3a3d c239 00be 4062 34bc
00000130: 3062 663d 43df 6e3c 5bb6 8fb9 a6f4 e9bb
00000140: f77f 393e 1bf6 7fbd 631a 78bd dece 04bc
00000150: 675c 13be 5e89 f6bb 6f13 9a3d 8626 fe3d
00000160: 7fd1 c2bd 1cb4 3bbd 1f08 e43d 19ce 25bd
00000170: 340e 03be 4e9b 033e a075 9bbd f2f6 37bd
00000180: 8d2d 15be ab40 803d f992 0dbe a473 7f3d
00000190: 4ff3 26be c7fa 783c 23cd 08bd fc93 e33d
000001a0: c495 d1bb a477 c53c 56d8 173e eb0a e23d
000001b0: 3bbd acbd a71e 85bd 5045 953d 207e 74bc
000001c0: 84c0 6e3c d4ff 59bd 76d6 4bbd 420d 0bbe
000001d0: d56b 7e3d 12a5 6abd d8b9 babd 2e5f cabd
000001e0: a231 1dbd d233 acbd f9c9 9f3d 4673 553d
000001f0: 4ec8 c9bc af7e 48bd dba3 413e c69e 653c
00000200: 118e f13c bfed e13d 2799 203d f379 9fbd
00000210: f16d 94bd 820b 6d3b eb36 163c eb88 be3d
00000220: 427f 63bd 4d4b 28bd 64fb 0d3e 8162 0dbd
00000230: b349 c33d 5695 3cbd f1ac b1bc b2d8 d9bd
00000240: 499f 84bd 2f45 49bc 84b7 8bbd 2e66 c03d
00000250: 1f3d 75bd 5b5d 51bd ed6b 11bd c9d2 b7bd
00000260: c0ed acbd a3de b63d 85e1 acbc 657d c3bd
00000270: 81c3 a33d ed18 91bd 8283 333d ffe7 12bd
00000280: 1415 753d 3352 d6bd d98b f83d 87a0 ac3d
00000290: 9f3d aa3d 9bc1 a33d f913 33bb db35 dcbd
000002a0: 22a6 a73d 3376 f53c b643 a2bc 6403 a5bd
000002b0: 8daf ca3d de62 e4bb b40c 843d e542 fdbd
000002c0: f96d 0ebc 8c2b fb3b b38f 77bd 206b 303c
000002d0: 409e ac3d 000f 57bd 89de 21bd aa7e 1cbe
000002e0: 18f1 dabd e0eb c7bd 3aec 3bbc a677 c1bb
000002f0: 2924 143e 1ebb 563d c025 d63d 3afc af3d
00000300: 277c a43d 960c 103d ec64 0bbd 2cc2 ba3d
00000310: 8fff 853d f042 d43d 3cb0 6dbd 095c b63d
00000320: 3347 c8bd 8a92 abbd cafd d7bd 3c20 d3bd
00000330: 3958 5a3d 3bb3 963c 5c90 cbbd 7b85 56bd
00000340: 7349 e33b 12e2 71bb 01ca 553c effb e8bd
00000350: 1a1d 96bd 7abb d6bd b935 8a3c ef6c 1abd
00000360: 34ea 37bd de64 9ebd ecf8 043d bd3a 5cbc
00000370: 71e1 81bd 7852 e9bd ddf4 0fbe be41 2c3c
00000380: 5279 fcbb a944 8a3d 2e61 c23d 079d bdbd
00000390: 2d34 7cbc 63e7 4bbd 43ba 263d 13fd 8cbc
000003a0: 8506 1abd 4a1d a83d e6a6 86bd 5a31 2cbd
000003b0: 2aca f13d 16c7 1e3c ffa1 163d 6d86 80bd
000003c0: bdc1 073e e4fa c93c 13a6 f93c fb88 413d
000003d0: 9913 ee3d 2a15 8e3d 2b07 4bbd a670 9cbd
000003e0: 714d 0a3d 6401 d4bd b82e 123e e339 843c
000003f0: 8fbb a9bb d840 d43d b61b 213e 5c89 f1bd

lstm.bias_ih_l0 f4 [256]
0.05439984 -0.01082813 -0.10737084 0.04956709 0.1027845 0.12607586 0.17895441 0.018118681
-0.13824709 -0.03418874 0.03521026 -0.1636982 0.12540163 0.08664097 0.09396747 0.06372901
0.13461286 -0.13409702 0.007580974 -0.05175139 0.09750498 0.055973478 -0.04953681 0.07624445
0.0021646072 0.045252398 -0.08975876 -0.03457585 -0.0843849 0.0037212602 -0.08396961 0.19454435
0.08674413 -0.058383074 -0.08332813 0.06058566 0.016795939 0.07609586 -0.0064929985 -0.07912145
0.04662544 -0.029232172 0.17568383 -0.09431731 0.059455626 0.07584626 -0.10691474 -0.048087437
-0.049551044 0.036763173 0.030264897 -0.12903984 0.023196558 0.054117005 -0.058432925 0.024316099
0.048915215 0.009597614 -0.08219835 0.08726553 -1.7234057e-05 -0.09314986 0.086041145 0.025426922
0.024961071 -0.12337999 -0.14559954 -0.16324323 -0.113122515 -0.24057873 -0.20581889 -0.1405414
-0.055139318 -0.113507666 -0.01986637 -0.11945052 -0.11083286 -0.1845896 -0.14397809 -0.08673882
-0.2143403 -0.07494997 -0.16334863 -0.0080180615 -0.07797842 -0.08547486 -0.033909168 -0.0034857164
-0.020458644 -0.20555986 -0.016379079 -0.22791757 0.020460557 0.019990722 -0.12781855 -0.115836
0.025854407 -0.056944568 -0.013897378 -0.20634244 -0.14434831 -0.115350865 -0.12407547 -0.12462431
-0.19840352 -0.11874926 -0.10065524 -0.15176505 -0.16321295 -0.16228992 -0.119794264 -0.058179956
0.031034622 -0.17996852 -0.029504782 0.023042131 -0.13846661 -0.1823825 -0.15138826 0.022613771
-0.08000792 -0.09725989 -0.07556654 -0.20848124 -0.13232027 -0.09970088 -0.03289653 -0.22897343
0.065330334 0.016951488 -0.06493026 -0.0029750748 -0.03439907 -0.119604334 0.084144935 0.09528169
0.011226291 -0.051455453 0.014570472 -0.045440234 -0.080477595 -0.060822174 0.00070975674 -0.015758364
0.055443764 -0.023779891 0.039363604 -0.087920666 -0.07569168 0.06608881 0.022096174 0.03702745
0.031546246 -0.024784515 0.08456209 0.008296221 0.01002717 0.0031723317 -0.005490814 -0.046994507
0.05953462 -0.009430072 -0.00900175 0.04657479 -0.058485027 -0.076774955 0.0041498262 -0.014453389
-0.007150827 0.041649926 0.028577074 0.091462396 -0.030762445 0.03436676 -0.047020927 -0.008517085
-0.013164018 -0.024768637 -0.02068963 -0.038445458 0.03655957 0.0010549191 0.01969727 0.16005164
0.004932782 -0.03914102 -0.055743154 0.123732276 0.082026914 -0.017168839 -0.014520483 -0.058407243
0.036223978 -0.10388818 -0.01615945 0.074639946 -0.06557576 -0.010743286 0.16894186 -0.12049889
0.064825274 -0.05491171 0.03749048 -0.0416439 0.12069849 0.054310903 0.17832644 -0.06453487
-0.06448703 0.05152183 0.06735911 0.06641215 0.06600629 0.058176905 0.031777717 -0.074676104
0.11133668 0.061209198 -0.11156319 -0.059510976 0.10312876 -0.0065775015 0.025317678 0.21011798
0.1763127 0.02704065 0.05987194 -0.0164934 0.016500372 -0.07636087 -0.07131222 -0.096185245
0.054061826 0.12264724 0.013177647 -0.11022511 0.058326095 -0.096438274 -0.0860199 0.1351907
0.008178326 -0.055098824 -0.08139111 -0.092334494 -0.17843664 0.031696092 -0.10892214 0.07776094
0.09644563 0.1028572 0.08920603 0.09115121 -0.0014147315 0.16372941 0.111505784 -0.058915827
00000000: 5ed2 5e3d 7868 31bc 3ee5 dbbd dc06 4b3d
00000010: ae80 d23d 081a 013e d33f 373e a16d 943c
00000020: a590 0dbe 7e09 0cbd a238 103d 80a0 27be
00000030: 4969 003e d270 b13d 0472 c03d 5b84 823d
00000040: f4d7 093e bb50 09be d269 f83b 44f9 53bd
00000050: b1b0 c73d 7244 653d 1ce7 4abd 0d26 9c3d
00000060: 15dc 0d3b 945a 393d 71d3 b7bd 689f 0dbd
00000070: fed1 acbd 63e0 733b 42f8 abbd a236 473e
00000080: e8a6 b13d 1723 6fbd f0a7 aabd ab28 783d
00000090: a397 893c 25d8 9b3d 38c3 d4bb 6d0a a2bd
000000a0: 51fa 3e3d 4f78 efbc 76e6 333e 6f29 c1bd
000000b0: be87 733d 4955 9b3d 1df6 dabd 55f7 44bd
000000c0: 09f6 4abd fb94 163d 17ee f73c 0523 04be
000000d0: b506 be3c cba9 5d3d 5d57 6fbd 8e32 c73c
000000e0: 525b 483d 503f 1d3c 9c57 a8bd 45b8 b23d
000000f0: db91 90b7 5bc5 bebd 5736 b03d 1f4c d03c
00000100: 297b cc3c a6ae fcbd 0c18 15be 3c29 27be
00000110: c7ac e7bd 455a 76be 30c2 52be 16ea 0fbe
00000120: c4d9 61bd b576 e8bd ccbe a2bc 79a2 f4bd
00000130: 57fc e2bd 0e05 3dbe fe6e 13be 1fa4 b1bd
00000140: 067c 5bbe 5f7f 99bd dd44 27be 305e 03bc
00000150: 26b3 9fbd 720d afbd 57e4 0abd 9e70 64bb
00000160: e398 a7bc 497e 52be 6b2d 86bc 3963 69be
00000170: e69c a73c 95c3 a33c dee2 02be 6d3b edbd
00000180: 9fcc d33c b53e 69bd d4b1 63bc 6f4b 53be
00000190: 0bd0 13be 133d ecbd 481b febd 083b ffbd
000001a0: 4b2a 4bbe d032 f3bd 5624 cebd 4c68 1bbe
000001b0: 4c21 27be 542f 26be b256 f5bd 1b4e 6ebd
000001c0: 523c fe3c ab49 38be 03b4 f1bc dac2 bc3c
000001d0: 31ca 0dbe 7ac2 3abe 8605 1bbe 8440 b93c
000001e0: 31db a3bd 3130 c7bd a1c2 9abd 1b7c 55be
000001f0: f77e 07be fa2f ccbd 83be 06bd 0378 6abe
00000200: e9cb 853d d9dd 8a3c 28fa 84bd 79f9 42bb
00000210: 0ae6 0cbd 1ef3 f4bd 2e54 ac3d 0c23 c33d
00000220: 7aee 373c f4c2 52bd fdb8 6e3c 8a1f 3abd
00000230: 70d1 a4bd ac20 79bd f80e 3a3a af17 81bc
00000240: 0019 633d 0cce c2bc bb3b 213d c00f b4bd
00000250: 3d04 9bbd 9259 873d 0903 b53c 18aa 173d
00000260: a336 013d e508 cbbc e42e ad3d dfec 073c
00000270: 0049 243c e5e6 4f3b 49ec b3bb 507d 40bd
00000280: 93da 733d 9780 1abc 137c 13bc 35c5 3e3d
00000290: ff8d 6fbd 303c 9dbd 44fb 873b e8cd 6cbc
000002a0: 7c51 eabb 1d99 2a3d 781a ea3c a350 bb3d
000002b0: 8601 fcbc 29c4 0c3d 0499 40bd 3e8b 0bbc
000002c0: e5ad 57bc 99e7 cabc 4d7d a9bc fc78 1dbd
000002d0: 7dbf 153d 3645 8a3a 2b5c a13c 94e4 233e
000002e0: 2da3 a13b 5652 20bd ef52 64bd 5967 fd3d
000002f0: bafd a73d aaa5 8cbc 52e7 6dbc 6f3c 6fbd
00000300: 985f 143d 53c3 d4bd d360 84bc d4dc 983d
00000310: 964c 86bd 9c04 30bc 18ff 2c3e 1fc8 f6bd
00000320: 1dc3 843d 1aeb 60bd 9e8f 193d cb92 2abd
00000330: c530 f73d 1c75 5e3d 359b 363e dc2a 84bd
00000340: c711 84bd 8e08 533d 93f3 893d 1803 883d
00000350: 4e2e 873d e84a 6e3d 5a29 023d c9ef 98bd
00000360: 7c04 e43d 7fb6 7a3d 3e7b e4bd c8c1 73bd
00000370: 2c35 d33d 1588 d7bb 0567 cf3c 2b29 573e
00000380: 518b 343e 5a84 dd3c 483c 753d 2b1d 87bc
00000390: ca2b 873c 1663 9cbd 240c 92bd c5fc c4bd
000003a0: ef6f 5d3d 7a2e fb3d 0fe7 573c b4bd e1bd
000003b0: 58e7 6e3d 6e81 c5bd 342b b0bd 6e6f 0a3e
000003c0: 63fe 053c 4eaf 61bd 62b0 a6bd de19 bdbd
000003d0: 18b8 36be c3d3 013d 9212 dfbd 2141 9f3d
000003e0: 4985 c53d cca6 d23d a7b1 b63d 7cad ba3d
000003f0: 836e b9ba afa8 273e 255d e43d b951 71bd

lstm.bias_hh_l0 f4 [256]
-0.067345165 -0.05127768 -0.003651914 0.07928166 -0.064467125 0.053144954 0.18479837 0.036007974
-0.12659436 0.12187457 0.04346502 0.059018582 -0.033771776 0.049683113 -0.034760863 -0.068602
-0.013426604 -0.046060953 -0.017905 0.08653327 0.04200541 -0.047557063 0.0090770675 -0.105146386
0.0042487406 0.019571725 -0.09616541 -0.06366302 0.1474351 0.013074107 0.08230798 0.098809265
0.08116759 -0.07417249 -0.0004022236 0.036506493 0.019640727 0.04501718 -0.021969046 -0.0974169
0.021159915 0.11616005 0.24368006 -0.02878224 -0.016288469 0.06037401 0.05680448 0.010415115
-0.1501273 0.014785361 0.11029532 0.026861746 -0.1612955 -0.07188079 0.09592315 0.029714476
-0.06392442 0.17280264 -0.0072332034 0.15803179 0.104009345 0.10777829 -0.103504784 0.12060986
-0.037941683 0.0005796432 -0.16971806 -0.056345545 -0.016775787 -0.18747644 -0.27837494 0.042684298
-0.08911529 -0.18682876 0.036300197 -0.05453544 -0.10141172 0.008076836 -0.19333388 -0.16671346
-0.02386194 -0.061296295 -0.20289896 0.048430443 -0.17244826 -0.081616476 -0.061126072 -0.16392463
0.009217597 -0.08683111 -0.19407289 0.0040414175 -0.022836803 -0.15062939 -0.022763576 -0.21889848
-0.11757557 -0.019506954 -0.03504835 -0.14631017 -0.0069381297 -0.14265022 -0.07380065 -0.081906356
0.024827672 -0.04059258 -0.15018937 -0.121986434 -0.16953564 -0.19608036 -0.03233925 -0.19104703
-0.030747592 -0.14969568 -0.112025835 0.054737445 -0.08861603 -0.10502134 -0.14901522 -0.19173862
-0.15378132 -0.1416555 -0.08186684 -0.05888795 -0.12578775 -0.1320813 -0.07917978 -0.24246152
-0.008200253 -0.038596213 0.025249518 0.053019382 0.07950435 0.010360753 0.06336475 0.030435942
-0.017153608 0.0028078866 0.007284539 -0.011126413 -0.0022822397 0.06112803 -0.018930206 0.0651464
-0.04158639 -0.0024144466 -0.098434724 -0.014729303 -0.0974203 -0.0878301 0.013937045 -0.062454067
-0.044359643 -0.01320326 -0.023297952 -0.107790165 -0.080426395 -0.10170767 0.019417062 -0.038324013
-0.12937577 -0.07173198 -0.06515455 0.022541739 0.015239286 0.018914772 -0.07320136 -0.014161753
-0.074203804 0.011141375 0.06230348 -0.078801356 -0.014990278 0.06606146 0.08247633 0.08440214
0.009267817 0.0541503 -0.07094437 0.014389712 0.0239483 -0.04513598 0.0057665817 -0.037940416
0.046326112 0.1466286 0.006140978 -0.058506966 -0.070915684 -0.053598918 0.030934485 0.04907184
0.027530571 0.03686258 0.10334586 0.114318565 -0.07331401 0.07237694 0.15888366 -0.16557427
-0.12000466 -0.06828557 0.06823886 -0.17653994 -0.09364036 0.04773564 0.13898332 -0.05190789
0.14495799 -0.094606586 0.14958274 0.053853128 0.12700595 -0.041847534 0.03747041 -0.020702772
0.07992181 -0.09610519 0.086287245 0.09850612 0.12737477 -0.042574134 -0.066987716 0.19347985
-0.053461127 -0.088661164 0.13380955 -0.07245303 -0.09618682 -0.0256783 -0.038059194 -0.0061497255
-0.1105025 0.0074472344 0.113648355 -0.15335175 -0.039721392 -0.043187946 -0.12100072 0.08708765
-0.039829742 -0.04468339 0.04935574 -0.09211239 0.007788767 0.05882005 0.0846581 0.11967042
0.13010687 0.07283504 -0.056155488 -0.028490297 0.0619 0.1271398 0.101635925 0.15250018
00000000: 43ec 89bd 8b08 52bd f354 6fbb 6c5e a23d
00000010: 5707 84bd 86ae 593d c93b 3d3e 197d 133d
00000020: f4a1 01be 6099 f93d 6008 323d 78bd 713d
00000030: 4654 0abd 8580 4b3d 6861 0ebd 357f 8cbd
00000040: 42fb 5bbc 69aa 3cbd 82ad 92bc 5b38 b13d
00000050: dd0d 2c3d 32cb 42bd fbb7 143c fd56 d7bd
00000060: 0539 8b3b e254 a03c 5ff2 c4bd c261 82bd
00000070: 3af9 163e c734 563c 1691 a83d 835c ca3d
00000080: 323b a63d bfe7 97bd 8ae1 d2b9 d587 153d
00000090: 97e5 a03c ef63 383d 6ef8 b3bc 8382 c7bd
000000a0: 8f57 ad3c 52e5 ed3d 4487 793e bbc8 ebbc
000000b0: 656f 85bc bd4a 773d d0ab 683d 29a4 2a3c
000000c0: f9ba 19be 4c3e 723c 83e2 e13d 2a0d dc3c
000000d0: a62a 25be 3c36 93bd 5b73 c43d c66b f33c
000000e0: ceea 82bd 2df3 303e 8204 edbb 16d3 213e
000000f0: da02 d53d ddba dc3d 51fa d3bd 4d02 f73d
00000100: bd68 1bbd 32f3 173a 92ca 2dbe 96ca 66bd
00000110: 606d 89bc d3f9 3fbe 2987 8ebe bbd5 2e3d
00000120: 1482 b6bd 0a50 3fbe 84af 143d 8e60 5fbd
00000130: f3b0 cfbd b554 043c 51f9 45be efb6 2abe
00000140: 1d7a c3bc d311 7bbd bfc4 4fbe 005f 463d
00000150: 4796 30be 8a26 a7bd 555f 7abd dcdb 27be
00000160: 6705 173c 82d4 b1bd 0bbb 46be de6d 843b
00000170: 3f14 bbbc 973e 1abe ae7a babc ec26 60be
00000180: 76cb f0bd 0ccd 9fbc dc8e 0fbd 55d2 15be
00000190: 4059 e3bb e612 12be cc24 97bd 85be a7bd
000001a0: 6763 cb3c 6844 26bd 3ecb 19be 06d4 f9bd
000001b0: c09a 2dbe 4ac9 48be 2976 04bd d5a1 43be
000001c0: 60e2 fbbc d349 19be cd6d e5bd 5f34 603d
000001d0: 527c b5bd 6e15 d7bd 7297 18be 2157 44be
000001e0: da78 1dbe 240e 11be cda9 a7bd 7e34 71bd
000001f0: 81ce 00be 5240 07be 0229 a2bd d547 78be
00000200: 5b5a 06bc 1017 1ebd 14d8 ce3c da2a 593d
00000210: 2dd3 a23d 26c0 293c 61c5 813d cc54 f93c
00000220: b985 8cbc 8504 383b 24b3 ee3b 8f4b 36bc
00000230: a191 15bb 6361 7a3d 8513 9bbc 7a6b 853d
00000240: 7e56 2abd b13b 1ebb 2598 c9bd 2d53 71bc
00000250: 4b84 c7bd 44e0 b3bd 3458 643c d6cf 7fbd
00000260: 75b2 35bd 7c52 58bc 59db bebc 17c1 dcbd
00000270: 98b6 a4bd 1c4c d0bd 8810 9f3c a4f9 1cbd
00000280: 157b 04be 37e8 92bd c06f 85bd 74a9 b83c
00000290: 33ae 793c 27f3 9a3c 98ea 95bd b206 68bc
000002a0: 2af8 97bd 508a 363c ef31 7f3d 9b62 a1bd
000002b0: c899 75bc 3b4b 873d 5ae9 a83d 07db ac3d
000002c0: 0bd8 173c b4cc 5d3d 484b 91bd d4c2 6b3c
000002d0: 3a2f c43c 81e0 38bd 98f5 bc3b 6967 1bbd
000002e0: 73c0 3d3d cf25 163e 423a c93b 00a5 6fbd
000002f0: 3e3c 91bd 8a8a 5bbd 516a fd3c 8eff 483d
00000300: cb87 e13c 37fd 163d ffa6 d33d da1f ea3d
00000310: a825 96bd 5c3a 943d 66b2 223e 4d8c 29be
00000320: 01c5 f5bd 4ed9 8bbd d1c0 8b3d e3c6 34be
00000330: 84c6 bfbd 7286 433d a551 0e3e 5e9d 54bd
00000340: de6f 143e 19c1 c1bd 382c 193e 1995 5c3d
00000350: d90d 023e 5268 2bbd 937a 193d dc98 a9bc
00000360: 0cae a33d ccd2 c4bd 5eb7 b03d 94bd c93d
00000370: 886e 023e 3762 2ebd db30 89bd 951f 463e
00000380: 0efa 5abd fc93 b5bd 5f05 093e 4162 94bd
00000390: 98fd c4bd 4c5b d2bc f5e3 1bbd a383 c9bb
000003a0: 224f e2bd ee07 f43b 78c0 e83d 3e08 1dbe
000003b0: e6b2 22bd d8e5 30bd 3acf f7bd 035b b23d
000003c0: 8324 23bd ee05 37bd 3f29 4a3d 6ca5 bcbd
000003d0: ea38 ff3b 4bed 703d 3a61 ad3d c415 f53d
000003e0: bc3a 053e 8a2a 953d 4c03 66bd 7c64 e9bc
000003f0: db8a 7d3d f030 023e 7f26 d03d 0229 1c3e

lstm.weight_ih_l0_reverse f4 [256, 6]
0.54119086 -0.14804763 0.10103991 0.08004939 -0.0042567905 0.097349465 0.28586033 0.06253992
0.11470304 -0.036834862 -0.069295846 0.013481424 0.24116197 -0.054089833 -0.0382752 -0.08253536
-0.05632007 -0.13293459 0.26593807 -0.04281689 0.052311037 0.10823635 0.16327302 0.11802822
0.23841046 -0.15172516 0.16891581 0.1333448 0.18496756 -0.1274571 0.30327517 0.011164258
0.035956804 0.0806589 0.18387476 0.020113774 0.23987459 -0.14511608 0.025798716 0.14782897
0.013996526 0.06618223 0.1828575 -0.20742877 0.101223186 0.1646383 0.15210474 0.07722442
0.16785504 -0.03473857 0.02042446 -0.012456358 0.12500411 0.042752314 0.09921442 -0.05951798
-0.07210301 -0.10150662 0.12727101 0.010333217 0.20102629 -0.07219637 0.10774667 0.20872031
0.13672985 0.09829035 0.22867581 -0.0028019384 0.024992142 0.022683319 0.14792769 -0.07647222
0.24927117 -0.1258078 -0.012186618 0.14748222 0.0062107276 -0.14904462 0.24038583 -0.12841658
0.21665412 0.014162654 0.007018289 -0.14831297 0.26354283 -0.053563472 0.06366167 0.09399855
0.12425221 0.07695405 0.2047824 0.0013059457 -0.039672695 -0.0013282784 0.11237469 0.03421176
0.46806115 0.0878131 -0.016122757 -0.07282674 -0.014908958 -0.042947166 0.12964427 -0.11442007
0.19091263 0.02507484 0.15876366 -0.031953026 0.25639793 -0.03408801 0.18665668 0.191682
0.03639574 -0.041034125 0.28191125 -0.10272381 0.018964978 0.1217518 0.056732107 0.010594971
0.4129165 -0.087958544 0.0305678 0.097557455 0.06759157 -0.046607636 0.23802012 0.007044849
0.180331 0.17556062 0.26320437 -0.14377768 0.26299977 0.0200886 0.13548896 -0.0028979126
0.071064666 -0.05666943 0.078893945 0.03176922 0.0066266097 -0.0411621 0.15092283 -0.029316982
0.27689934 0.1679049 0.07457354 -0.15113539 -0.03318679 0.06936453 0.22131371 -0.11892339
0.11700015 -0.0097276615 0.13006298 -0.16103974 0.1914163 -0.14730789 -0.00821086 0.102635756
0.1253105 -0.06359494 0.34090543 0.15350512 0.017503912 -0.14205873 0.056260496 -0.012336142
0.30597034 0.0911078 -0.02939665 -0.043352004 -0.031024015 0.044723626 0.35050792 -0.22160241
0.0058397255 0.0788251 0.15759985 -0.0047319424 0.080372676 -0.022474783 -0.047630254 0.09922552
-0.039031934 -0.107385434 0.20724101 -0.16353686 0.08290222 0.04898274 0.08396592 -0.09009142
0.14077075 0.021967521 0.148321 0.048399076 -0.0057910336 0.044278115 0.22462513 0.07920314
0.059447296 -0.06849146 0.103844576 -0.03796696 0.3263951 -0.0800152 0.1879993 0.09742913
0.16563416 -0.074859284 0.1383855 -0.13213468 0.17834997 0.19590713 0.034038708 0.023774765
0.092401795 0.079268076 0.07703511 0.045267582 0.022367718 -0.1282091 0.13463753 0.021471266
0.04824144 -0.052779056 -0.04482208 -0.09032587 0.18331476 0.03277074 -0.05842071 0.00025534967
0.01120598 -0.09860293 0.26157337 -0.0014113969 -0.032530952 -0.07929994 -0.01950934 -0.1284151
0.38948813 -0.26698425 -0.031317987 0.12257366 0.09910078 0.011076502 0.34037307 -0.058638733
-0.071035415 0.01896593 0.11301812 -0.10952826 0.23651482 -0.12754783 -0.06342848 0.17407545
00000000: 7c8b 0a3f cc99 17be 03ee ce3d eff0 a33d
00000010: 8c7c 8bbb 285f c73d 495c 923e ee14 803d
00000020: 6de9 ea3d 27e0 16bd fbea 8dbd 31e1 5c3c
00000030: 2af3 763e 4d8d 5dbd 75c6 1cbd 4c08 a9bd
00000040: e0af 66bd 0120 08be 0929 883e c360 2fbd
00000050: 1944 563d 05ab dd3d 0b31 273e c8b8 f13d
00000060: df21 743e d75d 1bbe 44f8 2c3e 8a8b 083e
00000070: 2368 3d3e 1d84 02be e246 9b3e 4bea 363c
00000080: 7147 133d 7e30 a53d aa49 3c3e a4c5 a43c
00000090: afa1 753e 4f99 14be d457 d33c 7a60 173e
000000a0: af51 653c 8d8a 873d ff3e 3b3e 3568 54be
000000b0: 1a4e cf3d f196 283e 58c1 1b3e d627 9e3d
000000c0: 31e2 2b3e 084a 0ebd 3251 a73c c115 4cbc
000000d0: 1401 003e 0d1d 2f3d ee30 cb3d 20c9 73bd
000000e0: beaa 93bd b4e2 cfbd 5553 023e a74c 293c
000000f0: d6d9 4d3e b1db 93bd 49aa dc3d c7ba 553e
00000100: e902 0c3e 734c c93d fe29 6a3e baa0 37bb
00000110: 52bc cc3c 5ed2 b93c 5b7a 173e 789d 9cbd
00000120: f140 7f3e c3d3 00be 61aa 47bc 9405 173e
00000130: 5c83 cb3b 279f 18be b427 763e a37f 03be
00000140: 94da 5d3e 7a0a 683c adf9 e53b 5bdf 17be
00000150: 16ef 863e 5f65 5bbd 0d61 823d 5082 c03d
00000160: f177 fe3d 169a 9d3d 7ab2 513e 442c ab3a
00000170: d67f 22bd a119 aeba b424 e63d a121 0c3d
00000180: b6a5 ef3e 5bd7 b33d df13 84bc 3026 95bd
00000190: b444 74bc 5ee9 2fbd 78c1 043e 1255 eabd
000001a0: 9a7e 433e c069 cd3c f192 223e 2de1 02bd
000001b0: 9746 833e df9f 0bbd ee22 3f3e 4948 443e
000001c0: b313 153d 6613 28bd ac56 903e dc60 d2bd
000001d0: 715c 9b3c 0259 f93d ed5f 683d 8796 2d3c
000001e0: cb69 d33e 9c23 b4bd 5369 fa3c 34cc c73d
000001f0: 736d 8a3d a6e7 3ebd 8cbb 733e 7ad8 e63b
00000200: b1a8 383e 2ac6 333e b9c2 863e 753a 13be
00000210: e8a7 863e d990 a43c 9ebd 0a3e e8ea 3dbb
00000220: 5a8a 913d 341e 68bd 2693 a13d 7120 023d
00000230: 0824 d93b 9799 28bd 848b 1a3e 2b2a f0bc
00000240: c0c5 8d3e 43ef 2b3e 03ba 983d 3cc3 1abe
00000250: dfee 07bd fe0e 8e3d 10a0 623e 1b8e f3bd
00000260: c69d ef3d c560 1fbc 3b2f 053e 9ae7 24be
00000270: a202 443e e1d7 16be d886 06bc b232 d23d
00000280: 6551 003e 103e 82bd 288b ae3e 7230 1d3e
00000290: 5d64 8f3c d877 11be 6871 663d 881d 4abc
000002a0: 25a8 9c3e ba96 ba3d 3ed1 f0bc df91 31bd
000002b0: 1326 febc 1f30 373d c675 b33e beeb 62be
000002c0: 2b5b bf3b 0e6f a13d db61 213e 690e 9bbb
000002d0: 6e9a a43d 091d b8bc f117 43bd c036 cb3d
000002e0: f3df 1fbd e5ec dbbd fd36 543e 3576 27be
000002f0: a4c8 a93d 20a2 483d 53f6 ab3d da81 b8bd
00000300: 3526 103e 3bf5 b33c 76e1 173e 1c3e 463d
00000310: b6c2 bdbb f85c 353d 2104 663e 4235 a23d
00000320: 027f 733d 4045 8cbd 77ac d43d 3e83 1bbd
00000330: 421d a73e 02df a3bd e382 403e ec88 c73d
00000340: 009c 293e d34f 99bd eeb4 0d3e 504e 07be
00000350: 60a1 363e e19b 483e 2c6c 0b3d 4cc3 c23c
00000360: 273d bd3d 4d57 a23d 95c4 9d3d 806a 393d
00000370: 813c b73c 3f49 03be 6cde 093e 82e4 af3c
00000380: d198 453d da2e 58bd 5b97 37bd c5fc b8bd
00000390: ddb6 3b3e 9d3a 063d 8e4a 6fbd 74e0 8539
000003a0: 4999 373c 55f0 c9bd f2ec 853e 9ffe b8ba
000003b0: 2d3f 05bd 0268 a2bd 0dd2 9fbc 3f7f 03be
000003c0: fd6a c73e 29b2 88be 4a47 00bd e607 fb3d
000003d0: 5af5 ca3d 377a 353c 6145 ae3e 2b2f 70bd
000003e0: 047b 91bd 705e 9b3c 0b76 e73d 5a50 e0bd
000003f0: f130 723e e69b 02be cae6 81bd d640 323e

lstm.weight_hh_l0_reverse f4 [256, 64]
0.029020512 -0.030369258 0.09221083 -0.05400639 -0.045085587 0.08116426 -0.0455888 -0.12832683
-0.057006653 -0.04417613 -0.022436088 -0.055267863 0.0032949434 -0.01976772 0.011168281 -0.08042467
0.07027169 -0.08424038 -0.14422846 0.10304203 -0.10008289 0.1067301 -0.04730274 -0.006324119
0.087274745 0.13701804 0.022085682 0.043174192 -0.059745055 -0.05808905 -0.05043558 -0.08636712
0.07128769 0.0017593204 -0.023263903 -0.06300617 0.12097476 -0.14576858 0.044687323 -0.038788974
-0.031682275 -0.11467929 0.047905512 -0.007829833 0.05934093 0.04447454 -0.12785536 0.068157814
-0.07409587 -0.15014793 -0.08144747 -0.023564044 -0.06839069 -0.051110186 -0.055270195 0.02556235
0.03203003 -0.13453677 0.09975906 0.039111566 -0.028944751 -0.06538892 0.005250059 0.022020994
0.025540862 -0.026685162 0.07429034 -0.04981216 -0.015815364 0.13375396 -0.048018303 -0.08359553
-0.007886034 0.11586529 -0.106169656 -0.17386857 -0.0016211681 0.09370643 0.009432658 -0.03775754
-0.06270291 -0.08938246 -0.05303704 -0.02446158 -0.012261233 0.13307482 0.108415954 -0.024810597
-0.072429925 0.025557451 -0.055495717 -0.05657194 0.07231666 -0.015280082 0.047149736 0.019581912
-0.112843424 0.009153447 0.106053196 0.17476484 0.035125475 0.053661134 -0.020345146 0.0037756148
0.12210664 -0.20560077 0.10701881 -0.06126588 -0.1035228 -0.09394804 -0.14264162 0.032226037
-0.067978814 0.029436616 -0.11028817 0.10011845 -0.052120835 0.0597164 -0.1564062 -0.13074632
0.023532268 0.12319823 -0.056409687 -0.061518963 0.08239947 0.0908687 -0.082053415 0.033478133
0.10536699 -0.078006476 -0.07539804 0.08888393 0.032939773 0.03474256 0.09233726 -0.11230547
-0.09533988 0.05643036 -0.057186294 0.0043071983 -0.102295 0.03889071 -0.03261635 0.09695634
-0.042400647 0.06412732 -0.070511535 -0.12037739 -0.014572532 -0.059519332 -0.010674636 -0.018882131
-0.067900315 -0.039667103 -0.06506759 0.10452145 -0.13731952 -0.091655575 -0.09426211 0.030595148
-0.1500512 -0.094393626 0.058019906 0.035146695 0.151607 -0.09670088 -0.090160124 -0.038803045
-0.014250317 -0.01781276 -0.03237408 0.124546096 -0.12351101 -0.0028104112 0.014892679 -0.0864961
-0.054595567 -0.13070117 -0.09964279 -0.10622439 -0.0617195 0.062288348 0.08170648 0.033194717
0.103833914 0.050170176 0.06424508 0.0699848 -0.0049225804 0.03460272 -0.15275031 -0.1264524
0.09966462 0.12774798 0.076424725 0.021550007 0.019958876 0.11316511 0.12118014 -0.1245926
-0.16048808 -0.00020680114 -0.067611344 0.015359893 0.0171276 0.049202017 -0.070808895 -0.027336309
0.061211478 -0.078022145 -0.020943813 0.1027192 0.036575414 -0.07649424 -0.16871467 0.08627211
0.09207203 0.024860632 -0.16558719 0.04522916 -0.13326403 0.090919256 0.0126576545 0.022296969
0.11367266 0.014148995 -0.04770598 -0.006106341 0.016054582 0.02638781 0.07169777 -0.05940464
0.048725504 -0.0058948346 0.0883642 -0.048452668 -0.028367637 0.19693401 0.010395941 0.00021972535
0.15871954 0.02126741 -0.019129371 -0.0011329603 0.12902322 -0.11376345 0.11361148 -0.040609624
0.101144634 -0.06501409 0.010552553 0.017694902 -0.059690088 0.057004496 -0.045175966 -0.010872273
00000000: 6dbc ed3c f3c8 f8bc 08d9 bc3d ce35 5dbd
00000010: aaab 38bd 7339 a63d 52bb 3abd 1c68 03be
00000020: cf7f 69bd 08f2 34bd e3cb b7bc 8e60 62bd
00000030: faef 573b eaef a1bc 2afb 363c b0b5 a4bd
00000040: 9bea 8f3d 3886 acbd a0b0 13be b307 d33d
00000050: 42f8 ccbd 5095 da3d 85c0 41bd 8e3a cfbb
00000060: 1abd b23d 754e 0c3e 08ed b43c 6cd7 303d
00000070: 3bb7 74bd c9ee 6dbd 8a95 4ebd 3fe1 b0bd
00000080: 48ff 913d ff98 e63a f193 bebc 6109 81bd
00000090: 9dc1 f73d 5c44 15be 0e0a 373d 30e1 1ebd
000000a0: 46c5 01bd fadc eabd 9238 443d b348 00bc
000000b0: 7a0f 733d ef2a 363d 84ec 02be 5396 8b3d
000000c0: 93bf 97bd 61c0 19be eecd a6bd 6209 c1bc
000000d0: 6b10 8cbd ea58 51bd 0063 62bd 2268 d13c
000000e0: ec31 033d 02c4 09be 7a4e cc3d 7333 203d
000000f0: 8b1d edbc a0ea 85bd b008 ac3b 5f65 b43c
00000100: 123b d13c d79a dabc 8925 983d d607 4cbd
00000110: 398f 81bc ccf6 083e d7ae 44bd 2234 abbd
00000120: 6d34 01bc c84a ed3d 7a6f d9bd 9a0a 32be
00000130: 607d d4ba 28e9 bf3d 6f8b 1a3c a6a7 1abd
00000140: 626a 80bd 270e b7bd 5e3d 59bd a763 c8bc
00000150: 57e3 48bc c444 083e 2f09 de3d 983f cbbc
00000160: 2456 94bd dc5d d13c 7a4f 63bd fbb7 67bd
00000170: c21a 943d 4f59 7abc 1520 413d 3f6a a03c
00000180: 741a e7bd 57f8 153c 6b32 d93d 8ef5 323e
00000190: bbdf 0f3d c7cb 5b3d ddaa a6bc 4e70 773b
000001a0: 0c13 fa3d 0289 52be ae2c db3d eef1 7abd
000001b0: c303 d4bd d467 c0bd a510 12be 73ff 033d
000001c0: 7a38 8bbd 0f25 f13c c4de e1bd e70a cd3d
000001d0: a87c 55bd 2f99 743d f228 20be 5de2 05be
000001e0: bec6 c03c 5b4f fc3d d80d 67bd 4ffb 7bbd
000001f0: 0ec1 a83d 5e19 ba3d 9f0b a8bd 5e20 093d
00000200: a6ca d73d dcc1 9fbd 4a6a 9abd c708 b63d
00000210: dbeb 063d 374e 0e3d 511b bd3d 6900 e6bd
00000220: 8e41 c3bd 8523 673d 2d3c 6abd 6623 8d3b
00000230: 0a80 d1bd dd4b 1f3d b998 05bd 0c91 c63d
00000240: 4dac 2dbd 2f55 833d 5a68 90bd 6c88 f6bd
00000250: a1c1 6ebc 8bca 73bd abe4 2ebc b3ae 9abc
00000260: 520f 8bbd f979 22bd 2842 85bd 580f d63d
00000270: 7d9d 0cbe ebb5 bbbd 7e0c c1bd ada2 fa3c
00000280: 06a7 19be 7251 c1bd 48a6 6d3d fbf5 0f3d
00000290: de3e 1b3e 1c0b c6bd dfa5 b8bd f1ef 1ebd
000002a0: 297a 69bc 11ec 91bc af9a 04bd 0612 ff3d
000002b0: 57f3 fcbd e02e 38bb 6c00 743c de24 b1bd
000002c0: 9a9f 5fbd 87d6 05be 8511 ccbd 2c8c d9bd
000002d0: 96cd 7cbd 1122 7f3d ba55 a73d 2ff7 073d
000002e0: e0a6 d43d 3e7f 4d3d ed92 833d 3154 8f3d
000002f0: 994d a1bb 95bb 0d3d 946a 1cbe bd7c 01be
00000300: f71c cc3d 5ed0 023e 9184 9c3d a489 b03c
00000310: cc80 a33c 1cc3 e73d 4b2d f83d 682a ffbd
00000320: fd56 24be c2d8 58b9 d177 8abd 10a8 7b3c
00000330: 2e4f 8c3c 0e88 493d 4104 91bd 65f0 dfbc
00000340: e3b8 7a3d 13ca 9fbd 5c92 abbc 725e d23d
00000350: 1ad0 153d 03a9 9cbd 8ac3 2cbe 6faf b03d
00000360: 4390 bc3d 86a8 cb3c b08f 29be 3642 393d
00000370: 5e76 08be e033 ba3d 0d62 4f3c 22a8 b63c
00000380: 36cd e83d 30d1 673c 5867 43bd b317 c8bb
00000390: e684 833c 402b d83c 48d6 923d 4852 73bd
000003a0: 6594 473d 7529 c1bb 4af8 b43d 4e76 46bd
000003b0: 3f63 e8bc 12a9 493e bd53 2a3c 1366 6639
000003c0: 6087 223e fe38 ae3c 33b5 9cbc d77f 94ba
000003d0: aa1e 043e d0fc e8bd 23ad e83d 4756 26bd
000003e0: eb24 cf3d 1b26 85bd 9ee4 2c3c e6f4 903c
000003f0: 987d 74bd 8c7d 693d 6f0a 39bd 9e21 32bc

lstm.bias_ih_l0_reverse f4 [256]
0.078894824 0.034422405 0.08734417 0.061829258 -0.07214287 -0.026154798 0.019101331 -0.095929064
0.007729946 0.004143485 0.035282884 0.03745316 0.06418138 0.05034004 -0.014299783 -0.030963799
0.026488945 -0.05050913 0.09458365 -0.04420175 0.016751466 -0.08468832 0.03159383 -0.13375376
0.09700511 -0.06917337 0.10674687 0.06996695 -0.013712178 -0.053748045 0.11640041 0.058036305
0.06604375 -0.022201974 -0.010152671 -0.046610456 -0.015197116 -0.06334231 -0.0770185 -0.08365802
0.070769906 -0.036017142 0.024823409 0.07374871 -0.08643998 -0.06409656 -0.028940136 0.061517876
0.07329685 -0.118470475 -0.065585405 -0.11304769 -0.11826199 0.10060781 -0.14898768 0.10872897
-0.011938594 0.07141765 0.029949546 -0.13936614 -0.018048644 0.02809419 0.053584345 -0.034264997
-0.042187776 -0.14654559 -0.0364715 -0.15157491 -0.06865327 -0.08899074 -0.19075 -0.12347856
-0.070951425 -0.067169584 -0.08937538 -0.09447788 -0.18108954 -0.05540319 -0.20463742 -0.05179852
-0.12914863 -0.10947058 -0.14042954 -0.19361061 -0.22169325 -0.15563129 -0.043742757 -0.02243862
-0.025994657 -0.13511853 0.04517252 -0.03725325 -0.19581056 -0.16653402 -0.10776712 -0.12363102
-0.06433103 -0.16769364 -0.27745536 -0.115431 -0.21954581 -0.17925207 -0.002452204 -0.033510957
-0.1291089 -0.0419021 -0.068408825 -0.08313164 0.05650736 -0.2561111 -0.14049932 -0.24267736
0.04285468 -0.035749204 0.018200586 -0.09218012 -0.13242365 -0.12611607 -0.029646656 -0.13828497
-0.10522242 -0.1886727 0.02952221 -0.108617455 -0.1470937 -0.032541875 -0.13693953 -0.19875596
0.09949657 0.007203234 0.02711607 -0.010983237 -0.035563 0.004288004 0.036716305 0.05652236
0.033894774 -0.0041739815 -0.011183214 -0.025084944 0.009086887 0.07202501 0.034687877 0.0077193077
-0.032508668 0.011407829 -0.0559477 -0.053310324 0.0597659 0.061395675 0.030860158 -0.0036609054
-0.096652776 -0.095382676 0.023990592 -0.005131142 0.1010703 0.034128856 0.010714422 0.028988268
0.034009114 0.06608356 -0.02377205 -0.05218994 -0.030595338 0.01059262 0.12217877 -0.08401013
0.122816354 -0.038580902 -0.099614486 -0.05717026 -0.022580871 0.06629697 -0.016676156 -0.034338836
0.104599796 -0.054666437 -0.07973393 0.024731668 -0.03637903 -0.019046526 0.12501256 -0.095127255
-0.00039031805 -0.01790772 -0.008920264 -0.05638316 0.055729564 -0.12261737 0.0064379987 -0.039170053
-0.031755 0.10649989 -0.08596255 -0.07078902 0.08179542 -0.037808314 0.024479961 0.11107118
-0.06598703 0.008992479 0.16271614 -0.021375008 0.104547404 -0.050374754 -0.109997965 0.01437909
-0.02347341 -0.04556954 -0.021003703 0.0578457 0.0023482223 0.07944436 -0.08889289 -0.11469923
0.030951932 -0.0050038886 0.080019705 0.055351913 0.12634951 -0.01498799 -0.11215562 0.05913438
-0.14114513 0.05907312 -0.14202514 0.12755992 0.040114313 -0.0739655 0.031713948 -0.041232627
-0.06513191 0.04894649 -0.111211106 0.033470146 -0.09900951 0.08707768 0.061080202 -0.055494204
-0.041466907 0.037018165 -0.07489843 0.035538584 -0.009153065 0.1445793 0.061018914 0.09626872
0.08749876 -0.09618441 0.05453106 -0.08272655 -0.083549686 -0.0783473 0.10499357 -0.0123445485
00000000: 9c93 a13d 82fe 0c3d 80e1 b23d ad40 7d3d
00000010: a4bf 93bd 9642 d6bc 657a 9c3c 7576 c4bd
00000020: 7d4b fd3b 12c6 873b c984 103d 7c68 193d
00000030: 8771 833d 5c31 4e3d a349 6abc cba7 fdbc
00000040: 58ff d83c a9e2 4ebd 13b5 c13d e50c 35bd
00000050: 5f3a 893c 1271 adbd 8868 013d bff6 08be
00000060: 9daa c63d c5aa 8dbd 1a9e da3d d54a 8f3d
00000070: 0ba9 60bc e926 5cbd 5763 ee3d 7ab7 6d3d
00000080: f241 873d eae0 b5bc 6357 26bc 9bea 3ebd
00000090: 53fd 78bc 9db9 81bd e0bb 9dbd e554 abbd
000000a0: d0ef 903d b686 13bd 765a cb3c 9009 973d
000000b0: 7207 b1bd 0f45 83bd dd13 edbc 2bfa 7b3d
000000c0: a91c 963d a6a0 f2bd a451 86bd 8c85 e7bd
000000d0: 5833 f2bd 780b ce3d 3a90 18be 4bad de3d
000000e0: 189a 43bc 6b43 923d c058 f53c ffb5 0ebe
000000f0: c0da 93bc c925 e63c 427b 5b3d 7459 0cbd
00000100: 17cd 2cbd 0c10 16be 2463 15bd 7436 1bbe
00000110: 169a 8cbd c740 b6bd f853 43be 54e2 fcbd
00000120: fb4e 91bd 3590 89bd 700a b7bd 9e7d c1bd
00000130: 896f 39be 75ee 62bd 798c 51be af2a 54bd
00000140: 8a3f 04be 1d32 e0bd c3cc 0fbe dc41 46be
00000150: 8e03 63be cf5d 1fbe 9b2b 33bd 32d1 b7bc
00000160: bff2 d4bc 835c 0abe d206 393d dd96 18bd
00000170: 9082 48be e587 2abe 02b5 dcbd 4332 fdbd
00000180: fdbf 83bd e2b7 2bbe a10e 8ebe 1767 ecbd
00000190: 9ed0 60be db8d 37be 28b5 20bb c942 09bd
000001a0: 2035 04be 89a1 2bbd ed19 8cbd ec40 aabd
000001b0: 4374 673d fe20 83be 0edf 0fbe 6a80 78be
000001c0: 6488 2f3d c26d 12bd 6519 953c eec8 bcbd
000001d0: 119a 07be 9224 01be 8bdd f2bc 939a 0dbe
000001e0: da7e d7bd 6b33 41be 90d8 f13c d472 debd
000001f0: bb9f 16be a14a 05bd e039 0cbe af86 4bbe
00000200: dcc4 cb3d 1b09 ec3b 8522 de3c 09f3 33bc
00000210: 82aa 11bd 6282 8c3b d663 163d fd83 673d
00000220: 3fd5 0a3d e5c5 88bb cd39 37bc f17e cdbc
00000230: 2be1 143c d981 933d e014 0e3d 3ff2 fc3b
00000240: cf27 05bd e7e7 3a3c 6a29 65bd ed5b 5abd
00000250: 17cd 743d 087a 7b3d 71ce fc3c cdeb 6fbb
00000260: e4f1 c5bd fe57 c3bd eb87 c43c 2423 a8bb
00000270: f2fd ce3d b3ca 0b3d 8b8b 2f3c ce78 ed3c
00000280: 244d 0b3d d156 873d 9abd c2bc 1ec5 55bd
00000290: 13a3 fabc ab8c 2d3c dd38 fa3d 810d acbd
000002a0: 2487 fb3d 0207 1ebd ae02 ccbd 5d2b 6abd
000002b0: 85fb b8bc b5c6 873d 6f9c 88bc e1a6 0cbd
000002c0: 6b38 d63d eae9 5fbd 8b4b a3bd 119a ca3c
000002d0: 2e02 15bd 7607 9cbc 4b03 003e 14d2 c2bd
000002e0: 9aa3 ccb9 36b3 92bc 4d26 12bc 07f2 66bd
000002f0: af44 643d d11e fbbd d9f5 d23b c770 20bd
00000300: 8811 02bd 9d1c da3d 220d b0bd d5f9 90bd
00000310: 5b84 a73d e4dc 1abd 338a c83c 4979 e33d
00000320: 3524 87bd 3155 133c 0f9f 263e a41a afbc
00000330: f31c d63d c255 4ebd 9d46 e1bd 4696 6b3c
00000340: 4f4b c0bc 20a7 3abd f50f acbc 9def 6c3d
00000350: a2e4 193b bab3 a23d 7a0d b6bd 6ee7 eabd
00000360: e88e fd3c a9f7 a3bb 5fe1 a33d b0b8 623d
00000370: c461 013e 3090 75bc d8b1 e5bd e436 723d
00000380: 5988 10be a8f6 713d 0a6f 11be 119f 023e
00000390: e84e 243d 397b 97bd 7ce6 013d 8be3 28bd
000003a0: e163 85bd 1d7c 483d a6c2 e3bd fe17 093d
000003b0: 7fc5 cabd c855 b23d 3c2f 7a3d e44d 63bd
000003c0: 34d9 29bd 5ca0 173d 5964 99bd e890 113d
000003d0: bdf6 15bc 990c 143e f8ee 793d 8928 c53d
000003e0: 8d32 b33d 55fc c4bd f65b 5f3d 8a6c a9bd
000003f0: 191c abbd 8d74 a0bd de06 d73d ca40 4abc
