src/best_model.pth (torch, 168546 bytes, 10 tensors)

embedding.weight f4 [7, 5]
000000 4f 13 ec bf a3 3a 14 c0 22 24 10 bf 0e fa 2a bf
       -1.8443393 -2.316079 -0.56305134 -0.66787803
000010 24 be 9c bd d4 94 48 bf 01 81 5e 3f 2f d8 d3 3e
       -0.07653454 -0.78352094 0.86915594 0.41375872
000020 a9 63 25 bf 13 b6 8d bb 67 f3 f9 bd c7 b6 e0 3f
       -0.64605194 -0.0043246835 -0.122046284 1.7555779
000030 6c 16 fb 3b c1 03 4a 3f 45 21 eb be 18 4c ad 3f
       0.007662585 0.7891198 -0.4592382 1.3538847
000040 2e 70 cf be 11 b4 bf bd a6 20 c9 3e fe 46 84 3f
       -0.40515274 -0.09360517 0.3928272 1.0334165
000050 5c 3c e7 3f 9e cf 41 3e ee 8e 5c bf 19 e9 0e 3f
       1.8065295 0.18926856 -0.86155593 0.5582443
000060 be 7e 35 3f 6e f7 63 bf ec 13 a3 bf be 83 c3 3e
       0.7089652 -0.8904942 -1.2740455 0.3818645
000070 1f 87 9b bf 55 e6 16 3f 0b 55 73 3f 43 dc 86 bf
       -1.2150611 0.5894521 0.9505164 -1.0535969
000080 96 17 f1 be 5c 6d b9 be 41 3c aa be
       -0.47088307 -0.36216247 -0.33249095

lstm.weight_ih_l0 f4 [256, 14]
000000 32 45 ca 3d 16 4e b7 3d 4a 1f d2 bd 0c 0c 8c 3d
       0.09876479 0.089504406 -0.10259874 0.06838235
000010 5e 4d bb 3d d4 3e 05 3d be 7f a9 3d 2c e7 75 bd
       0.09145616 0.03253062 0.08276318 -0.060034916
000020 7e af e4 bd b0 ab c9 bd 90 03 cf 3c 6e 3b c3 bd
       -0.11166285 -0.098472 0.025270253 -0.0953282
000030 70 11 3f 3d a0 28 dc bb f8 8d be 3c aa ed c8 3d
       0.04664749 -0.00671871 0.023261055 0.09810956
000040 a0 8c 31 3c 38 a1 2f 3d a8 16 d9 bc 10 35 4f bc
       0.01083675 0.04287836 -0.026500061 -0.012646928
000050 88 24 e5 bc 82 27 bc 3d a0 f6 f2 bd 54 4f 72 bd
       -0.027971521 0.09187223 -0.11863446 -0.059157684
000060 a0 6f 90 3d 24 6c bb bd 1c df 31 3d 2c 47 47 bd
       0.07052541 -0.091514856 0.043425664 -0.04865186
000070 6e e6 8c 3d fc 0a e3 bd c0 6e 98 3d 8c 22 91 bd
       0.068798885 -0.110860795 0.07442999 -0.070866674
000080 b6 6a e7 bd 10 06 cb bc 80 a8 54 bc 2e 46 db 3d
       -0.1129965 -0.024783164 -0.012979627 0.10706745
000090 40 32 a6 bb e8 5b a5 bd 60 55 5c 3d c0 f8 46 bb
       -0.0050719082 -0.0807417 0.053792357 -0.003036067
0000a0 60 b4 ca bc f8 cc f9 3d 38 f1 94 3c e8 15 39 3d
       -0.024744213 0.12197298 0.018181428 0.045186907
0000b0 48 3a 87 bd 00 23 67 ba 86 1e df bd 28 29 02 bd
       -0.06602913 -0.0008817166 -0.10894494 -0.03177753
0000c0 98 be cf 3c b8 28 ca bc 7c 39 eb bd 90 6e 2a 3c
       0.025359437 -0.02467762 -0.11485574 0.010402337
0000d0 d8 b3 4d 3d f0 71 c3 3d 08 5c 7b 3d 5c 66 87 bd
       0.05022034 0.09543216 0.061367065 -0.066113204
0000e0 d0 4e d3 bd aa 91 cc bd b0 7b a8 3d d4 f9 1a bd
       -0.10317767 -0.09988721 0.082267165 -0.03783591
0000f0 20 7e b0 bd 90 a2 f6 3c 3c 2d fe bd d0 6a 25 3c
       -0.086178064 0.030106813 -0.124109715 0.010096267
000100 10 57 4a bc 84 4e 9a bd 80 9d a4 3b 80 39 64 bd
       -0.012349859 -0.07534507 0.0050236583 -0.0557189
000110 80 25 5e 3d a8 fd 27 3d ce b0 cd 3d 0c 71 79 bd
       0.05423498 0.04101339 0.100434884 -0.060898826
000120 26 7e 87 3d 08 ef b8 bc 60 53 28 3c 10 7e 7c 3d
       0.06615858 -0.022574916 0.010273784 0.06164366
000130 34 71 88 bd 02 2f c1 3d a0 23 b4 bb 2e b5 a4 bd
       -0.06662217 0.09432794 -0.005497411 -0.0804237
000140 10 22 53 3d 2a 0b ef bd 28 92 06 3d c6 b4 e6 bd
       0.051546156 -0.11672051 0.03285423 -0.112649485
000150 8c 88 78 bd 58 f0 6f 3d f8 af 5b 3d 60 94 59 bc
       -0.060677096 0.05857882 0.053634614 -0.013280004
000160 c0 d2 24 bc 46 7c a0 bd 82 6f 8a 3d 90 5e b0 3c
       -0.010060012 -0.07836203 0.0675955 0.021529466
000170 88 b0 8d 3c c8 b7 f9 3d 86 64 b1 3d c0 88 e5 bd
       0.01729609 0.121932566 0.086617514 -0.112077236
000180 40 f3 a3 bc 80 46 4d bc 88 5d be bc 38 1a ad 3d
       -0.020013452 -0.012529016 -0.023237959 0.084522665
000190 b8 bb 69 3d a0 90 7e bd 08 30 51 bd d0 47 f4 3c
       0.05706379 -0.062149644 -0.051071197 0.0298194
0001a0 da 1b f4 bd 28 43 1b bd d8 81 59 bd f0 c3 21 3c
       -0.11919375 -0.037905842 -0.053102344 0.009873375
0001b0 ba 4a c3 bd 4c d4 ab 3d 68 de 7d bd 0e a9 98 bd
       -0.09535737 0.08390102 -0.06197968 -0.074541196
0001c0 5e e1 90 3d a4 02 4c 3d 00 00 ec b8 d0 87 fd 3d
       0.070742354 0.049807206 -0.00011253357 0.1237942
0001d0 78 1b 6c bd b2 10 c8 3d 48 40 fe bc 36 60 a7 3d
       -0.057643384 0.097688094 -0.031036511 0.08172648
0001e0 00 59 2f bd ee 9b b1 bd 5a d6 ed bd 10 a4 f8 3c
       -0.042809486 -0.08672319 -0.1161315 0.030351669
0001f0 2a 64 c3 3d 00 98 7d b9 0c e6 83 bd 26 f2 eb 3d
       0.09540589 -0.00024184585 -0.06440362 0.115207955
000200 90 fc 8f bd 16 8c 99 bd a8 00 72 bd 80 3d 4c bb
       -0.07030594 -0.074974224 -0.059082657 -0.0031164587
000210 14 95 ad bd 64 d5 92 3d d0 48 1e bc 00 34 1a 3c
       -0.084757 0.07169607 -0.009660915 0.009411812
000220 1c db 41 3d 76 46 b9 bd c0 39 f0 bc 5c ae 4d 3d
       0.0473281 -0.090466425 -0.029324412 0.05021511
000230 dc 00 ef 3d 08 f7 d7 3c ec 41 da 3d 60 40 4f bc
       0.11670086 0.02636291 0.10657105 -0.012649626
000240 20 bc e1 3d 60 29 15 bc a8 e1 a6 3d 96 53 8b 3d
       0.1102221 -0.009104103 0.08148509 0.06803052
000250 9c 1a 95 bd 82 cf c1 3d 80 91 bf bb a8 9a a7 bd
       -0.07280466 0.09463407 -0.0058462024 -0.08183795
000260 ec 1e da 3d 80 ae d5 3b b0 69 10 3d a2 9e bf 3d
       0.10650429 0.006521046 0.03525704 0.09356429
000270 30 74 d4 3c 82 de 88 3d 50 e8 3e bc 0e 24 a1 3d
       0.025934309 0.06683065 -0.011652067 0.07868205
000280 c0 14 41 bc fc 48 a0 3d c8 73 bd 3d 5c 08 4e 3d
       -0.011784732 0.07826421 0.09250599 0.05030094
000290 a2 96 8d bd d0 43 0f 3c 10 1e ee bc ac 08 2f 3d
       -0.069134966 0.008744195 -0.02906707 0.04273288
0002a0 8e bb cd bd 00 d2 48 3d e2 14 bd 3d b8 b1 9d 3d
       -0.10045539 0.049028397 0.09232499 0.07699913
0002b0 40 a4 3a 3b 08 92 0b 3d 3e 9e 84 bd 52 15 8f 3d
       0.0028479248 0.034074813 -0.06475495 0.069864884
0002c0 00 5c 39 39 30 c0 2e 3c f4 b0 ce bd a8 36 fb 3c
       0.00017677248 0.010665938 -0.10092345 0.03066571
0002d0 d0 ff 02 3d d8 86 0e 3d 98 b2 ba 3d 74 d3 81 bd
       0.031982243 0.034796566 0.09116095 -0.063391596
0002e0 98 c8 b0 bd 04 82 b5 bd 10 e0 1f bc de 5a 90 3d
       -0.0863201 -0.08862689 -0.0097580105 0.070485815
0002f0 00 71 31 bc 40 ea bf bd 9c 39 ba 3d 5a 85 fc bd
       -0.010830164 -0.093708515 0.09093019 -0.12330122
000300 d4 2d b4 3d 5a f6 cc 3d 64 4a 1d 3d 98 e8 ac bd
       0.087978035 0.10007925 0.038401023 -0.08442801
000310 cc 92 fa bd 60 9e a3 bc 88 e3 47 bd b0 3d f4 bc
       -0.122350305 -0.01997298 -0.048800975 -0.029814571
000320 c0 fe ad bc 70 da 1f 3d 48 41 ba bd 74 fa b5 3d
       -0.021239638 0.039026678 -0.09094483 0.08885661
000330 00 4e fd bc 40 ca 4f 3c bc 1b c8 bd f4 f9 57 bd
       -0.030920982 0.0126824975 -0.09770915 -0.05272861
000340 38 7c 6b 3d 9e e5 c8 3d e0 ea 89 bc 68 ee 74 bd
       0.05749151 0.09809421 -0.01683563 -0.059797674
000350 28 98 cf bc e0 fd 67 3d 00 d8 54 ba e8 b1 b6 3d
       -0.025341108 0.0566386 -0.0008119345 0.08920652
000360 18 63 3b 3d a2 08 a9 bd 1e 41 8d bd c0 3e 93 bc
       0.0457488 -0.082536 -0.06897186 -0.017974257
000370 16 dc 9c bd 16 49 c6 3d b8 d6 80 3c 9c 53 2c 3d
       -0.076591656 0.09681909 0.015727386 0.042071924
000380 30 f2 c3 3c d4 7b 3b 3d 38 07 ed bc a0 70 10 3d
       0.023919195 0.04577239 -0.028934106 0.035263658
000390 cc 24 a2 3d cc a2 33 3d 40 8a b7 bd 30 16 be bc
       0.07917175 0.043856427 -0.08961916 -0.02320394
0003a0 f6 fb a7 3d 64 47 d7 bd 7a 8b b1 bd 28 57 23 3d
       0.082023546 -0.105116636 -0.08669181 0.03987804
0003b0 80 90 56 bd b0 08 a0 3c e2 fd ef 3d 7a d5 94 bd
       -0.0523839 0.019535393 0.11718346 -0.0726728
0003c0 98 9b ed 3d 2c 3d 75 3d 3c 68 57 3d 00 26 5f 3c
       0.11601943 0.05987279 0.05258964 0.0136199
0003d0 e0 c6 a7 3d 02 65 93 bd 50 0a 81 bc 76 85 d0 bd
       0.08192229 -0.07197 -0.015751988 -0.10181706
0003e0 0e 0b cb 3d a0 fc b1 bd 52 3f e8 bd 4c f3 18 bd
       0.09914218 -0.086907625 -0.113402024 -0.0373414
0003f0 58 ac f2 bd 6c ba d0 3d e8 3e 69 3d 00 ff f3 3b
       -0.11849278 0.10191807 0.056944758 0.00744617

lstm.weight_hh_l0 f4 [256, 64]
000000 ac 42 ec bd 20 51 c4 bc b8 d2 47 bd 0c 8f f7 3d
       -0.11536154 -0.023964465 -0.04878494 0.12087831
000010 e8 50 f0 bd c0 c3 cd bc ac a4 37 3d d6 f2 d7 bd
       -0.11734182 -0.025117755 0.044834778 -0.10544364
000020 24 22 82 3d b0 d6 52 3c 00 7c b6 3d 12 b4 ed 3d
       0.06354168 0.012868568 0.0891037 0.11606611
000030 cc 8d 95 bd 8a 5b 83 bd f8 f7 9f bd a8 69 4e 3d
       -0.07302436 -0.06413944 -0.07810968 0.05039373
000040 fc bd d4 3d 2c a9 5e 3d fc d6 39 3d bc 32 3b 3d
       0.10387799 0.054360554 0.04537104 0.04570268
000050 00 21 84 3a 88 96 d3 bd 10 9b 69 3d d0 e1 74 bc
       0.0010080636 -0.10331446 0.057032645 -0.014946416
000060 a4 dd 1a 3d 60 4e ef bb 94 6b a7 bd ba 24 82 3d
       0.03780903 -0.007303044 -0.08174816 0.06354661
000070 52 ed d9 bd 50 8b 33 3c 4c 15 d7 3d 50 a0 b7 bd
       -0.106409684 0.010958508 0.10502109 -0.08966124
000080 80 ef 75 bd 20 02 e9 bd 5c aa df 3d 38 95 14 3d
       -0.060042858 -0.113773584 0.10921165 0.03627512
000090 e6 a4 91 bd 3a 5b d2 bd 20 1e 87 3d a0 d9 ed 3b
       -0.0711153 -0.10271306 0.06597543 0.007258609
0000a0 88 e4 51 bd 4c 28 97 bd a8 cd 6d bd b2 dd b2 bd
       -0.051243335 -0.07380733 -0.058057457 -0.08733691
0000b0 f8 bf d6 bc f8 47 ae bc 9c cf 5a bd 6a 25 bb bd
       -0.026214585 -0.021274552 -0.053420648 -0.091379955
0000c0 64 ff db bd c6 da b9 bd 60 9f c1 3d da ca ef bd
       -0.10742071 -0.09074931 0.094542265 -0.11708613
0000d0 20 4e cd 3c 94 50 16 3d d8 7a 2c bd aa c1 83 3d
       0.025061667 0.03669794 -0.04210934 0.06433423
0000e0 e0 18 a1 3d ea d1 bb 3d c6 f5 c8 3d e8 d7 25 3d
       0.07866073 0.09170897 0.098125026 0.040489107
0000f0 d0 6e 38 3c 8c d3 66 3d 48 79 dc 3c 60 8c b2 3c
       0.0112568885 0.05635409 0.0269133 0.021795452
000100 a8 cd d1 bd e4 a5 de bd 38 a5 3e bd b0 4d 6e bd
       -0.10244304 -0.10871485 -0.046544284 -0.058179557
000110 d8 20 77 bd 00 d3 13 3a be 4a e1 3d 58 a7 b2 3d
       -0.060334057 0.00056390464 0.11000584 0.087233245
000120 3e c7 9d 3d 92 ca 84 bd b8 25 f4 bd 68 87 91 bd
       0.07704018 -0.0648395 -0.11921257 -0.07105905
000130 4e a3 b5 bd 88 ed 68 3d 02 0e 90 bd 14 29 89 bd
       -0.088690385 0.056867152 -0.07033922 -0.06697288
000140 3a b2 bb 3d 78 44 4b bd a8 26 b2 3c 18 93 60 3d
       0.091648534 -0.049625844 0.021746948 0.05482778
000150 a4 92 9c bd 28 84 06 3d 16 b7 be bd 12 b9 f5 3d
       -0.07645157 0.032840878 -0.093122646 0.1199819
000160 8e 61 9a 3d 48 f3 b1 bd 24 94 59 3d 88 4f b6 3d
       0.07538138 -0.0868898 0.053119794 0.08901888
000170 a8 16 b9 3c 08 91 87 3c 12 ab ee 3d 20 1a fb 3c
       0.022593811 0.016548648 0.11653723 0.030652106
000180 00 52 fd 3a c8 4b fa 3d 00 cc 9e 3b f0 05 d0 bc
       0.0019326806 0.122214854 0.004846096 -0.025393456
000190 00 cc 9d bd a4 20 dc 3d 14 10 c6 bd 24 57 72 3d
       -0.077049255 0.10748413 -0.096710354 0.059165135
0001a0 b6 d2 d4 bd 58 2b df 3d 80 0b 37 bb 82 6c e0 3d
       -0.103917524 0.10896939 -0.0027930439 0.10958196
0001b0 90 b4 97 bd 80 62 41 bd 18 c7 f7 3d b0 22 6d bc
       -0.074074864 -0.047213078 0.12098521 -0.014473602
0001c0 b4 bf 7c 3d 62 8e be bd 00 9f bf 3c b0 0e 63 bc
       0.06170626 -0.09304501 0.023391247 -0.013858482
0001d0 00 db 4a 3c a4 fb 64 3d 52 85 97 bd 36 0e b3 3d
       0.012381315 0.055904046 -0.07398476 0.08742945
0001e0 c4 5a 9b 3d 64 f1 ae 3d b8 c0 d7 3d 1a d1 f5 bd
       0.075856715 0.08542135 0.10534805 -0.120027736
0001f0 2a 28 fa 3d 7a 2d db 3d c4 d0 82 3d 52 24 a4 bd
       0.12214692 0.10702033 0.06387475 -0.0801474
000200 90 f1 9e bc c8 05 96 bc 80 bb 49 bc a8 26 ea bc
       -0.019402295 -0.018313304 -0.01231277 -0.028582886
000210 00 a6 93 3a a8 bc d9 3d 2e 20 9f 3d c0 32 5f bc
       0.0011264682 0.106316864 0.0776981 -0.01362294
000220 c8 d4 35 3d 00 06 d1 3c c0 d2 bf bc 20 e3 ee bb
       0.044392377 0.025515556 -0.023415923 -0.007290259
000230 02 48 c5 bd 20 7c e4 3b 6c c7 0a bd 02 56 af bd
       -0.09632875 0.0069728047 -0.03388159 -0.085613266
000240 a0 82 ef bc f0 45 09 bc c8 a6 28 bd 94 63 52 3d
       -0.029237092 -0.008378491 -0.04117468 0.051364496
000250 1e 31 d7 bd 50 6c 18 bd ce 95 8c 3d ae 47 b8 bd
       -0.10507415 -0.03721267 0.068645105 -0.08998047
000260 54 bc c5 bd 80 81 f6 3c b0 71 98 3d 80 fe fd bc
       -0.09655061 0.030091047 0.07443559 -0.031005144
000270 0c 68 82 3d 20 00 ab bc 50 f2 6d bd de 04 90 bd
       0.063675016 -0.020874083 -0.058092415 -0.07032178
000280 ae 51 9a bd 50 82 e3 3c 4e 33 8b 3d dc 41 4e bd
       -0.075351104 0.027772099 0.06796895 -0.050355777
000290 98 a0 f4 3c 30 5d 47 bc a0 32 7e bc fc a5 34 3d
       0.029861733 -0.012168214 -0.015515 0.044103608
0002a0 30 d1 36 3c 20 21 63 3d 10 a4 24 bc e0 67 ef 3b
       0.011158273 0.055451512 -0.010048881 0.007306084
0002b0 e0 24 ab bc 3c 13 56 3d 80 b7 df 3b c2 cb e7 3d
       -0.020891607 0.052264437 0.006827295 0.113181606
0002c0 06 ef c7 3d c8 7a 8d 3d c4 37 9e bd 2c b0 65 bd
       0.09762387 0.06908184 -0.0772548 -0.056076214
0002d0 b0 05 78 3d 88 34 cc bd 70 f8 37 3d 54 b5 76 bd
       0.0605523 -0.09970957 0.044914663 -0.06023152
0002e0 9c ff 9d bd e0 5d 53 bd 8a 69 be 3d 2a 24 ae bd
       -0.07714769 -0.051603198 0.09297474 -0.085029915
0002f0 28 9f 0d 3d 6c a5 c9 3d e0 86 c4 3b 6e ba 9e bd
       0.03457561 0.09846005 0.0059975237 -0.077504024
000300 78 eb 9e bc 2c 83 28 3d de d4 e6 bd f4 3a 79 bd
       -0.01939939 0.04114072 -0.1127107 -0.060847238
000310 b0 dc d1 3d 6c 60 31 bd 7c 17 58 bd 92 37 99 3d
       0.10247171 -0.043304846 -0.05275677 0.07481302
000320 94 37 b6 bd 1a 14 ba bd 28 fe d9 bc fe 2e b4 bd
       -0.088973194 -0.09085865 -0.026610449 -0.087980255
000330 bc 37 f1 3d 8c d2 e2 bd 00 54 1a 3c 60 20 c6 3b
       0.117782086 -0.11075315 0.009419441 0.00604634
000340 20 b8 45 3c 30 b5 5e 3d 8e 95 8d 3d d0 b1 17 bc
       0.012067825 0.054372013 0.06913291 -0.009258702
000350 88 64 90 bc 4c 95 37 3d fa 5b a4 bd 68 d7 f3 3d
       -0.017626062 0.044820115 -0.08025356 0.1190632
000360 ac ca a2 bd 80 a3 cd bd 76 df d9 bd 88 58 7a 3d
       -0.07948813 -0.10040951 -0.10638325 0.061119586
000370 60 ec 50 3d a0 e8 ad bd be 2e b8 3d ac e8 3d bd
       0.051006675 -0.08491635 0.0899329 -0.04636447
000380 30 f4 35 bc 3e 4f 9d 3d b0 78 00 3d 30 bb c2 bd
       -0.011105582 0.0768113 0.031365097 -0.095083594
000390 48 18 71 3d 94 60 97 3d 50 1e 8c bd 60 cb 77 3d
       0.058861047 0.07391468 -0.06841719 0.060496688
0003a0 b0 46 e6 bc 04 2a 42 bd 58 0c d7 3c 48 d9 5b 3d
       -0.028109878 -0.04740335 0.026251003 0.053674012
0003b0 fa ad f4 3d c4 da 0b bd 60 cc fe 3c f0 cc 90 bd
       0.11947246 -0.034144178 0.031103313 -0.07070339
0003c0 82 51 f1 3d a0 5f e6 bb c0 50 55 3d d8 47 3f bd
       0.117831245 -0.0070304424 0.052078962 -0.046699375
0003d0 d8 86 ef 3d f0 f4 4c 3d f0 63 e0 3c c0 9d 05 3b
       0.11695641 0.050038278 0.027391404 0.0020388216
0003e0 8c e5 ae 3d a4 58 70 3d 10 c5 27 bc 80 e2 cb 3d
       0.08539876 0.058678284 -0.010239854 0.09955311
0003f0 de 70 e9 bd 64 d7 13 bd 78 e2 ca bc 60 09 75 bd
       -0.11398481 -0.036094084 -0.024766192 -0.059823394

lstm.bias_ih_l0 f4 [256]
000000 f8 60 d0 3d 90 72 c7 bc c2 7a f1 bd 1c 9b 5e bd
       0.10174745 -0.02434662 -0.11790992 -0.054347143
000010 a4 f6 32 bd ee 8f cd 3d f0 06 2d 3d 00 bd 0c bc
       -0.043692246 0.10037218 0.042242944 -0.008589983
000020 82 b3 99 3d 12 1c ae 3d d8 68 90 3c d4 a2 57 bd
       0.075049415 0.08501448 0.017628118 -0.05264552
000030 e8 56 96 3c aa 6d 8c bd 12 d9 e0 bd 16 64 8d 3d
       0.018351987 -0.06856854 -0.10978903 0.069038555
000040 d4 9c 22 3d bc e0 c8 bd 68 40 b7 bd ee 83 94 bd
       0.039700344 -0.0980849 -0.089478314 -0.07251726
000050 5a 5e 85 3d 58 87 6e 3d 70 9e 47 bc d2 70 c6 3d
       0.06512137 0.058234543 -0.012183771 0.096894875
000060 90 4b de 3d e0 ac 16 bc 66 fa dd bd 8a 20 ae 3d
       0.10854256 -0.00919649 -0.10838775 0.085023
000070 38 5f ac bd 6c 71 cb bd cc e0 be 3d f2 c9 e6 bd
       -0.08416599 -0.09933743 0.0932022 -0.11268987
000080 e0 e7 45 3c 70 ee c1 3d 20 24 74 bc 00 54 a6 b9
       0.012079209 0.094693065 -0.014901191 -0.00031724572
000090 e8 50 dd 3d 60 fe 50 bd ce 1a 30 bd c0 0d 23 3c
       0.10806447 -0.05102384 -0.042994313 0.009952009
0000a0 fc cc 30 3d 5c f7 3b 3d f0 04 fa bc 48 f0 e5 3d
       0.04316424 0.045890197 -0.030519933 0.11227471
0000b0 a0 2a ea bb 02 78 ad bd 6e 13 96 3d 4e e3 8c 3d
       -0.0071461946 -0.08470155 0.07327925 0.068792924
0000c0 00 cb 50 ba 70 ef aa bc ba fd f3 3d 9c ca a5 bd
       -0.00079648197 -0.020866126 0.11913629 -0.08095285
0000d0 4c 4c db 3d b0 9f a3 bd ce 36 b4 bd 38 89 01 bd
       0.10707912 -0.07989442 -0.08799516 -0.031625003
0000e0 17 46 b6 bd 88 7a f1 bd b4 78 bc bd ae d4 9f bd
       -0.08900087 -0.11790949 -0.0920271 -0.07804237
0000f0 60 5d 83 bb a0 3f 8f 3c ec 09 ff bd e2 bf 93 3d
       -0.004008934 0.017486393 -0.12453064 0.07214333
000100 42 a5 bf 3d 3c 02 29 bd 90 d7 f1 3c 0e d4 b8 bc
       0.09357692 -0.041261896 0.029521734 -0.022562053
000110 7c 90 59 3d b3 cf 8e 3c b6 f9 a1 bd 7c dd 76 bd
       0.053116307 0.017433023 -0.07908957 -0.060269818
000120 2c 1d d5 bd 5c 90 0c 3d 10 c2 d1 3d ac a5 36 bd
       -0.10405955 0.03431736 0.102420926 -0.04459159
000130 34 ab f3 3d 22 ed ad bd 18 05 81 bd 76 ac f8 bd
       0.11897889 -0.08492495 -0.062998 -0.12142269
000140 08 5d 0a 3d 10 c8 ba 3c 2a 87 ab 3d b0 18 fb bd
       0.033780128 0.022800475 0.0837539 -0.12260568
000150 78 39 45 bd f2 ab e7 bd 50 79 80 bc 10 82 90 3c
       -0.04815051 -0.11312093 -0.015682846 0.017640144
000160 ee 0e bc bd 48 8f b1 bd 18 6c d8 3d 5c 2a 03 3d
       -0.09182535 -0.08669907 0.10567492 0.03202282
000170 10 f2 e8 bc 24 2c 4e bd 9a 1c e6 bd f0 94 bf 3d
       -0.028435737 -0.050335065 -0.11235924 0.093545794
000180 c8 22 9c 3c d8 62 1a bd 10 5d cb 3d c0 68 c4 3b
       0.019059554 -0.03769192 0.0992986 0.0059939325
000190 84 76 98 3d 20 84 e0 3b a0 6c 72 bc 6a 12 a4 bd
       0.0744448 0.006851688 -0.014796406 -0.08011325
0001a0 96 8f 96 3d 68 09 fc 3d 72 d8 a5 3d 9e 62 d2 bd
       0.073516056 0.123064816 0.08097924 -0.10272716
0001b0 f4 4c d3 3d 90 a3 1e bd 90 5e 8b bd 30 ce 1e bd
       0.10317412 -0.038730204 -0.06805146 -0.038770854
0001c0 28 53 61 3d 2a 58 df bd e8 35 6f bd 80 72 e1 ba
       0.055010945 -0.10905488 -0.05840102 -0.0017200261
0001d0 00 2d 5c bb 5a c2 e2 bd 98 cf f8 3d 60 3a 9b 3c
       -0.0033596158 -0.11072226 0.1214897 0.018948734
0001e0 92 50 ba bd 84 bb 3d 3d 00 f2 09 bd 9e 0c b9 bd
       -0.09097399 0.046321407 -0.033678055 -0.0903561
0001f0 84 a2 e2 3d 70 91 15 3c 00 aa ec 3d 40 a8 d3 bd
       0.11066154 0.009128913 0.115558624 -0.103348255
000200 a8 03 93 bd c0 de 21 3c 70 1d bb bc e0 9b 66 bd
       -0.07178432 0.009879768 -0.022841185 -0.056300998
000210 42 56 ce bd d0 66 a4 bc 78 a9 90 3c e6 20 b9 bd
       -0.10075046 -0.020068556 0.017658934 -0.09039478
000220 c8 9e 89 3d 82 9e c6 bd 8c b4 97 3d 28 23 64 bd
       0.06719738 -0.09698202 0.074074835 -0.05569759
000230 46 50 d2 3d 46 a5 84 3d 00 97 03 bb 76 e1 eb bd
       0.10269217 0.06476836 -0.0020079017 -0.11517613
000240 3a d5 a0 bd 08 bc 1e bd f8 e4 94 3d e4 24 47 3d
       -0.0785317 -0.03875354 0.07270235 0.048619166
000250 34 64 69 bd d0 68 6b bd 00 93 0c ba b2 a9 b9 bd
       -0.056980327 -0.057473004 -0.0005362481 -0.0906557
000260 e0 e7 95 bb 9a 36 ab 3d a0 57 cd 3c 4c 07 59 3d
       -0.004574761 0.08360024 0.025066197 0.052985474
000270 42 52 d7 bd b6 fc cf bd fa b9 a9 3d 66 d0 9a bd
       -0.10513736 -0.10155623 0.08287425 -0.0755928
000280 02 71 91 bd c6 5b 9b bd 60 57 d5 bc ce 74 c5 bd
       -0.07101633 -0.07585864 -0.02604264 -0.09641419
000290 32 97 d3 bd 70 a0 93 bc fc e8 09 bd b6 89 be 3d
       -0.103315726 -0.018020838 -0.033669457 0.0930361
0002a0 80 81 85 bb 10 f0 6e 3c d0 a4 23 bc 98 80 01 3d
       -0.0040742755 0.014583603 -0.009988025 0.031616777
0002b0 80 40 ae bd 34 76 26 3d 70 4b 88 3c d2 19 ed bd
       -0.08508396 0.04064007 0.016637534 -0.115771905
0002c0 32 9f 96 3d 84 ae d1 3d e2 12 e0 3d f0 cd 2b 3d
       0.07354583 0.10238364 0.109411016 0.041944444
0002d0 50 44 e4 bd 48 b0 e7 3c 40 92 ab bc de f3 cb 3d
       -0.11145842 0.0282823 -0.02094376 0.09958623
0002e0 cc 9b 61 bd 9a 4d d2 bd d8 0d cd 3c 0c b7 41 bd
       -0.05508022 -0.102687076 0.025031015 -0.047293708
0002f0 44 58 6f bd 9a d9 81 3d c4 2f 58 3d 1c 48 a5 bd
       -0.058433786 0.06340332 0.052779928 -0.080703944
000300 13 a5 10 bd c4 5f 53 3d be 0e d2 bd 4c fd 20 bd
       -0.035313677 0.051605 -0.10256718 -0.039304063
000310 00 d6 89 39 f0 93 17 bd 60 0f e1 bc e4 64 3f bd
       0.0002629012 -0.03700632 -0.027473152 -0.046727076
000320 30 20 c5 3c a8 ff 98 bd ec 8a d5 3d bc 97 78 3d
       0.0240632 -0.074706376 0.10426888 0.06069158
000330 2a 1a dc bd c0 3b 70 3c 20 ea df bc a0 cd 94 bc
       -0.10747178 0.014662683 -0.02733332 -0.018164456
000340 d0 20 1e 3d 38 46 ce bd 00 02 d9 ba 38 88 6e bd
       0.03860551 -0.10071987 -0.0016556382 -0.058235377
000350 82 75 8f 3d f8 f2 13 3d 18 9f 7c bd 28 9b d7 bd
       0.07004835 0.036120385 -0.06167516 -0.105276406
000360 90 58 3b 3d 92 e1 99 bd d0 54 0b 3d 78 c0 77 bd
       0.045738757 -0.07513727 0.03401643 -0.060486287
000370 40 cd 57 3d 44 fd 6e 3d b4 fe b1 3d c0 5b 59 bc
       0.052685976 0.058347 0.08691159 -0.013266504
000380 cc 33 d1 3d c8 cd 59 3d b2 d9 93 bd 38 2a a4 bd
       0.102149576 0.053174764 -0.072192565 -0.08015865
000390 30 cd de 3d 0c ca a3 3d 68 61 ef 3c ac f9 92 3d
       0.1087898 0.07997522 0.029221252 0.071765274
0003a0 be 01 83 3d 8e 06 9e 3d a2 c5 83 bd f7 39 5f 3d
       0.06396817 0.07716094 -0.0643418 0.05449864
0003b0 46 34 ae 3d 50 31 f4 bd 5e a7 ba bd e0 6c fa 3d
       0.08506064 -0.11923468 -0.09113954 0.122277975
0003c0 cc 4c a0 bd 2e 9b c5 bd 04 3f 46 bd 40 65 d1 bb
       -0.07827148 -0.09648739 -0.04839994 -0.006390244
0003d0 7c 3e 27 3d 54 03 24 bd d4 75 e5 bd 88 de d1 3c
       0.040831074 -0.040042236 -0.112041146 0.025618806
0003e0 06 8d 89 bd 20 45 75 bc 20 da 94 bc 5a 97 db bd
       -0.06716351 -0.014970094 -0.018170416 -0.107222274
0003f0 c8 2a 8b 3d a8 fe af bd 4a 36 c2 bd ae 32 61 3d
       0.06795269 -0.08593494 -0.09483011 0.054979973

lstm.bias_hh_l0 f4 [256]
000000 3a b8 86 3d 6c d0 af 3d 24 af a2 3d 2a a0 97 bd
       0.06578107 0.08584675 0.07943562 -0.07403596
000010 70 b9 ab 3d ac 68 3c 3d 20 14 ed 3c dc 89 1e 3d
       0.08384979 0.04599826 0.02894026 0.03870569
000020 00 d0 bb bc 14 af 2e 3d f0 6d f0 bc 34 3f 88 bd
       -0.02292633 0.042647436 -0.029349297 -0.0665268
000030 52 82 9d 3d 0c ab fe bd 58 53 96 bd 80 31 48 bb
       0.07690872 -0.12434968 -0.07340115 -0.0030547082
000040 fa d3 ad bd 6c ec 40 3d 20 c1 4d bc 58 73 35 3d
       -0.08487697 0.04710047 -0.012558252 0.044299453
000050 64 13 2b 3d 0a 96 e3 3d 40 a7 55 bb 26 55 c6 bd
       0.04176654 0.11112602 -0.003260091 -0.096842095
000060 c4 d8 ba 3d e2 2a d8 bd 00 e0 bf 3d 20 3d da 3c
       0.09123376 -0.10555054 0.093688965 0.026640475
000070 74 27 36 3d 4c 7e 25 bd 30 99 bd bd 74 3f d2 bd
       0.04447122 -0.04040365 -0.09257734 -0.10266009
000080 38 bd d7 bd 30 cd ba bd ae 60 bd 3d 00 c0 20 bc
       -0.105341375 -0.09121168 0.09246956 -0.009811401
000090 34 3c 5e 3d 68 06 a8 3c 5a b0 38 bc dc 47 3a 3d
       0.054256633 0.020510867 -0.011272514 0.045478687
0000a0 e8 64 14 3d 14 87 95 bd 44 f7 e6 bd 20 51 d5 3d
       0.036229044 -0.07301155 -0.11277631 0.10415864
0000b0 c0 03 3e 3c f8 a8 d2 3c 12 b4 d7 bd d8 48 8c 3d
       0.011597574 0.025715336 -0.105323926 0.06849831
0000c0 20 5d 55 3d 84 63 47 bd a8 73 f7 3d c0 4c 31 3d
       0.052090764 -0.04867889 0.120826066 0.043286085
0000d0 78 04 ec bc 5a ee ec bd bc ff 0f 3d 94 4b 49 3d
       -0.028810725 -0.115688995 0.035155997 0.049144343
0000e0 4c c7 2f 3d 68 31 cd 3d d0 73 1b 3d 68 ee 86 bd
       0.042914674 0.10019189 0.037952244 -0.06588441
0000f0 28 2d 6e bd 78 dd e2 3c d8 48 4c bd 2c 6a 86 bd
       -0.058148533 0.027693495 -0.049874157 -0.065632194
000100 60 2f d8 3c b4 47 f4 3d 58 af d5 3c ca 50 ac 3d
       0.026389778 0.11927739 0.026084587 0.08413847
000110 a8 da a7 3d 49 d5 af bd fe cd c2 bd a4 6b f8 3d
       0.08196002 -0.08585603 -0.09511946 0.12129906
000120 a4 72 10 bd a0 2c 07 3c c0 16 9f 3d b2 e6 aa bd
       -0.03526558 0.0082503855 0.07768011 -0.08344783
000130 0c fd 50 bd b2 0f ca 3d 76 a6 ff 3d 94 e3 d2 3d
       -0.051022574 0.09866275 0.12482922 0.10297313
000140 6c 26 68 3d 50 3e 29 3d b8 3d e4 bd 58 06 09 3d
       0.056677267 0.04131919 -0.111445844 0.033453315
000150 94 2d 7a bd 88 79 24 3d d4 46 2e bd b0 89 58 bd
       -0.061078623 0.040154964 -0.042548016 -0.052865684
000160 ac ae 39 3d 02 5e 8a bd 80 a6 e8 bb fa 01 de bd
       0.045332596 -0.06756212 -0.0070999265 -0.10840221
000170 40 97 1e bb ca 4b 8d 3d a4 16 73 3d ca 69 ee 3d
       -0.0024199039 0.06899221 0.059347764 0.116412714
000180 20 21 23 3c 58 a7 8f bd 72 16 95 bd 38 f6 f3 3d
       0.009956628 -0.0701434 -0.07279672 0.11912197
000190 80 b9 82 3d e0 45 15 bd 94 c0 ca bd a4 32 a7 bd
       0.063830376 -0.03644359 -0.099000126 -0.08163956
0001a0 c0 85 f7 bc f8 c8 bc 3d 8a fc a5 bd 72 2f 9f bd
       -0.030215144 0.09218019 -0.08104809 -0.07772721
0001b0 50 fa f9 3d 80 71 e6 bc a2 df a7 3d b0 da b7 bc
       0.122059464 -0.028130293 0.081969514 -0.022443146
0001c0 44 7e 8c bd b4 e4 ee bd cc c7 91 3d 34 03 1b 3d
       -0.06860021 -0.116647154 0.07118186 0.03784485
0001d0 56 88 d3 3d 00 9f e1 3c 08 8f 00 3d 24 c3 a1 3d
       0.103287384 0.027541637 0.031386405 0.07898548
0001e0 ee 79 b2 3d 78 6f c6 bd fc 7e 99 bd 3c 29 c1 3d
       0.087146625 -0.0968923 -0.074949235 0.09431693
0001f0 d4 9c 57 bd 8a 50 bb 3d 10 7a 3b 3c 92 c3 80 3d
       -0.052639797 0.09146221 0.011442676 0.06287302
000200 70 16 c4 bd c0 ed ed 3b a0 27 b3 bd 3c 9c fc 3d
       -0.09574592 0.007261008 -0.08747792 0.12334487
000210 b0 78 dc 3d 62 42 b0 3d 08 ff 5a bd 00 32 a5 3a
       0.10765207 0.086064115 -0.053465873 0.0012603402
000220 28 ab 73 bd d4 d6 c6 bd 7e 49 cc 3d b4 26 8c bd
       -0.0594894 -0.09708944 0.09974955 -0.068433195
000230 10 e8 97 3c 46 ef cf 3d 80 98 c6 3c b0 e8 32 bd
       0.018543273 0.1015306 0.02424264 -0.04367894
000240 90 55 3f 3c 00 42 6b bc f0 dc 2b bd 84 cb 43 bd
       0.0116781145 -0.014358997 -0.04195875 -0.04780151
000250 b4 19 50 3d 50 b5 45 3d 74 34 1e 3d 5c 75 f0 bd
       0.050805762 0.048268616 0.038624242 -0.117411345
000260 78 3d 88 bd 20 4f 41 3c 7c 46 91 3d d4 a3 6a bd
       -0.06652349 0.01179865 0.07093522 -0.057285145
000270 92 36 f3 bd 5e 95 89 3d 9a e1 e7 bd 78 61 4c 3d
       -0.11875643 0.06717943 -0.11322327 0.04989764
000280 e0 b7 c8 bc ec 03 c9 3d 7e 69 a1 bd b4 ea bc 3d
       -0.024501741 0.09815201 -0.07881449 0.092244536
000290 fc 05 da bd 2e 53 a1 bd e0 da e6 3d 8c 1b 7f bd
       -0.10645673 -0.078771934 0.11272216 -0.06228213
0002a0 f0 11 cd bd 00 66 8c 3a 20 ee 12 3d 32 54 95 3d
       -0.10013187 0.0010711551 0.035871625 0.072914496
0002b0 0c 54 27 bd be e2 eb bd 9e 28 af 3d c4 b2 03 3d
       -0.040851638 -0.11517857 0.08552669 0.032152906
0002c0 58 03 f3 3c b0 21 15 bd 86 13 87 3d c0 81 47 bb
       0.02966468 -0.03640908 0.06595521 -0.0030442327
0002d0 50 78 bd bd 80 d1 41 3b 94 cd ef 3d 7a 6f 8a 3d
       -0.092514634 0.0029574335 0.11709133 0.06759544
0002e0 b0 fd 36 bc 94 51 e4 bd fa 69 9e 3d f0 e4 53 3c
       -0.011168882 -0.11148372 0.07735057 0.012933001
0002f0 98 f5 32 3d 50 54 cc bd 66 b5 b9 bd bc 8b 16 bd
       0.043691248 -0.09977019 -0.09067802 -0.036754355
000300 47 67 d7 38 00 bc 72 bc 40 09 e2 3b 06 ba 83 bd
       0.00010271236 -0.0148153305 0.0068980753 -0.064319655
000310 e0 b3 f3 bc cc 56 30 3d 0c 02 fc 3d 72 68 8f 3d
       -0.029748857 0.043051526 0.12305078 0.07002343
000320 54 42 ed 3d 50 ce f1 3d d0 27 bd bd f8 91 d6 bd
       0.11584917 0.11806929 -0.09236109 -0.1047706
000330 7a f0 dc 3d 50 49 92 bd 2c bd 1d bd f2 0c 8b bd
       0.10788055 -0.071428895 -0.038510486 -0.067895785
000340 00 5c 3d b9 38 66 97 bd 4e 42 fd bd 68 c7 cb 3d
       -0.00018058717 -0.073925436 -0.12366162 0.09950143
000350 08 03 84 3d e4 bb 24 bd 42 22 fa bd 20 ed 07 3d
       0.06445891 -0.04021825 -0.122135654 0.033185124
000360 74 02 de 3d 50 2b ba 3c ba f4 dc bd 56 64 83 3d
       0.10840312 0.022725731 -0.107888654 0.06415622
000370 6c 8b dc bd da c7 c2 3d f8 b4 85 bc 54 76 f8 3d
       -0.1076878 0.09510775 -0.016321644 0.12131944
000380 70 ea 09 3d c4 19 2b 3d 1c 22 d2 bd 88 31 e8 bd
       0.033670843 0.04177262 -0.10260412 -0.11337572
000390 e0 04 8f 3b ca 57 a4 bd 3a 46 be bd d2 5e ac 3d
       0.004364595 -0.08024557 -0.092907384 0.08416523
0003a0 20 27 8f 3c 08 5e 58 3d 8e e3 87 3d 07 1e 9d 3d
       0.017474711 0.05282405 0.066351995 0.07671743
0003b0 80 71 0b 3d d4 3d 87 3d 38 ab de bd d0 b6 8c bc
       0.03404379 0.0660359 -0.10872501 -0.017177016
0003c0 58 d6 c2 3c 34 04 c9 bd a0 0c b6 bc ec 01 9a bd
       0.023783848 -0.09815255 -0.022222817 -0.07519898
0003d0 80 7e 79 bb 4a 00 f8 bd de e2 08 3d 42 bf e2 bd
       -0.0038069785 -0.1210943 0.033419482 -0.11071636
0003e0 64 76 0f 3d 28 63 f6 3d 0a 61 ea 3d 7e 27 9c bd
       0.035025015 0.12030631 0.1144429 -0.0762472
0003f0 9c 6b e5 bd 36 9f f3 3c 3e 35 e1 bd 3e fd 8e 3d
       -0.112021655 0.029739004 -0.10996483 0.06981896

lstm.weight_ih_l0_reverse f4 [256, 14]
000000 3e 9b e9 bd 98 b5 0d bd a8 8b b9 3d 48 37 ba 3d
       -0.11406563 -0.03459701 0.090598404 0.09092575
000010 34 6b 32 bd c0 dd a9 bc 0a 7f de 3d 38 6a 64 3d
       -0.043559268 -0.020735621 0.108640745 0.05576536
000020 5a c9 9f bd f6 d8 93 bd 48 02 2f bd 70 1d f4 bc
       -0.07802077 -0.072191164 -0.042726785 -0.029799193
000030 28 b9 42 3d 50 47 93 3d 08 0d 59 bd 00 9b 0c ba
       0.04753986 0.07191336 -0.052990943 -0.0005363673
000040 10 1a 6d 3c a0 78 c6 bd 02 44 e0 3d 3e a1 8e 3d
       0.014471546 -0.09690976 0.109504715 0.06964348
000050 b8 0c 42 3d 7a f7 c7 3d 00 f0 cc 3c 78 db ad 3d
       0.04737541 0.09763999 0.025016785 0.08489126
000060 72 7e 9a 3d d0 bd 68 bc 48 09 72 bd ce 9b 9f 3d
       0.07543649 -0.014205411 -0.059090883 0.07793389
000070 64 9f f0 bd 88 3f b7 bc 9c 20 ed 3d 40 dc ed 3d
       -0.11749151 -0.022369161 0.11578485 0.11614275
000080 c8 e7 e1 bc 58 b1 b2 3c 20 3f 42 bc e2 34 94 bd
       -0.027576342 0.02181308 -0.0118558705 -0.07236649
000090 56 92 d2 bd 80 78 b2 bb 44 be 83 3d e8 9c 19 3d
       -0.102818176 -0.0054464936 0.06432775 0.037503153
0000a0 46 b3 ed bd b0 ac c2 3c a6 c5 ea 3d 10 82 79 bd
       -0.11606459 0.023763984 0.1146348 -0.060915053
0000b0 4e 89 90 bd 6c 07 ad bd 60 2c ad bd 66 bd d0 3d
       -0.07057439 -0.08448681 -0.084557295 0.10192375
0000c0 ea 20 ee bd 88 5b df 3d ec 2b b4 bd 5e 36 a4 3d
       -0.116273716 0.1090613 -0.0879744 0.08018182
0000d0 20 0c 58 bd 74 fc c4 3d 90 c5 1d 3d c0 33 4d bb
       -0.05274594 0.09618464 0.03851849 -0.0031311363
0000e0 ec 5a e2 bd 6a fd d2 bd 94 a4 f4 bd e0 a6 e7 3b
       -0.11052498 -0.10302241 -0.11945453 0.0070694536
0000f0 ec 2a 70 bd 46 7f ec bd 70 e8 ba bc e0 dd 10 3c
       -0.058634683 -0.11547713 -0.022815913 0.008841962
000100 b8 cf 93 bc 24 5b 60 3d 74 f6 0e 3d 74 d8 41 3d
       -0.018043384 0.05477442 0.034903005 0.047325566
000110 b2 92 ef 3d de f1 8d bd 30 b6 ca 3c 06 2d 80 3d
       0.11697902 -0.06930898 0.024745077 0.062585875
000120 ac a6 68 bd 00 da 4a 3b c8 83 81 bd 24 f9 c9 3d
       -0.056799576 0.0030952692 -0.063239634 0.09861973
000130 40 e2 ef 3b 10 a8 c5 3c 2c cb 2e bd f8 52 8b 3c
       0.0073206723 0.02412799 -0.04267423 0.017007336
000140 ee 16 81 3d b2 99 e3 bd 9c 44 61 3d b4 b7 76 3d
       0.063032016 -0.111132994 0.05499707 0.060233787
000150 fa 47 ac 3d 96 a7 9b bd 80 30 f0 ba 9e 9d d4 3d
       0.08412166 -0.07600324 -0.0018325001 0.103816256
000160 7e c7 c4 3d 50 ee 8b bc 40 f9 ae 3d e4 db b0 bd
       0.096083626 -0.01708141 0.085436344 -0.08635691
000170 08 a8 85 bd 20 03 e3 bb d4 b6 07 3d 00 24 19 3c
       -0.0652619 -0.0069278628 0.033133343 0.009346962
000180 9c 19 ed 3d 00 7b 9c 3c aa 0f e0 3d 88 92 a0 3d
       0.1157715 0.01910162 0.10940488 0.078404486
000190 1c ed a9 3d 9c 63 03 3d 08 09 1a bd 58 5c 96 bc
       0.08297178 0.032077417 -0.03760627 -0.01835458
0001a0 58 be ab bd 80 1e 67 bd ca 0d c6 3d 0e 52 ab 3d
       -0.083859146 -0.05642557 0.09670599 0.0836526
0001b0 98 8c ac 3c 40 f1 a3 bc 3e f3 ef 3d 7c ed 8f bd
       0.021063134 -0.020012498 0.11716317 -0.070277184
0001c0 e2 7d 89 bd 80 d6 6e bb 68 cf 7d 3d 00 3a d4 3d
       -0.06713463 -0.003644377 0.061965376 0.10362625
0001d0 ca 34 f2 3d f8 94 83 bc f4 6b 76 bd e0 4a b0 3c
       0.11826475 -0.016062245 -0.060161546 0.021520078
0001e0 08 80 c2 bc 24 97 30 3d 60 d6 82 bd 4c c0 5b bd
       -0.02374269 0.04311289 -0.06388545 -0.053650185
0001f0 e6 de c7 bd 84 a8 ef 3d e0 e8 bf bb 20 4a b5 bd
       -0.097593114 0.11702064 -0.0058566183 -0.08852029
000200 80 b0 26 bc 4a 4a b1 bd 1c 1f a1 bd 46 e9 c5 bd
       -0.010173917 -0.08656748 -0.07867262 -0.09663634
000210 14 40 d5 bd e6 a6 9b bd 70 dc 1d 3c 44 fb 64 3d
       -0.104126126 -0.07600193 0.009635076 0.055903688
000220 84 da be 3d 38 20 a7 3d c8 64 60 3d e8 65 13 bd
       0.09319022 0.08160442 0.054783612 -0.035985857
000230 e6 9f 0e 3c a6 3e 0c bb 93 18 dc 3d cc 7b 8d bd
       0.008705115 -0.0021399646 0.10746875 -0.06908378
000240 70 52 f0 3d d6 e3 7f 3d 04 26 72 bd 45 54 02 3d
       0.11734474 0.06247314 -0.059118286 0.031818647
000250 2b f0 6f 3d bc e1 63 bd bb 50 e9 3d b1 04 90 bd
       0.05857865 -0.0556352 0.11392351 -0.07032145
000260 7c 1b 66 bd bc 7e bd bd 88 39 db bd 22 0d d0 3d
       -0.056178555 -0.09252688 -0.107043326 0.10158755
000270 40 ee 3e 3c b0 b5 19 3d 1c ec 13 3d c8 a7 1b bd
       0.011653483 0.037526786 0.036113843 -0.038001806
000280 dc 54 52 3d ce e6 df bd c6 0c 8e 3d c6 16 d5 bd
       0.05135046 -0.109326944 0.0693603 -0.10404734
000290 e0 be 79 3c 38 2c 9e 3c b8 cb 95 bd b2 20 cf 3d
       0.015243262 0.019308195 -0.07314247 0.10113658
0002a0 af f7 65 3c a9 35 b4 bd 64 73 3a bd 7d 18 7c 3d
       0.014036103 -0.08799297 -0.0455202 0.06154679
0002b0 2d dd f7 bd c0 d2 f2 3d 88 b9 cf bd 73 7d b3 3d
       -0.12102733 0.118566036 -0.10142809 0.08764162
0002c0 fa 25 88 3c 99 52 7e 3d bd 1f 80 3c 68 fc d9 3d
       0.016619671 0.06209049 0.015640134 0.10643846
0002d0 54 e0 92 3d f3 73 f0 3d 28 4c 1a 3c aa 30 37 3d
       0.071716934 0.117408656 0.009417571 0.044724144
0002e0 bb 05 23 bc e8 1c 52 bd 5f de 85 bd a7 9c 96 3d
       -0.009950097 -0.0512971 -0.065365545 0.07354098
0002f0 66 91 a3 3d d1 15 b4 3d b5 4a f0 3d 1e 40 41 3d
       0.07986717 0.08793224 0.11732999 0.047180288
000300 d7 a9 de bc 02 a9 9c bd 7c 7c 53 bd 15 ea 81 3d
       -0.027180595 -0.07649423 -0.05163239 0.06343476
000310 20 e5 22 3c 00 e2 fb 39 66 79 b7 bd 14 c9 2c 3d
       0.009942323 0.00048042834 -0.08958702 0.04218395
000320 f0 c8 9a 3c 48 90 d3 bd f2 77 d2 3d 54 0e 67 bd
       0.018894643 -0.10330254 0.10276784 -0.05641015
000330 74 ec 13 3d 3c 01 06 bd 54 a4 36 bd de de cc 3d
       0.03611417 -0.03271602 -0.04459031 0.10003446
000340 08 78 84 3d 5e 3e bc 3d 2e ef 84 bc 74 f1 8e 3d
       0.06468207 0.09191583 -0.016227331 0.06979647
000350 f9 a3 b9 3d 74 32 16 bb eb d6 e2 bd 98 79 90 3c
       0.090644784 -0.0022918256 -0.110761486 0.017636105
000360 0c ef ee 3c 74 82 7b 3d ed a2 ab bd 89 b6 2e bd
       0.02916672 0.061403707 -0.08380685 -0.042654548
000370 a0 f7 40 3d 6c 02 f0 3c f1 81 09 bd da 60 d1 3d
       0.047111154 0.02929803 -0.033571187 0.10223551
000380 b4 44 9a 3d a4 78 01 bd e0 44 92 3b 30 2a 0c bd
       0.07532635 -0.031609192 0.004463777 -0.03421992
000390 30 d2 ef 3d 10 f7 4c bc 34 00 f6 bd 1e be fa bd
       0.11710012 -0.012510076 -0.120117575 -0.12243293
0003a0 44 1e e1 3d d4 f9 e2 bd dc ba 3a 3d aa 1a a4 bd
       0.10992101 -0.11082807 0.04558836 -0.08012898
0003b0 1a 9f fb 3d 3c 64 28 3d 40 a7 d7 bb f0 f6 26 3d
       0.122862056 0.041111216 -0.006581217 0.04076284
0003c0 00 7a 07 bc 66 1d 94 3d 04 b4 a0 3d 14 e2 32 3d
       -0.008268833 0.0723217 0.07846835 0.043672636
0003d0 a0 72 0e 3d c4 12 d6 3d f6 e4 bb 3d 38 f2 ed bc
       0.034777284 0.10452798 0.0917453 -0.029046163
0003e0 20 9b 8e bb a0 22 d8 bc 9a 34 fd bd bc a6 16 3d
       -0.0043519884 -0.026383698 -0.123635486 0.036780104
0003f0 00 b7 33 bc c4 a6 e9 3c 84 95 02 be 14 e1 c1 bd
       -0.010968924 0.028521903 -0.12752348 -0.09466758

lstm.weight_hh_l0_reverse f4 [256, 64]
000000 70 e7 10 bc c2 2e c0 bd 8a 8b f4 bd a8 3a da 3d
       -0.0088442415 -0.09383918 -0.119406775 0.10655719
000010 60 2f 5d bd 00 12 96 3b 80 77 15 bd cc 6d 7b 3d
       -0.05400026 0.0045797825 -0.036490917 0.061384007
000020 60 32 11 bd 16 90 d0 3d 80 9e 91 bb fa b8 9c bd
       -0.035448432 0.10183732 -0.0044439435 -0.07652469
000030 00 2a 31 3b dc c0 fc bd ca db c5 3d 3c 9c 8b bd
       0.002703309 -0.123414725 0.09661062 -0.06816909
000040 34 59 88 bd 78 70 16 bd 6c cd 22 3d 40 c8 9d 3d
       -0.06657639 -0.036728352 0.039746687 0.0770421
000050 98 11 cd bc 18 8e 8c 3d 7e 6d b1 3d 00 c6 ad bb
       -0.025032803 0.0686304 0.08663462 -0.0053031445
000060 ba ec a0 3d da e9 aa 3d a0 85 2d bd 6e 54 93 3d
       0.07857652 0.08345385 -0.042363763 0.07193838
000070 e8 11 d2 bd e8 31 8c 3c 00 58 4c 39 3c b4 9d bd
       -0.102573216 0.01711364 0.00019487739 -0.077003926
000080 b8 56 9f bc 86 be 85 3d 0e a8 fc 3d b0 68 7b bd
       -0.01945053 0.0653048 0.123367414 -0.061379135
000090 b0 98 fb 3c ae 30 99 3d 0c 42 d4 3d f6 38 ec bd
       0.030712456 0.07479988 0.1036416 -0.11534302
0000a0 4c 00 4c bd 58 f4 d3 3c 94 5c 64 3d 40 8b e5 3d
       -0.04980497 0.025873348 0.055752352 0.112082005
0000b0 e0 b7 b0 3b 18 04 e6 bd 3e 0e 81 bd ac 2b d4 3d
       0.0053930134 -0.112312496 -0.063015446 0.10359892
0000c0 16 69 ec bd 5a 83 92 3d 90 11 72 bc 78 ae af 3c
       -0.11543481 0.071539596 -0.014774695 0.021445498
0000d0 60 8d e4 bc 30 72 e6 bd 00 2e 68 3c 60 16 da 3c
       -0.027899444 -0.11252248 0.0141711235 0.026621997
0000e0 04 f4 69 3d a0 f0 6c bd e2 3e da 3d 40 56 4d 3c
       0.057117477 -0.057846665 0.10656525 0.012532771
0000f0 8e cd fa 3d 2c ba 21 3d 34 40 f9 bd 88 1c 96 3c
       0.12246238 0.039484188 -0.12170449 0.018324152
000100 e4 6f 33 3d 7c 83 68 3d 60 3d f1 3b 08 ce 00 3d
       0.04380788 0.05676602 0.007362053 0.031446487
000110 f0 36 b5 3d c0 f0 c9 3d 8a 98 c8 3d 80 e9 56 bd
       0.08848369 0.098603725 0.097947195 -0.052468777
000120 58 b2 fd bd 80 86 fe 3c 10 57 29 bd 0c 47 9a 3d
       -0.12387532 0.031069994 -0.041342795 0.07533082
000130 2e 05 98 bd 58 99 d8 3d d0 36 45 3d 60 bb 5f bc
       -0.07422863 0.10576123 0.048147976 -0.0136555135
000140 22 07 ce 3d 5e 6e 91 3d 6c 0b 87 3d b4 af 75 bd
       0.10059954 0.07101129 0.065939754 -0.059982017
000150 34 1d 91 bd 24 c4 0a bd 50 02 3f bc 58 a1 9f bc
       -0.07085648 -0.03387846 -0.011658266 -0.019486114
000160 a4 18 71 3d e0 b6 57 3d 7c 30 d8 bd ec 57 e1 bd
       0.05886139 0.052664638 -0.10556123 -0.11003098
000170 64 d8 e4 3d 38 1e 94 bc 4c be c0 bd ac f4 ee 3d
       0.11174086 -0.018080816 -0.09411296 0.11667761
000180 a0 a3 b2 bd 32 bc b5 bd 3c c7 7c bd 7a 89 c0 3d
       -0.08722615 -0.08873786 -0.061713442 0.094012216
000190 ac 43 5b 3d 22 4a e8 bd 80 e9 01 3b 1e d8 aa 3d
       0.053531334 -0.11342265 0.0019823015 0.08342002
0001a0 02 fc f0 3d 60 2a 7f bc 40 6c f2 3d 38 f9 c6 3d
       0.11766817 -0.015574068 0.11837053 0.097155035
0001b0 50 c1 38 3d 60 97 80 bd d8 74 d8 3d 8e 56 9e 3d
       0.045106232 -0.062788725 0.10569161 0.07731353
0001c0 c2 68 a6 bd ae f7 e0 3d 98 2d 98 3c 42 a3 ea 3d
       -0.0812545 0.10984741 0.018576428 0.1145692
0001d0 a4 8b 0a 3d 0c cc 75 3d 38 70 fd bd 06 09 d7 bd
       0.033824578 0.060009047 -0.1237492 -0.10499768
0001e0 50 9c 54 3d 12 a3 e7 bd 9c 7c f3 bd 22 1f ff bd
       0.051906884 -0.113104 -0.11889002 -0.1245711
0001f0 1c e5 98 3d be 2d 96 bd e2 69 d5 3d f4 05 b2 3d
       0.07465574 -0.073329434 0.10420586 0.08692542
000200 3c d3 66 bd f8 7a b3 3c 98 de eb 3c 84 56 58 bd
       -0.056353793 0.021909222 0.028792664 -0.052816883
000210 cc f8 b0 3d 10 14 ab bd 20 6b 37 bc d0 b8 e1 bd
       0.08641204 -0.08353436 -0.011194974 -0.11021578
000220 a8 e8 82 3c 8c 44 84 3d 60 41 d7 bb 00 24 7b 3d
       0.01598008 0.06458387 -0.0065690726 0.06131363
000230 40 28 70 bc c6 d3 d8 bd 00 17 9a 3b 60 91 97 bd
       -0.014658034 -0.105872676 0.004702449 -0.07400775
000240 00 6a 29 bd 22 70 f4 3d 1a cf e8 bd de f2 fb 3d
       -0.041360855 0.1193545 -0.113676265 0.123021826
000250 80 21 b9 bd 80 f6 a9 3b 08 10 83 bd 0a 99 c3 3d
       -0.09039593 0.005186856 -0.06399542 0.09550674
000260 20 d7 c5 3b fc e7 44 bd d0 7d 35 bc 14 30 d0 bd
       0.006037608 -0.0480728 -0.011077359 -0.1016542
000270 40 86 70 bb fc fe 5c 3d 3e 74 bb bd fc 1f 61 bd
       -0.0036701113 0.05395411 -0.09153031 -0.054962143
000280 50 6b d9 bc 88 9a 1a bd 60 4f 52 3c 3c 9d fb 3d
       -0.026540428 -0.03774503 0.012836307 0.122858495
000290 c6 67 c5 bd 98 d8 94 bd 90 aa 03 3c 74 c9 92 bd
       -0.09638934 -0.072678745 0.008036271 -0.071673304
0002a0 62 a5 be 3d da bc ab bd 2c 6c c8 3d 3e b6 fa 3d
       0.09308888 -0.0838563 0.09786257 0.12241791
0002b0 12 28 80 bd 52 81 b8 3d 60 4d 69 3d d2 04 fd bd
       -0.06257643 0.09009041 0.056958556 -0.12354435
0002c0 0c 13 2b 3d 60 de bb 3d 00 88 4a ba 80 75 bf 3d
       0.04176621 0.09173274 -0.0007725954 0.09348583
0002d0 00 78 c2 3a b4 68 6d bd 02 0f 8d bd 4c 56 8d 3d
       0.0014836788 -0.05796118 -0.06887628 0.069012254
0002e0 2e 7a ef bd 12 cc 98 3d 1c d8 cf 3d 6e c6 99 3d
       -0.11693226 0.07460798 0.101486415 0.075085506
0002f0 48 29 a9 3c 60 1b d8 3b 3a 22 f3 3d 10 6d 5f 3c
       0.020649567 0.00659506 0.118717626 0.013636842
000300 a8 95 80 bc de 37 d8 3d 40 8b 9e bd 4e 12 ed bd
       -0.015696362 0.10557531 -0.077414036 -0.11575757
000310 e0 79 e0 3b fa a0 d7 3d 80 9b e6 3c 58 40 81 bc
       0.006850466 0.10528751 0.02815032 -0.015777752
000320 b8 90 e2 3d 28 76 8f 3d ce 5f 88 3d c4 72 a1 3d
       0.11062759 0.070049584 0.06658898 0.07883218
000330 08 62 55 bd a8 d3 b5 3d 00 f7 2b 3a 68 55 56 3d
       -0.052095443 0.08878261 0.0006559938 0.052327543
000340 c8 27 16 bd 68 99 83 3c 20 d8 92 3d 9a 33 fa bd
       -0.036659032 0.01606436 0.07170129 -0.122168735
000350 c8 d0 88 3c 90 a1 98 bc e0 4d 38 bd 08 5f 90 bc
       0.016701117 -0.018631727 -0.044996142 -0.01762344
000360 9a fa ad 3d 00 3f 5d 3a 60 f6 1e 3d cc f9 0b 3d
       0.08495064 0.00084398687 0.03880918 0.03417377
000370 28 6a a0 3d ea c6 d2 3d c8 f9 36 bd ba f5 e0 bd
       0.07832748 0.10291846 -0.044671804 -0.109843686
000380 56 51 fb bd 2c 41 22 3d 68 c5 b4 3d c6 be b4 3d
       -0.12271373 0.039612934 0.08826715 0.0882545
000390 06 ee 80 bd b4 65 5f 3d 5c 13 48 bd 70 09 07 bd
       -0.06295399 0.05454035 -0.048846588 -0.032967985
0003a0 b0 98 8a 3c 10 12 56 bc 6e c8 ee 3d 54 f8 55 3d
       0.01691851 -0.01306583 0.11659323 0.052238777
0003b0 1c 0b 00 bd d0 27 c0 bd b0 71 8a 3c 00 0b 7f bb
       -0.031260595 -0.09382594 0.016899914 -0.0038916469
0003c0 10 79 5a bd 80 2d d4 3a d4 73 da bd e0 ff 8e bc
       -0.05333811 0.0016187876 -0.10666624 -0.017455995
0003d0 80 d5 b0 bc a8 46 2c bd 48 f7 f9 bd b6 28 eb bd
       -0.02158618 -0.04205957 -0.12205368 -0.11482374
0003e0 a0 96 85 3b 30 d4 ef 3d 80 98 a2 3b 74 25 dc bd
       0.004076794 0.117103934 0.004962027 -0.10749331
0003f0 e0 24 a6 bc 4c de 40 bd 4a 6a f9 bd 44 f8 83 bd
       -0.020281255 -0.047087 -0.12178476 -0.06443837
