src/best_model.pth (torch, 152226 bytes, 10 tensors)

embedding.weight f4 [10, 5]
1.6412214 1.9343215 0.11240091 0.80616313 1.1159761 0.5920342 2.4147303 0.7475639
-1.3375517 -0.073348165 -0.5985225 1.1679652 1.2799662 -0.61087936 0.5597106 1.9705453
-0.30480728 -0.07236648 1.4123218 0.41742894 0.5946587 -1.9877536 -0.7636585 0.6001002
-0.75411767 -0.068178296 -0.86097294 0.09292334 0.55736077 -1.6908253 0.57109046 0.1833783
0.06699547 1.113874 1.5176306 0.19099857 1.1568906 0.7246055 -0.34458575 0.37677994
0.30686522 1.4266034 -0.9212327 -0.7896619 0.30046076 0.67093134 0.2291177 -1.1782502
0.24395877 -1.145343
00000000: 8b13 d23f d997 f73f 7332 e63d b560 4e3f
00000010: 4ed8 8e3f 8e8f 173f f18a 1a40 5960 3f3f
00000020: e534 abbf 9037 96bd c538 19bf e27f 953f
00000030: efd5 a33f 9762 1cbf 3249 0f3f d43a fc3f
00000040: b30f 9cbe e134 94bd f6c6 b43f 3fb9 d53e
00000050: 8d3b 183f b66e febf 207f 43bf 2ba0 193f
00000060: db0d 41bf 10a1 8bbd b968 5cbf 984e be3d
00000070: 32af 0e3f f76c d8bf fc32 123f 85c7 3b3e
00000080: ec34 893d 6c93 8e3f b841 c23f 2195 433e
00000090: fe14 943f bf7f 393f 8b6d b0be 4de9 c03e
000000a0: 701d 9d3e f19a b63f e8d5 6bbf 4827 4abf
000000b0: fed5 993e 28c2 2b3f d59d 6a3e e7d0 96bf
000000c0: 54d0 793e 999a 92bf

lstm.weight_ih_l0 f4 [256, 6]
0.16576047 -0.07319733 0.004494528 0.022684248 -0.061869446 0.00088312576 -0.0106272455 -0.12166108
-0.08851108 -0.07312596 0.02996142 0.013228142 0.28496045 0.10082257 0.08302079 -0.030998794
0.05227955 0.048178494 0.15381762 -0.08487019 -0.12860559 0.097503774 -0.054628637 0.050848305
-0.007205952 -0.07078969 -0.02473396 0.112375185 0.0050434195 -0.04940158 0.2176976 -0.015554959
0.0182244 0.03009818 0.13478518 0.0584107 0.03632944 -0.005426089 -0.08696188 -0.02904739
-0.13764834 -0.022063334 0.1844873 0.08787596 0.11175333 0.08870773 0.12970096 0.10229095
-0.08892381 -0.11223921 0.013889204 -0.014199117 -0.08975564 0.055736534 0.2270244 0.034122743
-0.015564594 0.06335912 -0.059805397 0.077556014 0.18603319 0.12908301 -0.072753854 -0.0860352
0.016157152 -0.009744565 0.10919344 0.1082243 -0.009722134 -0.08140121 -0.030936476 0.023896225
0.13067842 -0.0025537522 -0.01771745 -0.13145307 -0.066418715 -0.06075124 0.019750774 -0.06179399
-0.033973947 0.061062075 -0.037631303 0.007921367 0.025959171 -0.11461303 0.058802545 0.043035828
0.026847595 -0.085719064 0.23695435 -0.06738907 -0.00028369424 -0.02911308 -0.001048114 0.028922372
0.029655099 -0.109336466 -0.054188356 0.0011933928 -0.14431302 0.039742466 0.11980516 0.07793202
-0.0423861 0.099851206 -0.0011853966 -0.020799829 -0.056754585 0.07310888 -0.02526445 0.030974042
-0.005920083 -0.07251611 0.2185712 0.04723602 0.0710807 0.014868497 0.19158056 0.07531896
0.12923726 0.19564018 0.107486546 -0.109037004 0.07295836 -0.002355919 0.02457216 0.014892692
-0.045745198 0.07735331 -0.08278991 -0.093555495 0.010287093 0.04851872 0.10684445 -0.039956715
-0.14174066 0.05732002 0.22082488 0.08339406 -0.1282869 0.037804835 -0.13415655 -0.018668914
-0.16545859 0.107532404 -0.13627006 0.046299975 -0.037207417 0.03893295 0.12745678 -0.08378442
0.041538738 0.06933325 0.07399047 -0.060202364 -0.02354844 -0.021942897 0.07265357 0.12534137
0.07677684 -0.086396374 0.0475503 -0.05734832 -0.056325097 0.13844927 -0.022429124 -0.008745147
0.09390163 -0.11422384 0.054864198 0.013603004 -0.08418511 0.094609626 0.04431352 -0.004737631
-0.023377653 -0.04170187 0.034730364 0.05229343 -0.12071127 -0.001854414 0.055645842 0.1295094
-0.021540932 0.030099625 0.14940606 0.10712106 0.15291695 0.19278651 -0.07187191 0.020688588
0.12117617 -0.017849082 -0.055229213 -0.074568406 -0.07658933 -0.101640336 0.24329701 0.12696484
0.0705725 -0.07292667 0.05735129 0.1307314 0.12398778 0.008676074 -0.07914328 0.011517263
0.05847748 -0.026482055 -0.064053774 -0.035159145 0.057926334 -0.1300834 0.044342536 0.08406435
0.050910644 0.0686492 -0.080025636 -0.11303142 -0.0031541777 -0.053402856 0.006565788 0.054590043
-0.10914038 0.02815884 -0.110053346 -0.051099807 0.10928668 0.016775528 -0.07737116 -0.039887734
-0.06112226 -0.04868063 -0.049267557 0.113094926 0.012580267 0.11217006 -0.032227393 -0.0765561
0.15354484 -0.032735426 0.05507892 0.024549544 -0.09939532 0.027994033 0.0353575 0.06578311
0.056825552 -0.14019406 -0.044445544 0.014006705 -0.015332193 -0.12701687 -0.07315981 -0.041906998
00000000: 1dbd 293e 7be8 95bd d546 933b 51d4 b93c
00000010: d16a 7dbd 9181 673a e61d 2ebc 7229 f9bd
00000020: 4c45 b5bd 10c3 95bd a771 f53c d9ba 583c
00000030: 56e6 913e 107c ce3d ce06 aa3d 2ff1 fdbc
00000040: 1523 563d d056 453d 5e82 1d3e 6cd0 adbd
00000050: 2fb1 03be 0fb0 c73d 47c2 5fbd 5046 503d
00000060: e81f ecbb 2ffa 90bd e09e cabc f624 e63d
00000070: 4543 a53b 5059 4abd 1fec 5e3e 3ada 7ebc
00000080: 564b 953c 7590 f63c 2005 0a3e 0f40 6f3d
00000090: 2ece 143d 55cd b1bb 1219 b2bd cbf4 edbc
000000a0: b0f3 0cbe 2abe b4bc 3dea 3c3e 50f8 b33d
000000b0: eede e43d 66ac b53d 54d0 043e eb7d d13d
000000c0: b01d b6bd acdd e5bd 8b8f 633c 6aa3 68bc
000000d0: ced1 b7bd fe4b 643d 1679 683e 4ac4 0b3d
000000e0: a402 7fbc 6dc2 813d 81f6 74bd b0d5 9e3d
000000f0: 7c7f 3e3e 562e 043e f9ff 94bd 3933 b0bd
00000100: 015c 843c aba7 1fbc cfa0 df3d b4a4 dd3d
00000110: 9649 1fbc adb5 a6bd 7e6e fdbc 04c2 c33c
00000120: 90d0 053e da5c 27bb 3024 91bc a29b 06be
00000130: 8906 88bd 4bd6 78bd 60cc a13c b21b 7dbd
00000140: 4428 0bbd 3a1c 7a3d 4823 1abd 9fc8 013c
00000150: 54a8 d43c 3cba eabd f0da 703d 5646 303d
00000160: 7def db3c 7a8d afbd 29a4 723e 4803 8abd
00000170: ccbc 94b9 8e7e eebc df60 89ba 9cee ec3c
00000180: 40ef f23c cceb dfbd 9cf4 5dbd 9e6b 9c3a
00000190: cbc6 13be ffc8 223d 685c f53d d39a 9f3d
000001a0: 0c9d 2dbd ca7e cc3d 4f5f 9bba 6764 aabc
000001b0: 7f77 68bd 1cba 953d 64f7 cebc 46bd fd3c
000001c0: 41fd c1bb 5483 94bd 21d1 5f3e 8f7a 413d
000001d0: c292 913d ff9a 733c b22d 443e d440 9a3d
000001e0: c656 043e e655 483e e821 dc3d cb4e dfbd
000001f0: 316b 953d c365 1abb 8e4b c93c 7a00 743c
00000200: 515f 3bbd 6a6b 9e3d c28d a9bd 069a bfbd
00000210: 328b 283c 91bb 463d 43d1 da3d a7a9 23bd
00000220: 7724 11be 66c8 6a3d eb1f 623e 81ca aa3d
00000230: a45d 03be 3ed9 1a3d 5660 09be 8def 98bc
00000240: fa6d 29be f339 dc3d 618a 0bbe 0ba5 3d3d
00000250: ce66 18bd 2878 1f3d 0884 023e 2a97 abbd
00000260: 8624 2a3d 97fe 8d3d 5188 973d c196 76bd
00000270: a8e8 c0bc 97c1 b3bc 65cb 943d 7d59 003e
00000280: 2d3d 9d3d 95f0 b0bd 1ac4 423d 12e6 6abd
00000290: 25b5 66bd a5c5 0d3e 48bd b7bc ce47 0fbc
000002a0: 7f4f c03d 30ee e9bd 48b9 603d 22df 5e3c
000002b0: 3e69 acbd b1c2 c13d 1882 353d 213e 9bbb
000002c0: 7e82 bfbc 94cf 2abd 6d41 0e3d a331 563d
000002d0: 7837 f7bd cf0f f3ba e5ec 633d 1d9e 043e
000002e0: 9c76 b0bc 7d93 f63c e7fd 183e 4962 db3d
000002f0: 4396 1c3e d469 453e 9431 93bd 1d7b a93c
00000300: 362b f83d 3d38 92bc 0738 62bd 52b7 98bd
00000310: deda 9cbd cf28 d0bd da22 793e 1203 023e
00000320: 5188 903d 945a 95bd 30e9 6a3d 74de 053e
00000330: 4eed fd3d 1826 0e3c df15 a2bd e7b2 3c3c
00000340: 1586 6f3d e5f0 d8bc a02e 83bd 0903 10bd
00000350: 2a44 6d3d 9534 05be 85a0 353d ee29 ac3d
00000360: ae87 503d f497 8c3d 7be4 a3bd 047d e7bd
00000370: 52b6 4ebb f4bc 5abd d225 d73b cf99 5f3d
00000380: fe84 dfbd 5ead e63c a663 e1bd 084e 51bd
00000390: b2d1 df3d d56c 893c c574 9ebd 5261 23bd
000003a0: 565b 7abd 5765 47bd c7cc 49bd 509e e73d
000003b0: 771d 4e3c 6bb9 e53d df00 04bd 72c9 9cbd
000003c0: dc3a 1d3e 9515 06bd 6f9a 613d 201c c93c
000003d0: c68f cbbd be53 e53c 07d3 103d 4cb9 863d
000003e0: e9c1 683d 088f 0fbe 880c 36bd 617c 653c
000003f0: e133 7bbc b610 02be cfd4 95bd aca6 2bbd

lstm.weight_hh_l0 f4 [256, 64]
0.013516298 0.1046361 -0.07985749 0.02202949 0.053524647 -0.13869701 0.111011736 0.06482442
-0.12430751 -0.01487551 -0.09269047 0.098157056 0.019169793 0.14847791 0.008136233 0.0821613
-0.023463074 -0.06383797 0.06783801 0.003490037 0.096613474 -0.05360623 -0.024775885 0.07777881
0.03968931 -0.10609191 -0.043757197 0.06078073 0.07932532 -0.114775255 -0.05085583 0.017297583
0.03410234 0.11784252 0.0689801 0.0863645 0.03424347 -0.11639395 -0.096576326 -0.10323659
-0.03194842 0.008993668 -0.02033866 -0.0193224 -0.033081535 0.05719822 0.04144435 -0.05235276
0.09593152 0.007776595 0.033651814 -0.07199171 -0.0420465 0.08883972 0.070258856 -0.085490294
-0.08120572 -0.029578451 -0.009319768 0.07840406 0.08204171 0.063416384 0.046195336 0.11092128
-0.09847736 0.052748982 -0.13491245 0.056929167 -0.02196849 -0.10382722 0.020993328 0.025011005
0.0879431 -0.13161525 -0.04976641 -0.05029699 -0.1195083 0.15625206 0.016346568 -0.02304922
0.105164476 0.03214849 -0.07841412 -0.027679507 0.0040718364 0.05168272 -0.10741877 0.03724606
-0.04879239 -0.04836058 -0.011690345 0.013659357 0.13170014 -0.09099385 -0.058895566 0.022300653
0.006058642 0.052086074 0.0931958 -0.061220136 -0.05319219 0.0759843 -0.12574959 -0.021919543
0.14912513 0.1554673 0.04949235 0.13151899 0.077771224 0.028488986 0.0432179 -0.09284459
-0.02039029 0.02786042 0.08053545 0.063452154 -0.18261072 0.13075507 0.103810675 0.12652043
0.12574768 -0.16891056 -0.10871702 0.050419215 0.05370992 0.054809336 0.096488915 0.0011303535
-0.16601501 -0.19682297 -0.06460222 0.02178523 -0.0059449803 -0.010889323 0.026509501 -0.023781188
-0.040469825 0.03127852 0.104262024 0.026588837 -0.0888692 -0.086233765 0.12005981 -0.06689427
-0.03468311 0.025623864 -0.009929029 -0.09037987 -0.14751084 0.026464574 0.09836485 0.07514758
-0.012798805 0.14928657 0.061560266 0.15177901 -0.033682153 0.14526269 -0.19054143 0.07682088
-0.1584308 0.03504987 0.0970463 -0.074866645 0.0799167 -0.068878084 -0.019219493 -0.019021686
-0.041663047 -0.003007131 -0.039609414 0.008871377 -0.053565234 -0.13795702 0.06102259 -0.007210841
-0.011157215 0.00078451494 -0.00877616 -0.18595606 0.1488337 -0.017791608 0.0678172 -0.1820181
-0.13948543 -0.015350182 0.083687685 0.1333028 -0.010138393 0.14042874 0.14532512 -0.08824446
-0.086965375 0.10656713 0.06737282 0.051060677 0.13240561 0.061260276 -0.080918886 0.082500316
-0.03445567 -0.029675312 0.12735586 0.112030104 -0.10022827 -0.13987468 -0.051225964 0.052380092
-0.018525396 0.032307234 -0.060201928 -0.036410958 0.094642274 -0.10471463 -0.08662508 -0.09332793
0.0896107 -0.05647304 0.068680055 0.016114678 0.024555672 0.03202878 0.057658646 0.0035580038
-0.090134636 -0.021997277 0.07233242 -0.08899836 -0.048176553 0.10039918 0.024748325 0.039828572
0.0389439 0.12627675 0.14985 -0.12536505 0.08338392 -0.041859172 0.06697447 0.09080568
0.06653518 -0.007146237 -0.04648939 0.023313625 -0.013573423 -0.065895766 -0.17461953 0.0677998
-0.122363575 0.07335549 0.030983435 0.14147893 0.04715255 -0.038041744 0.04799553 0.16065846
00000000: 7673 5d3c 744b d63d 538c a3bd 3077 b43c
00000010: a93c 5b3d 9706 0ebe 1f5a e33d aac2 843d
00000020: f094 febd 69b8 73bc 80d4 bdbd 9106 c93d
00000030: f809 9d3c 980a 183e d64d 053c 2f44 a83d
00000040: a235 c0bc 7bbd 82bd a8ee 8a3d 1bb9 643b
00000050: 49dd c53d 3592 5bbd ccf6 cabc 7f4a 9f3d
00000060: 4291 223d b746 d9bd bf3a 33bd 37f5 783d
00000070: 5075 a23d 4a0f ebbd 344e 50bd a9b3 8d3c
00000080: e5ae 0b3d 6b57 f13d 7045 8d3d dfdf b03d
00000090: e142 0c3d f45f eebd cfc9 c5bd b56d d3bd
000000a0: 59dc 02bd 2d5a 133c 439d a6bc 034a 9ebc
000000b0: 8180 07bd ae48 6a3d 8dc1 293d d96f 56bd
000000c0: bf77 c43d cfd2 fe3b 7cd6 093d 6470 93bd
000000d0: f338 2cbd 99f1 b53d e0e3 8f3d 8915 afbd
000000e0: 2f4f a6bd 824e f2bc f1b1 18bc 4f92 a03d
000000f0: 7c05 a83d 73e0 813d 5237 3d3d b22a e33d
00000100: 80ae c9bd 510f 583d 7d26 0abe 8f2e 693d
00000110: 43f7 b3bc 5ea3 d4bd 33fa ab3c e1e3 cc3c
00000120: 831b b43d 26c6 06be ddd7 4bbd 3704 4ebd
00000130: c5c0 f4bd 8a00 203e 3de9 853c b8d1 bcbc
00000140: 7960 d73d 23ae 033d 9597 a0bd 22c0 e2bc
00000150: 0a6d 853b 43b1 533d 5ffe dbbd 538f 183d
00000160: 87da 47bd be15 46bd dc88 3fbc 7fcb 5f3c
00000170: 67dc 063e fc5a babd 7a3c 71bd dcaf b63c
00000180: 9387 c63b 3558 553d 71dd be3d f7c1 7abd
00000190: 0ee0 59bd a89d 9b3d 80c4 00be 9d90 b3bc
000001a0: 42b4 183e d232 1f3e 7eb8 4a3d eaac 063e
000001b0: 8546 9f3d bc61 e93c 4105 313d 4e25 bebd
000001c0: 8a09 a7bc 893b e43c c5ef a43d 34f3 813d
000001d0: 4efe 3abe a8e4 053e b19a d43d 928e 013e
000001e0: 00c4 003e e4f6 2cbe 07a7 debd 6184 4e3d
000001f0: effe 5b3d c17f 603d fb9b c53d 5f28 943a
00000200: d7ff 29be f68b 49be 2b4e 84bd f076 b23c
00000210: 1cce c2bb 2269 32bc 742a d93c c4d0 c2bc
00000220: b0c3 25bd e81d 003d 5487 d53d d5d0 d93c
00000230: 0e01 b6bd 549b b0bd ebe1 f53d ddff 88bd
00000240: e00f 0ebd 23e9 d13c 5ead 22bc 1519 b9bd
00000250: 150d 17be 3ccc d83c 8373 c93d f9e6 993d
00000260: 14b2 51bc 94de 183e 9e26 7c3d f56b 1b3e
00000270: 4cf6 09bd bebf 143e 4b1d 43be 4454 9d3d
00000280: af3b 22be 7490 0f3d 36c0 c63d af53 99bd
00000290: 5eab a33d f40f 8dbd 3372 9dbc 5ed3 9bbc
000002a0: dfa6 2abd 4913 45bb 7b3d 22bd 4159 113c
000002b0: 3867 5bbd 9b44 0dbe d3f2 793d eb48 ecbb
000002c0: c0cc 36bc e8a7 4d3a e2c9 0fbc 446b 3ebe
000002d0: dd67 183e b5bf 91bc bfe3 8a3d f462 3abe
000002e0: 45d5 0ebe 547f 7bbc 7364 ab3d 8780 083e
000002f0: 811b 26bc 8dcc 0f3e 1cd0 143e 83b9 b4bd
00000300: e71a b2bd de3f da3d c3fa 893d 0025 513d
00000310: 5695 073e 0eec 7a3d cdb8 a5bd edf5 a83d
00000320: 6321 0dbd a419 f3bc 9369 023e 0a70 e53d
00000330: 7b44 cdbd 4f3b 0fbe 51d2 51bd 828c 563d
00000340: 92c2 97bc 9754 043d 4c96 76bd a823 15bd
00000350: cfd3 c13d a074 d6bd 7d68 b1bd b722 bfbd
00000360: d185 b73d 4650 67bd 21a8 8c3d ee02 843c
00000370: fa28 c93c 9c30 033d 792b 6c3d 662d 693b
00000380: 8298 b8bd a233 b4bc 0523 943d c644 b6bd
00000390: c754 45bd 169e cd3d 00bd ca3c 4923 233d
000003a0: a483 1f3d b14e 013e 4772 193e b25f 00be
000003b0: 30c5 aa3d 8674 2bbd e929 893d 54f8 b93d
000003c0: 9943 883d fb2a eabb a96b 3ebd 37fc be3c
000003d0: 1063 5ebc 5cf4 86bd 76cf 32be 9fda 8a3d
000003e0: c199 fabd 673b 963d f9d0 fd3c dadf 103e
000003f0: 0823 413d a9d1 1bbd f696 443d a783 243e

lstm.bias_ih_l0 f4 [256]
0.038108446 0.08524938 0.019513387 0.12569621 0.10062283 0.020529075 0.05486448 0.059079316
-0.13352902 -0.060929462 0.13750657 0.12981038 -0.037862733 -0.094864264 -0.07036354 0.11217052
0.011677001 0.034269057 -0.15036605 0.2162636 0.00073989417 -0.042841617 -0.004356145 -0.045656707
0.020979183 -0.019501144 0.018174728 0.1383744 0.012750868 0.08118961 0.094682515 0.09326102
-0.07048872 -0.08433468 0.01763545 0.047881465 0.20889708 0.09018951 0.19104227 -0.004086862
-0.11324878 0.018320018 -0.06907383 -0.07092304 0.020410042 0.09105798 -0.037734937 -0.06971194
0.0504215 0.072842024 0.040428307 0.05461951 0.25174 0.20997219 -0.07153632 0.08043771
0.072204754 0.021857357 0.03338712 -0.020746525 0.09488332 -0.016789258 0.014977551 -0.03215827
-0.067214265 0.027803613 -0.055997282 -0.02607806 0.09634528 -0.12709965 0.023205273 -0.04906327
0.0046110223 0.060099345 -0.104717344 -0.03835802 -0.1401356 -0.029390216 -0.051114734 -0.16022801
-0.010597797 -0.090526916 -0.082043685 -0.19929622 -0.021472298 0.0008846001 -0.10578704 0.08624827
-0.055922396 0.018582013 -0.0077470676 0.040261146 -0.034893062 -0.12009515 -0.05552482 -0.15245038
0.021652063 -0.11320653 -0.07245349 -0.12629 -0.14068915 -0.08703801 -0.1303213 0.07058644
0.02266159 0.10190167 0.03618546 -0.018216705 0.06749844 -0.057599083 0.05885207 0.002325322
-0.12694094 -0.004302438 0.05339628 -0.13192216 -0.19510323 -0.11795154 0.06737452 0.087336086
0.011775211 -0.107538566 0.043887954 -0.04638916 -0.24730773 0.010970586 -0.05055663 0.040482827
0.008471366 -0.075904384 0.05822815 0.07354904 0.06438373 -0.034505174 -0.0802325 0.09945362
-0.09259466 0.07731826 0.03846491 -0.032836318 -0.088094234 -0.14438128 0.059925538 0.07423921
-0.048971064 0.0021379192 0.0044353935 0.030419923 -0.09153166 -0.036508985 0.041703142 0.03234653
0.033450074 0.043323718 -0.04446365 -0.051698204 0.031763926 0.09777452 -0.028224142 -0.06179257
-0.0945467 0.05100584 -0.16428563 0.02332426 0.02522576 0.07313532 0.06890452 -0.011332741
-0.06881995 -0.06189569 0.07249733 -0.1103925 0.0047182385 -0.055422135 0.13735493 -0.0019109071
0.016465414 0.035625283 0.06731872 -0.05347647 -0.102605335 0.0065359566 -0.1244819 -0.10807158
-0.011169943 0.0037146206 0.035394598 0.058534857 -0.09485369 0.089961246 0.043989047 -0.06563943
0.04318651 -0.025157642 0.2034142 -0.0047673085 -0.005507795 0.0972795 -0.05359219 0.010598908
-0.09391873 0.10755521 0.04540706 0.03554186 0.09280246 -0.028472673 0.10532085 0.18103576
-0.12641752 0.05513698 -0.06611277 0.13634445 -0.06683601 0.043617614 0.06779848 -0.011522881
-0.06980408 -0.11598964 0.10525921 0.10423278 0.07192495 -0.09377467 0.09744421 0.039306138
-0.12940273 0.08572284 -0.022099987 -0.00084001705 0.045550384 -0.09339126 0.16968557 -0.04924101
0.05359726 0.02849167 -0.10884483 0.02114658 -0.088741116 0.12296528 -0.15883356 0.04541584
-0.03726527 0.06931077 0.028680088 0.09430485 0.21865931 0.045533117 -0.012460323 -0.05953555
0.0032703322 -0.059157014 0.03839441 0.041966077 0.30180636 0.0036886071 0.05386643 -0.115404576
00000000: 9a17 1c3d 3a97 ae3d 8ada 9f3c 82b6 003e
00000010: 5813 ce3d 972c a83c 94b9 603d 27fd 713d
00000020: d5bb 08be 2c91 79bd 86ce 0c3e 03ed 043e
00000030: f415 1bbd 3248 c2bd c21a 90bd a8b9 e53d
00000040: e450 3f3c b65d 0c3d 8ff9 19be 3574 5d3e
00000050: 75f5 413a b17a 2fbd febd 8ebb 8702 3bbd
00000060: 89dc ab3c ddc0 9fbc 2be3 943c 05b2 0d3e
00000070: 04e9 503c bd46 a63d e8e8 c13d a2ff be3d
00000080: 645c 90bd a9b7 acbd 3878 903c 5b1f 443d
00000090: 1ee9 553e 47b5 b83d 96a0 433e 15eb 85bb
000000a0: faee e7bd dd13 963c 9576 8dbd 1940 91bd
000000b0: f632 a73c 9b7c ba3d f38f 1abd 22c5 8ebd
000000c0: c686 4e3d 332e 953d 2798 253d b5b8 5f3d
000000d0: 11e4 803e f302 573e a281 92bd 87bc a43d
000000e0: 16e0 933d 330e b33c efc0 083d 9ef4 a9bc
000000f0: 3052 c23d a089 89bc 6764 753c 64b8 03bd
00000100: a2a7 89bd 67c4 e33c 685d 65bd a8a1 d5bc
00000110: ad50 c53d 6926 02be fc18 be3c 91f6 48bd
00000120: 0f18 973b bb2a 763d 0c76 d6bd 4d1d 1dbd
00000130: b57f 0fbe c0c3 f0bc af5d 51bd d012 24be
00000140: 62a2 2dbc 2d66 b9bd 8506 a8bd 4f14 4cbe
00000150: ace6 afbc 82e4 673a e0a6 d8bd efa2 b03d
00000160: e20e 65bd 4e39 983c 1ddb fdbb dfe8 243d
00000170: 07ec 0ebd 72f4 f5bd fe6d 63bd f41b 1cbe
00000180: ab5f b13c d3d8 e7bd 7f62 94bd 2a52 01be
00000190: d110 10be fc40 b2bd f272 05be a08f 903d
000001a0: cca4 b93c d3b1 d03d 3437 143d 333b 95bc
000001b0: 9f3c 8a3d 04ed 6bbd de0e 713d 6e64 183b
000001c0: cefc 01be 77fb 8cbb 0fb6 5a3d 9a16 07be
000001d0: 24c9 47be 9490 f1bd a7fb 893d 43dd b23d
000001e0: d1ec 403c 2e3d dcbd dbc3 333d 8f02 3ebd
000001f0: 3d3e 7dbe f9bd 333c 7814 4fbd 52d1 253d
00000200: 7ccb 0a3c c273 9bbd a480 6e3d e1a0 963d
00000210: 9edb 833d 4c55 0dbd f050 a4bd 57ae cb3d
00000220: 45a2 bdbd 0959 9e3d 628d 1d3d 607f 06bd
00000230: c06a b4bd b0d8 13be 7b74 753d ba0a 983d
00000240: e295 48bd 551c 0c3b c756 913b 3433 f93c
00000250: f374 bbbd 728a 15bd ead0 2a3d cc7d 043d
00000260: f202 093d 3674 313d 841f 36bd 7fc1 53bd
00000270: e41a 023d 023e c83d 5136 e7bc 351a 7dbd
00000280: b3a1 c1bd 80eb 503d 7e3a 28be 8512 bf3c
00000290: 41a6 ce3c f8c7 953d d01d 8d3d f6ac 39bc
000002a0: 79f1 8cbd 5686 7dbd 7b79 943d 7715 e2bd
000002b0: 749b 9a3b 5202 63bd c5a6 0c3e 6777 faba
000002c0: 7ae2 863c d1eb 113d 66de 893d 250a 5bbd
000002d0: bf22 d2bd 942b d63b 5ef0 febd a254 ddbd
000002e0: 2302 37bc fe70 733b edf9 103d 3fc2 6f3d
000002f0: a742 c2bd 9a3d b83d dc2d 343d f76d 86bd
00000300: 57e4 303d 6617 cebc d04b 503e 1537 9cbb
00000310: bc7a b4bb 793a c73d 7c83 5bbd 0ba7 2d3c
00000320: 7758 c0bd e845 dc3d c1fc 393d 5794 113d
00000330: 370f be3d 863f e9bc 75b2 d73d 7061 393e
00000340: 9873 01be 50d7 613d 2266 87bd e19d 0b3e
00000350: 51e1 88bd 62a8 323d eed9 8a3d 77ca 3cbc
00000360: 71f5 8ebd fa8b edbd 2492 d73d ff77 d53d
00000370: 634d 933d ef0c c0bd d490 c73d 79ff 203d
00000380: 2682 04be 758f af3d 080b b5bc 9734 5cba
00000390: 0a93 3a3d eb43 bfbd 0ec2 2d3e f1b0 49bd
000003a0: cd88 5b3d 5d67 e93c 0aea debd 983b ad3c
000003b0: e7bd b5bd 39d5 fb3d 44a5 22be f605 3a3d
000003c0: 78a3 18bd cef2 8d3d 81f2 ea3c e722 c13d
000003d0: 3ae8 5f3e ef80 3a3d 6226 4cbc 8ddb 73bd
000003e0: 1253 563b a04e 72bd 7543 1d3d 9fe4 2b3d
000003f0: 5d86 9a3e 8fbc 713b 0ca3 5c3d 3c59 ecbd

lstm.bias_hh_l0 f4 [256]
-0.12413423 -0.10893658 0.07369033 0.09118229 0.031844225 -0.019416353 0.10004036 0.10809767
-0.12232506 -0.090064846 0.21165548 0.100289814 0.08017608 0.095089585 0.052224323 0.11214739
-0.017156972 0.034582265 0.040027957 0.2576134 -0.100980476 0.13090156 -0.08516013 0.075245306
0.018921422 -0.056700587 0.01692686 -0.083912246 -0.08992985 0.012657932 0.14136186 0.14732876
-0.0566204 0.08150426 -0.0076658637 -0.123466894 0.10623093 0.095278 0.023533752 0.119030796
0.004855794 0.03524113 0.01965508 0.12162664 -0.003937132 -0.10946598 0.072140485 0.062281277
-0.03826084 0.10474233 0.14945258 -0.09750207 0.25860083 0.20220377 -0.09701021 0.04914283
-0.08389484 -0.017879097 -0.12664172 0.051684953 0.15035641 0.04170713 0.023713162 -0.015131081
0.0947575 0.07599801 0.014125749 -0.046599574 0.015517224 0.07358881 -0.05537179 -0.0047501232
0.03879595 0.012330659 0.005393771 0.10256793 0.08763785 0.10123499 -0.07997675 -0.08359009
-0.113750346 0.049482763 -0.03987281 -0.09599151 0.034225453 -0.063752815 0.044823308 0.0077585704
0.021220125 -0.058318872 -0.12481493 0.052017096 0.02919878 0.0045179175 -0.044210628 -0.09430285
-0.01185495 -0.05099291 -0.11471916 -0.04920161 -0.07793143 -0.01441357 0.008959412 0.02261226
0.04315035 -0.017936463 0.0514678 2.3561559e-05 -0.05682891 -0.04450235 0.04802745 -0.053250697
0.09327982 -0.019612608 -0.09654015 -0.06917359 -0.25294828 -0.0070403586 0.016579041 0.068793274
-0.12710325 -0.13248843 0.047477793 0.10534005 -0.17294107 0.014600571 -0.16495119 -0.049526338
-0.01215917 -0.06396057 -0.022355927 -0.085870795 0.03803816 0.07504421 -0.021610009 -0.007624096
-0.0009585939 0.09430679 -0.033064157 -0.031243457 0.10649125 0.048513036 0.06830994 -0.09529798
-0.1381423 -0.06978463 0.046058744 -0.03230644 -0.074770115 -0.012613418 -0.010415563 -0.0021241081
0.07838046 -0.0788901 -0.013468395 0.11351979 -0.12368286 0.11455859 -0.057448104 -0.016342971
0.0013181228 -0.00067972153 -0.06483095 0.04737328 0.03642403 -0.05039372 0.06597792 0.08373307
-0.060900748 -0.101877116 -0.0084418785 -0.058341295 0.105608165 -0.08532269 -0.053868745 -0.08108837
-0.019766154 0.09355182 -0.06586225 0.008729011 0.080906935 0.10538764 0.026323734 -0.02950154
-0.03709199 -0.068116 -0.011794666 -0.01423937 0.120975934 -0.063943245 -0.04605247 0.032176115
0.08564238 0.063820235 0.19530818 0.109638356 0.044395424 0.08824042 0.07433642 0.20271756
-0.051646918 -0.053980324 0.13143927 0.008480079 0.068846755 -0.121866085 -0.03258646 0.04023096
-0.032710213 -0.08891466 -0.14575602 0.2426128 0.13001741 0.11239007 0.021562764 0.08679104
-0.05410244 -0.13278118 -0.08285527 -0.018101446 -0.003781665 -0.12784274 -0.0070714992 0.14311714
0.053648826 0.032134645 0.043951128 0.049279984 0.08690624 0.1494305 0.18374711 0.01662476
0.0061202166 -0.046663146 -0.025667172 -0.06005128 0.044696674 -0.025871638 -0.1663203 -0.065132506
-0.11026343 0.053137682 0.14332929 -0.11626244 0.20630956 0.13501269 0.0097614685 -0.08970706
0.05474102 -0.006026992 -0.08943652 0.0041987025 0.22040555 0.04460085 0.11177743 -0.035460975
00000000: 163a febd 241a dfbd f5ea 963d c8bd ba3d
00000010: 176f 023d 0b0f 9fbc f6e1 cc3d 5062 dd3d
00000020: 9085 fabd eb73 b8bd 37bc 583e bf64 cd3d
00000030: 5b33 a43d 54be c23d 2ce9 553d 88ad e53d
00000040: c78c 8cbc 22a6 0d3d 5bf4 233d e7e5 833e
00000050: dace cebd 0f0b 063e 6f68 aebd 361a 9a3d
00000060: 1901 9b3c e03e 68bd 33aa 8a3c 2fda abbd
00000070: 242d b8bd 3763 4f3c 2ac1 103e 5add 163e
00000080: cbea 67bd b5eb a63d ed31 fbbb 36dc fcbd
00000090: 9a8f d93d 1d21 c33d dbc9 c03c 6bc6 f33d
000000a0: 5a1d 9f3b 0159 103d b103 a13c 6317 f93d
000000b0: 0f03 81bb b32f e0bd 64be 933d a71a 7f3d
000000c0: 66b7 1cbd 2683 d63d 190a 193e 2aaf c7bd
000000d0: 5467 843e 810e 4f3e 4aad c6bd fe49 493d
000000e0: 0fd1 abbd 2f77 92bc 5eae 01be 9ab3 533d
000000f0: 08f7 193e 18d5 2a3d 1b42 c23c 5be8 77bc
00000100: 3810 c23d d8a4 9b3d af6f 673c 32df 3ebd
00000110: f43b 7e3c bbb5 963d 88cd 62bd eca6 9bbb
00000120: 81e8 1e3d 8806 4a3c 3bbe b03b 230f d23d
00000130: 797b b33d 4a54 cf3d daca a3bd 4831 abbd
00000140: f1f5 e8bd 70ae 4a3d ac51 23bd 3297 c4bd
00000150: fd2f 0c3d d690 82bd a598 373d 9b3b fe3b
00000160: d4d5 ad3c c5df 6ebd f89e ffbd e10f 553d
00000170: 4832 ef3c 0a0b 943b 3416 35bd da21 c1bd
00000180: 443b 42bc f1dd 50bd e1f1 eabd a187 49bd
00000190: 839a 9fbd e526 6cbc 7fca 123c 593d b93c
000001a0: 6cbe 303d 7def 92bc e6cf 523d 10a6 c537
000001b0: 6ec5 68bd 1948 36bd 6eb8 443d 671d 5abd
000001c0: 7e09 bf3d 9faa a0bc d8b6 c5bd e2aa 8dbd
000001d0: 7082 81be cfb2 e6bb c5d0 873c 7de3 8c3d
000001e0: 5b27 02be 0cab 07be 1378 423d 86bc d73d
000001f0: 7717 31be 3c37 6f3c f7e8 28be 21dc 4abd
00000200: 4137 47bc c2fd 82bd c723 b7bc 07dd afbd
00000210: e7cd 1b3d c7b0 993d 7907 b1bc 8dd3 f9bb
00000220: 264a 7bba eb23 c13d 486e 07bd 47f2 ffbc
00000230: 1618 da3d 9bb5 463d 15e6 8b3d 962b c3bd
00000240: 2d75 0dbe 3eeb 8ebd 18a8 3c3d c253 04bd
00000250: 1321 99bd 82a8 4ebc 0aa6 2abc 9f34 0bbb
00000260: ef85 a03d 2291 a1bd 8baa 5cbc 107d e83d
00000270: 704d fdbd b29d ea3d b44e 6bbd b2e1 85bc
00000280: ddc4 ac3a 572f 32ba 17c6 84bd 7c0a 423d
00000290: 5d31 153d a569 4ebd 6f1f 873d 3e7c ab3d
000002a0: 1073 79bd f3a4 d0bd ce4f 0abc 48f7 6ebd
000002b0: 1849 d83d aabd aebd 79a5 5cbd a911 a6bd
000002c0: a1ec a1bc 1998 bf3d cae2 86bd 2004 0f3c
000002d0: 89b2 a53d 7ad5 d73d dfa4 d73c 37ad f1bc
000002e0: c5ed 17bd 6780 8bbd 6a3e 41bc 3f4c 69bc
000002f0: 3bc2 f73d adf4 82bd 84a1 3cbd 1acb 033d
00000300: 4665 af3d 2fb4 823d defe 473e 138a e03d
00000310: fad7 353d 65b7 b43d b13d 983d 3195 4f3e
00000320: b88b 53bd 791a 5dbd 0498 063e 07f0 0a3c
00000330: 87ff 8c3d ed94 f9bd 6179 05bd 38c9 243d
00000340: 25fb 05bd e418 b6bd 1141 15be 7d6f 783e
00000350: 4923 053e c42c e63d 65a4 b03c 80bf b13d
00000360: 859a 5dbd caf7 07be 06b0 a9bd 7c49 94bc
00000370: cfd5 77bb 35e9 02be 09b8 e7bb 4d8d 123e
00000380: dfbe 5b3d 9e9f 033d 1906 343d cfd9 493d
00000390: e6fb b13d 4f04 193e 3428 3c3e a630 883c
000003a0: 198c c83b db21 3fbd f643 d2bc 55f8 75bd
000003b0: dc13 373d c2f0 d3bc de4f 2abe 3164 85bd
000003c0: cbd1 e1bd e6a6 593d eac4 123e 011b eebd
000003d0: d042 533e c440 0a3e 91ee 1f3c 56b8 b7bd
000003e0: 1f38 603d 137e c5bb 7f2a b7bd 4595 893b
000003f0: feb1 613e 62af 363d 91eb e43d 873f 11bd

lstm.weight_ih_l0_reverse f4 [256, 6]
-0.20058927 -0.039966024 0.008534952 0.12893523 0.029479155 0.08296169 0.06282103 -0.024291396
-0.07748819 -0.09830454 0.123109095 0.07561029 0.20884775 -0.031732228 0.0015874495 0.14704157
0.054583777 -0.02452338 0.1820906 -0.10699896 0.0039339066 0.105843365 0.009286545 0.02551994
0.014255605 0.080502875 -0.07004707 -0.02305656 0.056664117 -0.1088709 -0.13460048 0.06096279
-0.14874099 0.11059827 -0.034864254 0.055340838 -0.014896482 0.14990233 0.060119964 -0.098086685
-0.017717078 -0.026205452 0.026455369 -0.0028384048 -0.13895926 0.028479084 0.03349423 -0.025685104
0.04374122 0.027487239 0.014463588 -0.049024157 0.040646244 -0.087247655 0.23174451 0.18386315
0.0016456629 0.031195257 0.06552723 -0.026095128 0.09789697 0.02219003 -0.10570492 -0.11463716
-0.06686673 0.07115716 -0.03813086 0.014786361 0.023457607 -0.09806743 -0.034025215 -0.04304378
0.21559714 -0.087244414 -0.0036356125 0.1395401 0.09924493 -0.077522665 -0.037940573 -0.05584538
0.033040714 0.08143453 0.10162812 0.020008402 0.12598054 -0.019032337 0.011322381 -0.004621125
-0.13164967 0.09924328 0.0976066 -0.04080448 0.07982204 -0.07918955 -0.08652085 0.08813401
0.21101673 -0.11601733 -0.023598712 0.00047084872 -0.09463619 -0.093051955 0.11952349 0.027973237
5.0352603e-05 -0.1412971 -0.12527105 0.042493716 -0.07470936 -0.061716963 0.0550834 0.06056887
-0.09945767 0.007447076 0.0067391465 -0.0614637 0.049226586 -0.08264275 0.046952967 -0.0031249914
0.06267211 -0.057638753 0.10383657 0.097204156 -0.06431831 -0.08387738 0.2454891 0.11239396
-0.07979023 0.13197187 0.014106625 -0.06303199 0.19219744 -0.07038214 -0.122766435 0.09944044
-0.10322437 0.07182073 0.026503233 -0.14079583 0.054607168 0.1339052 -0.012322971 0.16667947
0.10729912 0.05597137 0.02135514 0.079760104 0.017398326 0.018554559 0.14730574 -0.1264262
-0.050965372 0.01124283 -0.10209935 0.111391015 0.16003391 0.054382507 0.040951256 -0.17442612
0.15846701 0.01909279 -0.0070198877 0.011895024 0.01685924 -0.115016155 -0.1143278 -0.06894902
0.27717373 0.16924919 -0.1262893 0.106979616 0.21876259 -0.03579125 0.09871365 -0.09188664
-0.0022854845 -0.106008455 -0.13907139 0.069974825 -0.066928014 -0.07396921 0.027914662 -0.16186641
-0.05644543 0.12585637 0.19643499 0.0782706 0.10835791 0.00800475 -0.08770387 0.04995363
0.16911842 -0.038984686 0.057486165 -0.01804326 0.07222101 -0.08688816 0.23358776 -0.016103575
-0.07933825 0.026743636 0.059479423 0.09300232 0.22822767 -0.00674189 -0.0949296 0.090147845
-0.10989746 -0.14393531 -0.0056453277 -0.06072963 0.07983824 0.052591015 0.039734513 0.06248535
0.3889832 0.05841792 0.002548189 0.18061687 0.12996274 0.028079802 -0.022248212 0.00011451129
0.024768485 0.11543559 0.049140148 0.102901965 0.37977177 -0.07112749 -0.11843143 0.19808723
-0.100667275 -0.11338808 0.011594104 -0.05991914 0.03263988 0.11231806 -0.1342931 -0.050700594
0.08226155 -0.076324254 -0.11065597 0.043742187 -0.007393045 0.0005962425 -0.1578356 0.09890118
-0.064687446 -0.07399818 -0.030086713 -0.13332972 -0.02223703 -0.057956107 -0.044589896 0.071974844
00000000: 4667 4dbe 6ab3 23bd 2fd6 0b3c 9907 043e
00000010: 457e f13c d2e7 a93d 50a8 803d c0fe c6bc
00000020: 21b2 9ebd e453 c9bd 9f20 fc3d 91d9 9a3d
00000030: 2fdc 553e a7f9 01bd f711 d03a 1192 163e
00000040: 3d93 5f3d 41e5 c8bc f575 3a3e 4522 dbbd
00000050: 00e8 803b 68c4 d83d 9826 183c 310f d13c
00000060: 5790 693c b1de a43d d774 8fbd 1ce1 bcbc
00000070: a218 683d b5f7 debd b5d4 09be 1eb4 793d
00000080: 8f4f 18be 5981 e23d d2cd 0ebd 13ad 623d
00000090: 6010 74bc ff7f 193e 5a40 763d ace1 c8bd
000000a0: 6823 91bc d1ac d6bc eeb8 d83c 8804 3abb
000000b0: 564b 0ebe f84c e93c 3f31 093d 9169 d2bc
000000c0: fe29 333d eb2c e13c aff8 6c3c 8ecd 48bd
000000d0: ad7c 263d e6ae b2bd 6f4e 6d3e 9f46 3c3e
000000e0: 49b3 d73a 328d ff3c 2433 863d 73c5 d5bc
000000f0: 357e c83d dec7 b53c d27b d8bd e3c6 eabd
00000100: 6df1 88bd d8ba 913d 1b2f 1cbd 7e42 723c
00000110: 2b2a c03c 94d7 c8bd 065e 0bbd ad4e 30bd
00000120: 7fc5 5c3e 33ad b2bd 7543 6ebb 9ae3 0e3e
00000130: ed40 cb3d 34c4 9ebd 9367 1bbd 20be 64bd
00000140: b355 073d 26c7 a63d 6722 d03d a9e8 a33c
00000150: 0b01 013e b4e9 9bbc 8281 393c ce6c 97bb
00000160: 2ccf 06be 1040 cb3d f8e5 c73d 9922 27bd
00000170: bd79 a33d 212e a2bd d831 b1bd 9b7f b43d
00000180: c514 583e 7e9a edbd 1652 c1bc 3fdc f639
00000190: 9ed0 c1bd 0692 bebd bbc8 f43d 2128 e53c
000001a0: b231 5338 30b0 10be 0e47 00be e40d 2e3d
000001b0: 3901 99bd edca 7cbd 229f 613d 1017 783d
000001c0: 76b0 cbbd 9a06 f43b 0fd4 dc3b 5cc1 7bbd
000001d0: d1a1 493d 9a40 a9bd c151 403d a8cc 4cbb
000001e0: 3c5a 803d 9d16 6cbd 45a8 d43d f912 c73d
000001f0: 51b9 83bd e7c7 abbd 7f61 7b3e ce2e e63d
00000200: 0f69 a3bd a223 073e 791f 673c ea16 81bd
00000210: 68cf 443e 8324 90bd f86c fbbd 6ea7 cb3d
00000220: 4c67 d3bd bf16 933d 4f1d d93c c82c 10be
00000230: c4ab 5f3d 721e 093e 49e6 49bc 06ae 2a3e
00000240: a4bf db3d 3c42 653d f9f0 ae3c 4459 a33d
00000250: ef86 8e3c bbff 973c 51d7 163e df75 01be
00000260: 11c1 50bd d933 383c 7719 d1bd f920 e43d
00000270: eedf 233e 31c0 5e3d 81bc 273d c39c 32be
00000280: 2d45 223e 7c68 9c3c 1607 e6bb 59e3 423c
00000290: 641c 8a3c 978d ebbd b224 eabd 2535 8dbd
000002a0: b7e9 8d3e a94f 2d3e fb51 01be 2118 db3d
000002b0: 4d03 603e d999 12bd 622a ca3d 102f bcbd
000002c0: 11c8 15bb f61a d9bd bb68 0ebe f64e 8f3d
000002d0: 8e11 89bd 2b7d 97bd 4aad e43c 4fc0 25be
000002e0: 5333 67bd 7ee0 003e 4126 493e 564c a03d
000002f0: c0ea dd3d 5b26 033c 169e b3bd 2d9c 4c3d
00000300: 612d 2d3e 68ae 1fbd 9d76 6b3d 75cf 93bc
00000310: 9ce8 933d 6bf2 b1bd a131 6f3e a5eb 83bc
00000320: 187c a2bd 7815 db3c b2a0 733d 0078 be3d
00000330: 84b4 693e 13eb dcbb 736a c2bd 6f9f b83d
00000340: eb11 e1bd c763 13be 71fc b8bb a2bf 78bd
00000350: 3b82 a33d ad69 573d a8c0 223d a3f0 7f3d
00000360: ce28 c73e a147 6f3d 84ff 263b a1f3 383e
00000370: f414 053e 9d07 e63c e241 b6bc c825 f038
00000380: 47e7 ca3c 7f69 ec3d 2e47 493d 44be d23d
00000390: 7271 c23e 4aab 91bd 2d8c f2bd 61d7 4a3e
000003a0: a52a cebd 0238 e8bd 32f5 3d3c c66d 75bd
000003b0: 65b1 053d 0307 e63d 2184 09be 6dab 4fbd
000003c0: be78 a83d e44f 9cbd 999f e2bd 022b 333d
000003d0: 5b41 f2bb 284d 1c3a a89f 21be b48c ca3d
000003e0: da7a 84bd 5c8c 97bd 6978 f6bc 9687 08be
000003f0: 6f2a b6bc 6263 6dbd e5a3 36bd 8c67 933d

lstm.weight_hh_l0_reverse f4 [256, 64]
-0.07189093 0.053056475 0.076588124 0.10821702 -0.033998422 -0.065175794 -0.079318635 0.08378703
0.056845855 0.08987238 0.09541715 0.12709811 0.01966976 -0.14309181 0.014661246 -0.021610862
0.15859158 0.05686008 -0.13175109 0.023386339 0.016544899 0.06564413 -0.03683173 0.115489565
0.081861295 -0.05396191 -0.077963024 -0.019927524 0.058547694 -0.10782647 -0.043770302 0.09191074
-0.018203642 -0.065645665 0.0009807007 0.08217598 -0.08082792 -0.019674737 0.08090067 -0.07636532
-0.045074422 -0.01808881 -0.089709595 -0.04826576 0.049334206 0.0040991334 -0.02549607 -0.04369035
0.075137384 -0.13335203 -0.0016188201 0.060359515 0.11291222 0.020578327 0.02970839 -0.1342879
-0.002885569 -0.030879721 0.050846517 -0.11231189 -0.07579733 -0.030013142 0.06390242 -0.019849794
0.0057001086 -0.10294022 0.06884782 -0.14410573 0.026443897 -0.027608098 -0.1019588 0.055057116
-0.0130229965 -0.04212177 -0.031465676 0.04260896 0.06372525 -0.06806574 -0.060560007 -0.043615904
0.0017890943 0.0011296102 -0.039309323 -0.10538856 -0.032553107 -0.026249042 0.008860625 0.03470379
-0.037821937 0.029065697 -0.033122227 0.062394544 -0.016348584 -0.062257826 -0.052237142 0.065643944
0.008236769 0.023132805 -0.021759713 -0.10754435 -0.07459422 0.020346964 0.14040704 0.135303
0.06954782 -0.0014125059 0.06751112 -0.064854205 0.08194507 0.034492847 0.06250257 -0.051689107
-0.034914874 0.039900716 0.0022058596 -0.11685489 -0.052137423 -0.12285046 -0.09791953 0.03505167
-0.08753326 0.0349172 0.11311736 -0.022194173 -0.00045310098 -0.06435694 0.10812581 -0.052108277
-0.15774755 -0.01218852 0.11832275 0.11519518 -0.023163868 0.16680415 0.017553268 0.15688564
-0.16101687 -0.011632719 0.14234672 0.10845807 -0.035088256 -0.08694682 0.047119036 0.09007499
0.104612604 0.02542551 0.046741854 -0.11484996 0.09262733 -0.060870305 -0.048483133 -0.0015685844
0.04689954 0.05462165 0.002531249 -0.12333028 -0.019537274 -0.0060440185 -0.14984386 0.064444095
-0.065117754 0.23265156 0.03992274 -0.07222256 0.020659838 -0.024083365 -0.19481312 0.06623189
-0.102663904 -0.010792529 0.04301574 0.07312567 0.008024589 0.07692261 -0.02145695 0.15191141
0.035572164 -0.19767419 -0.17135201 0.18678398 0.0069771805 0.068627685 0.22523253 -0.009887321
-0.11173381 0.017044593 0.055040043 -0.12547235 -0.103917785 -0.02865072 -0.08896457 0.05156644
0.0019036895 0.1292391 -0.011683559 -0.09842885 -0.046541624 -0.05011993 -0.058561526 -0.00341124
-0.09608521 -0.14880562 0.060387205 0.013964653 0.0868218 0.023829479 -0.06559813 -0.047792155
-0.08990293 0.12496272 -0.0818196 -0.087726556 -0.009923288 0.0605803 0.122116596 -0.0045532924
0.14435259 0.021330917 -0.051282145 0.13506024 0.11552751 0.06554576 -0.041647572 0.018574938
-0.119729325 0.07969682 -0.12636948 -0.1197986 -0.105581336 -0.039319776 0.037534077 0.016972944
-0.034248292 0.10497411 -0.027804345 0.064503536 -0.14010182 -0.1612733 -0.021296801 0.10139666
-0.059737265 -0.010146351 0.08262514 0.02948467 -0.11439928 0.026247695 0.026385838 -0.09439892
-0.009507637 -0.10421519 0.04952464 -0.016771648 0.11075073 -0.12362286 -0.016328312 -0.07776806
00000000: 8d3b 93bd bf51 593d 3cda 9c3d e3a0 dd3d
00000010: ee41 0bbd e37a 85bd cf71 a2bd 8998 ab3d
00000020: 33d7 683d 030f b83d 116a c33d 0226 023e
00000030: 7a22 a13c a986 12be b935 703c 4309 b1bc
00000040: d565 223e 1ee6 683d c2e9 06be b594 bf3c
00000050: 2b89 873c 6e70 863d dedc 16bd cb85 ec3d
00000060: e5a6 a73d 2a07 5dbd 14ab 9fbd 0c3f a3bc
00000070: b5cf 6f3d 20d4 dcbd 7d48 33bd b33b bc3d
00000080: ce1f 95bc 3c71 86bd db8a 803a e14b a83d
00000090: 1c89 a5bd ea2c a1bc 40af a53d 6c65 9cbd
000000a0: f59f 38bd fc2e 94bc aab9 b7bd 51b2 45bd
000000b0: aa12 4a3d 0652 863b 22dd d0bc a7f4 32bd
000000c0: a1e1 993d 6f8d 08be 972e d4ba 8a3b 773d
000000d0: 863e e73d e193 a83c 025f f33c c482 09be
000000e0: d01b 3dbb 78f7 fcbc 7044 503d c703 e6bd
000000f0: a13b 9bbd 1fde f5bc 46df 823d 099c a2bc
00000100: fac7 ba3b 52d2 d2bd 1600 8d3d 7490 13be
00000110: dfa0 d83c 612a e2bc c6cf d0bd 9283 613d
00000120: 685e 55bc e187 2cbd 27e2 00bd bc86 2e3d
00000130: 6282 823d 0d66 8bbd c50d 78bd 97a6 32bd
00000140: 0b80 ea3a 6e0f 943a d002 21bd f5d5 d7bd
00000150: 6856 05bd 3b08 d7bc 282c 113c 9025 0e3d
00000160: 2deb 1abd 2f1b ee3c 2cab 07bd 6c91 7f3d
00000170: 77ed 85bc 1002 7fbd 9df6 55bd 5570 863d
00000180: 83f3 063c 0281 bd3c 6d41 b2bc 3640 dcbd
00000190: dbc4 98bd adae a63c ddc6 0f3e df8c 0a3e
000001a0: 166f 8e3d d523 b9ba 4543 8a3d 48d2 84bd
000001b0: d1d2 a73d 5f48 0d3d 5901 803d f5b7 53bd
000001c0: e602 0fbd ef6e 233d 2f90 103b 9e51 efbd
000001d0: 0d8e 55bd 0699 fbbd 098a c8bd 5792 0f3d
000001e0: a344 b3bd 5705 0f3d 13aa e73d 8ed0 b5bc
000001f0: 2f8e edb9 92cd 83bd 1171 dd3d 7d6f 55bd
00000200: 9388 21be 5cb2 47bc 3353 f23d 73eb eb3d
00000210: 27c2 bdbc b5ce 2a3e dfcb 8f3c a1a6 203e
00000220: 9be1 24be 2997 3ebc 57c3 113e 441f de3d
00000230: b4b8 0fbd 2d11 b2bd e4ff 403d 3d79 b83d
00000240: 223f d63d 2949 d03c 6374 3f3d 7536 ebbd
00000250: 66b3 bd3d 2453 79bd 4096 46bd f598 cdba
00000260: bb19 403d f4ba 5f3d 50e3 253b 9694 fcbd
00000270: a20c a0bc e70c c6bb ab70 19be 44fb 833d
00000280: 755c 85bd 363c 6e3e 0786 233d 6ce9 93bd
00000290: d23e a93c 7a4a c5bc 177d 47be 96a4 873d
000002a0: 7441 d2bd 26d3 30bc 4631 303d e9c2 953d
000002b0: 9179 033c 9a89 9d3d 7cc6 afbc aa8e 1b3e
000002c0: 1eb4 113d 1a6b 4abe e776 2fbe 4d44 3f3e
000002d0: d5a0 e43b ac8c 8c3d 5ba3 663e 6efe 21bc
000002e0: b2d4 e4bd 1aa1 8b3c ab71 613d d37b 00be
000002f0: d9d2 d4bd eab4 eabc 0e33 b6bd 5537 533d
00000300: 3885 f93a 4157 043e 666c 3fbc 1195 c9bd
00000310: 6ea2 3ebd 8e4a 4dbd 36de 6fbd 1c8f 5fbb
00000320: 53c8 c4bd 8060 18be 9358 773d 00cc 643c
00000330: a1cf b13d 0a36 c33c 5058 86bd b5c1 43bd
00000340: 071f b8bd 74ec ff3d 0991 a7bd fba9 b3bd
00000350: 4995 22bc 0c23 783d 4418 fa3d c933 95bb
00000360: 2ad1 133e 2dbe ae3c 3a0d 52bd 3b4d 0a3e
00000370: b099 ec3d db3c 863d a596 2abd 782a 983c
00000380: a634 f5bd 1638 a33d 0067 01be f858 f5bd
00000390: 073b d8bd c60d 21bd 55bd 193d d80a 8b3c
000003a0: f047 0cbd abfc d63d f0c5 e3bc 6e1a 843d
000003b0: da76 0fbe d424 25be a176 aebc 0da9 cf3d
000003c0: 10af 74bd e13c 26bc 5f37 a93d d689 f13c
000003d0: 2b4a eabd 6805 d73c 1d27 d83c 3954 c1bd
000003e0: ebc5 1bbc c66e d5bd 59da 4a3d b264 89bc
000003f0: 47d1 e23d fb2d fdbd f4c2 85bc dc44 9fbd

lstm.bias_ih_l0_reverse f4 [256]
-0.103853606 0.029710801 0.18196547 -0.014734872 -0.10563143 0.08394203 -0.078878805 0.00029195784
-0.12640227 0.25798747 0.022041563 -0.09169267 -0.0074695763 -0.10037872 0.06952676 -0.12136274
-0.09271624 -0.11533034 0.07326158 0.010683892 0.25898474 0.32134908 -0.021739734 -0.12918483
-0.078817196 0.11248986 -0.006527843 0.060706813 0.33971733 -0.0508589 0.007202449 0.068935715
0.07143813 -0.021013428 0.1044583 -0.11357852 0.31408808 0.048614167 0.0057582636 0.06748147
0.037813697 0.025455082 -0.08583876 -0.026007062 0.29762423 0.088045254 0.07863823 -0.02905207
0.081881896 0.1315595 -0.022395957 -0.06924774 -0.05904921 0.038623232 -0.033370547 0.056394394
0.123335 -0.05762297 0.10936957 0.30854657 -0.06505402 -0.06178495 -0.0704463 0.04067059
-0.0033287366 0.10292533 0.013565149 0.08306994 0.05996583 -0.10810938 -0.002107016 -0.006188239
0.106002726 -0.12033184 0.09853597 0.089208715 -0.018416284 0.07848241 -0.08565969 -0.062475827
0.08748805 -0.073067285 -0.08633263 -0.066937886 0.010444426 -0.10646738 -0.16056305 0.07680382
-0.047387034 -0.084571935 -0.00083952287 0.07888189 -0.182837 -0.069874816 -0.008342818 -0.15372741
-0.020939464 0.024986034 -0.16203749 -0.02752595 -0.14066193 -0.14334892 0.04124127 0.06446805
-0.114395745 -0.006741922 -0.09674388 -0.09211617 -0.13262326 -0.19128312 0.025341695 -0.006807601
-0.067152314 -0.09892744 0.05900889 -0.14625435 -0.10974771 -0.016450841 0.00689883 -0.019924168
-0.11848469 0.058482796 -0.10106073 -0.1281276 -0.008038062 0.06063696 -0.14368534 -0.04403905
0.033792704 -0.06509895 0.010038385 0.1310355 -0.052310396 0.06143253 0.0648074 -0.008726291
-0.09739594 -0.021519335 -0.0525273 -0.017308408 0.04484321 -0.06585065 -0.041318875 0.03757734
0.025004849 -0.09091861 -0.0039042789 0.018991401 0.11967168 0.076031424 0.088038296 -0.015792763
-0.085355006 0.024871273 -0.006397078 0.049068164 -0.04332143 -0.1275069 0.022222187 -0.08149487
-0.080828644 0.09829177 0.10355281 0.10968182 -0.07284687 -0.025109641 -0.13934694 -0.020750497
-0.025284978 -0.049947537 0.07158075 0.10855618 -0.073726356 0.021290563 0.03161331 0.10235977
-0.016621592 -0.0485526 0.049189553 0.10606822 0.083347276 0.011238208 0.11675642 -0.0740076
-0.11727438 0.009830794 0.103291035 -0.053477764 -0.06699983 -0.027728712 -0.065717205 0.03332365
0.00805724 0.11895828 0.16719943 -0.047836922 -0.1071408 0.022814568 -0.013811507 0.05902613
0.056890856 0.37013713 -0.0297725 0.11041819 0.08434768 -0.1142926 0.10698136 0.033695392
-0.073660515 0.050277516 -0.15375331 -0.07375952 0.12975925 0.15628818 0.22574551 0.07879729
0.068786465 0.012868832 -0.09546803 -0.12164943 0.34787896 -0.051511317 0.12637456 -0.09262933
0.09872761 -0.008167502 0.16920306 -0.043993313 0.1363901 -0.04672013 0.011700917 -0.09821023
0.13513142 0.00880001 0.080758676 -0.09448077 0.24490982 0.14610374 0.19649638 0.11327849
-0.0059618447 0.06863976 0.04092453 -0.041563634 -0.11365647 -0.06318122 -0.034995034 -0.03557825
0.2519957 -0.07895865 -0.06308184 0.28566226 -0.12050173 0.0021252888 0.06937143 0.018338913
00000000: 33b1 d4bd 1164 f33c 2855 3a3e 886a 71bc
00000010: 4b55 d8bd cde9 ab3d 368b a1bd eb11 9939
00000020: 996f 01be ef16 843e 8290 b43c 5ec9 bbbd
00000030: 59c3 f4bb 5c93 cdbd 0c64 8e3d 078d f8bd
00000040: 03e2 bdbd 5032 ecbd 2b0a 963d 7e0b 2f3c
00000050: a699 843e de87 a43e 8717 b2bc 0749 04be
00000060: e96a a1bd 1561 e63d 84e7 d5bb b5a7 783d
00000070: 6eef ad3e 6c51 50bd 8502 ec3b 2b2e 8d3d
00000080: 284e 923d 5a24 acbc 3cee d53d db9b e8bd
00000090: 27d0 a03e a61f 473d d1af bc3b ba33 8a3d
000000a0: 89e2 1a3d 2d87 d03c 3bcc afbd c30c d5bc
000000b0: 3462 983e 1251 b43d 150d a13d 9bfe edbc
000000c0: b2b1 a73d 89b7 063e ba77 b7bc c2d1 8dbd
000000d0: 96dd 71bd 6533 1e3d 8eaf 08bd cffd 663d
000000e0: 0f97 fc3d 1006 6cbd 27fd df3d d1f9 9d3e
000000f0: 0b3b 85bd 3712 7dbd 2646 90bd 3496 263d
00000100: ef26 5abb 84ca d23d 5c40 5e3c 9320 aa3d
00000110: bb9e 753d 7368 ddbd dd15 0abb b6c6 cabb
00000120: f517 d93d 8a70 f6bd 3acd c93d 0fb3 b63d
00000130: bfdd 96bc 63bb a03d 596e afbd a7e6 7fbd
00000140: ef2c b33d 4da4 95bd 29cf b0bd bb16 89bd
00000150: 191f 2b3c 920b dabd a46a 24be 524b 9d3d
00000160: e818 42bd 0d34 adbd 6d13 5cba d48c a13d
00000170: 9f39 3bbe 871a 8fbd 51b0 08bc b86a 1dbe
00000180: 3d89 abbc 83af cc3c 28ed 25be 1a7e e1bc
00000190: ae09 10be 0fca 12be 9bec 283d d307 843d
000001a0: 5148 eabd 57eb dcbb a821 c6bd 67a7 bcbd
000001b0: 64ce 07be b9df 43be 6399 cf3c 4c12 dfbb
000001c0: 2787 89bd 789a cabd 4eb3 713d b3c3 15be
000001d0: 68c3 e0bd eac3 86bc 950f e23b 0238 a3bc
000001e0: 1aa8 f2bd a88b 6f3d eef8 cebd e233 03be
000001f0: 13b2 03bc 765e 783d 4022 13be 4a62 34bd
00000200: 386a 0a3d 9952 85bd 0a78 243c 2c2e 063e
00000210: 6d43 56bd ada0 7b3d beb9 843d b8f8 0ebc
00000220: 8677 c7bd 5149 b0bc de26 57bd 5dca 8dbc
00000230: 84ad 373d b5dc 86bd fb3d 29bd b2ea 193d
00000240: f8d6 cc3c 8933 babd eede 7fbb db93 9b3c
00000250: 6d16 f53d 5db6 9b3d 6c4d b43d d35f 81bc
00000260: 9bce aebd d7be cb3c 949e d1bb b3fb 483d
00000270: d071 31bd 2b91 02be 4e0b b63c c8e6 a6bd
00000280: 7d89 a5bd 324d c93d 7f13 d43d dda0 e03d
00000290: bd30 95bd bcb2 cdbc f7b0 0ebe f2fc a9bc
000002a0: 7122 cfbc ca95 4cbd ee98 923d b452 de3d
000002b0: d8fd 96bd 8c69 ae3c f57c 013d 00a2 d13d
000002c0: 012a 88bc 17df 46bd fc7a 493d 4c3a d93d
000002d0: fab1 aa3d 7620 383c fd1d ef3d 4c91 97bd
000002e0: 8d2d f0bd 5711 213c 408a d33d 800b 5bbd
000002f0: 3537 89bd 5327 e3bc be96 86bd 617e 083d
00000300: 8402 043c 66a0 f33d 5436 2b3e a6f0 43bd
00000310: a36c dbbd 9ee5 ba3c a949 62bc 62c5 713d
00000320: 6306 693d 9d82 bd3e 75e5 f3bc ef22 e23d
00000330: 7abe ac3d 3d12 eabd 0b19 db3d 2e04 0a3d
00000340: 53db 96bd ccef 4d3d 8271 1dbe 3b0f 97bd
00000350: 9cdf 043e 020a 203e d529 673e 7960 a13d
00000360: ebdf 8c3d cbd7 523c be84 c3bd 5623 f9bd
00000370: 311d b23e 88fd 52bd 5568 013e 72b4 bdbd
00000380: b431 ca3d fcd0 05bc 9143 2d3e 5532 34bd
00000390: d9a9 0b3e 9b5d 3fbd 34b5 3f3c 7222 c9bd
000003a0: e45f 0a3e eb2d 103c ce64 a53d 227f c1bd
000003b0: a4c9 7a3e 389c 153e 5936 493e 8efe e73d
000003c0: 945b c3bb 0193 8c3d 7ba0 273d a13e 2abd
000003d0: b9c4 e8bd 2865 81bd f456 0fbd 80ba 11bd
000003e0: 9505 813e 13b5 a1bd 0d31 81bd 5342 923e
000003f0: 9cc9 f6bd 6e48 0b3b 9c12 8e3d 7d3b 963c
