src/best_model.pth (torch, 152162 bytes, 10 tensors)

embedding.weight f4 [7, 5]
-0.27994603 0.44259524 1.2421067 -0.07663954 0.94286656 -0.94547105 0.71078235 0.9550495
-0.1996392 -0.4048215 1.1174903 1.5755337 -0.13850036 -0.93492496 -1.2889576 0.4419615
-0.7131647 1.923411 0.8829649 -1.2873018 0.53354555 0.3324414 1.0382873 -0.25741786
-0.875272 1.5775868 -0.8018344 0.9018885 -0.35805643 0.9451066 -1.4493514 -0.48690292
1.1512868 1.248101 0.677958
00000000: 1655 8fbe d89b e23e 5afd 9e3f 31f5 9cbd
00000010: b45f 713f 640a 72bf d5f5 353f 207e 743f
00000020: 386e 4cbe c344 cfbe ec09 8f3f 17ab c93f
00000030: 0ad3 0dbe 3e57 6fbf 90fc a4bf c748 e23e
00000040: f691 36bf 5532 f63f fd09 623f 4ec6 a4bf
00000050: 7196 083f c235 aa3e 99e6 843f 46cc 83be
00000060: d311 60bf 5dee c93f 0545 4dbf 2ae2 663f
00000070: 2c53 b7be 82f2 713f 5984 b9bf 574b f9be
00000080: 5e5d 933f c6c1 9f3f a88e 2d3f

lstm.weight_ih_l0 f4 [256, 6]
0.2580431 0.13042334 0.095323384 -0.027565192 -0.11518293 0.08138241 0.148192 -0.0023539264
-0.012481204 -0.068617664 0.06628659 0.1215219 0.19337533 0.054966006 0.035289094 -0.026446506
0.11701898 0.086601384 0.24436997 0.34099162 0.0041520917 0.024009889 -0.23312971 0.12460664
0.21083187 -0.052768003 0.038949024 0.07277926 0.0017759935 -0.008421697 0.15594119 0.07933281
0.07027578 0.11384551 0.048000146 0.15641636 -0.20148025 -0.13597918 -0.115472384 0.08470609
0.08984634 0.06268184 0.03282797 0.00015644095 -0.0034487469 -0.10748459 -0.030725116 0.04518092
-0.14095019 -0.010777351 -0.061319012 -0.08419812 0.021948583 0.0014809285 0.21730247 0.29980704
0.07168779 0.08255639 -0.30594254 0.14619379 0.09130454 -0.117849305 -0.1447131 -0.09950335
-0.009333315 0.074274994 -0.06301634 -0.13560833 -0.13878027 -0.14945714 -0.06558972 0.14145625
0.18622078 -0.00120711 -0.093866184 -0.016512409 -0.0503732 0.07105109 0.12223984 -0.08391381
-0.14707242 -0.012143502 0.13017102 0.0206792 0.23149231 0.36579612 0.08238038 -0.08259007
-0.15157333 0.25965604 -0.00016603203 0.18417373 0.23540045 0.115939684 -0.19704795 0.10607048
0.006931525 -0.048843794 -0.13902721 -0.059677258 -0.073931254 0.105267875 0.044168286 0.03628124
-0.042830583 -0.030718306 0.027971141 0.06083054 0.047302213 -0.05436954 -0.14794977 -0.012379268
0.021011593 -0.016765004 0.07258984 0.21241492 0.0745781 0.10859639 -0.13133389 0.1991703
0.022678252 -0.037747223 0.014679718 -0.019459711 -0.07252442 0.0032052565 0.06283717 0.08697971
-0.091823846 -0.05039082 0.06024054 0.13944778 0.12885365 0.09103165 -0.093073614 0.0057528242
0.04136785 0.008486104 0.23078693 -0.03900632 -0.018311523 -0.16039284 0.02074144 -0.057321686
0.224579 -0.021928107 -0.20486516 -0.10479641 0.05970809 0.048662294 0.07561749 0.17590612
-0.04960148 -0.056538813 -0.03933209 0.115210675 0.026600573 0.009306581 0.022648169 0.046265997
0.14701365 -0.031703304 0.1305596 0.068987004 -0.018242896 0.001921372 -0.041752134 0.03971255
0.061660685 -0.17175968 -0.18111677 -0.05129033 0.112230994 -0.017163469 0.08434581 -0.0122405635
-0.12041329 -0.1641327 0.110141866 0.09652817 -0.020954585 0.08125884 -0.06783957 0.11059038
0.017269146 0.14102851 0.18844654 0.07320767 -0.07592283 0.020417126 0.011461042 0.09936875
0.20488584 0.36603454 -0.071745224 0.19716537 -0.04268378 0.06833441 0.11002245 -0.19360988
-0.05550167 -0.0911041 -0.014255438 -0.05306125 0.25587994 0.12188218 0.021188503 0.13095793
0.007163983 0.10754988 -0.010965229 -0.005456819 -0.07755251 -0.1609927 -0.0034294126 -0.04853108
0.1419636 0.065801635 0.11351595 0.04364567 0.047762837 0.041445356 0.14365089 0.16475503
0.027464867 0.05231357 0.04822159 0.04294078 0.034203682 -0.06500224 0.030340433 0.08312885
-0.031746216 0.15472844 0.1191682 -0.14095338 -0.0338829 -0.18469177 0.0565862 0.09423199
0.018388538 0.08277568 0.018666787 -0.098310106 0.081911065 0.042398036 0.11613934 -0.010489161
0.033188347 -0.043702133 0.07785243 -0.0069363755 0.16485183 0.093803 0.061744828 -0.05843303
00000000: 3a1e 843e b28d 053e e838 c33d 66d0 e1bc
00000010: 07e5 ebbd d2ab a63d a5bf 173e 5544 1abb
00000020: f77d 4cbc 6b87 8cbd 44c1 873d 79e0 f83d
00000030: 2f04 463e 0924 613d 4c8b 103d 58a6 d8bc
00000040: a6a7 ef3d 115c b13d 1f3c 7a3e 7496 ae3e
00000050: 450e 883b 63b0 c43c 8eb9 6ebe c431 ff3d
00000060: 4fe4 573e 4323 58bd 0389 1f3d 4b0d 953d
00000070: 74c8 e83a 28fb 09bc 0caf 1f3e 3e79 a23d
00000080: c0ec 8f3d d627 e93d cd9b 443d 9c2b 203e
00000090: d750 4ebe 203e 0bbe c97c ecbd 637a ad3d
000000a0: 5c01 b83d 565f 803d 9f76 063d 4c0a 2439
000000b0: 5f04 62bb e120 dcbd 3db3 fbbc a10f 393d
000000c0: 3f55 10be 7d93 30bc a529 7bbd 1070 acbd
000000d0: 84cd b33c b71b c23a 8a84 5e3e 4f80 993e
000000e0: 0cd1 923d 5313 a93d 80a4 9cbe d3b3 153e
000000f0: e0fd ba3d fa5a f1bd ac2f 14be 6ac8 cbbd
00000100: c3ea 18bc 7d1d 983d b60e 81bd e9dc 0abe
00000110: 6a1c 0ebe 4b0b 19be e753 86bd e8d9 103e
00000120: a9b0 3e3e e437 9eba ea3c c0bd 0845 87bc
00000130: 2154 4ebd 3c83 913d e258 fa3d 01db abbd
00000140: 279a 16be 8af5 46bc 8d4b 053e 6d67 a93c
00000150: 520c 6d3e a149 bb3e 0bb7 a83d fc24 a9bd
00000160: 0a36 1bbe a3f1 843e e218 2eb9 0a98 3c3e
00000170: d10c 713e c971 ed3d f0c6 49be 7b3b d93d
00000180: d921 e33b 6e10 48bd 265d 0ebe 2470 74bd
00000190: 4569 97bd af96 d73d cee9 343d a39b 143d
000001a0: 1f6f 2fbd f5a4 fbbc bc23 e53c 7229 793d
000001b0: f7bf 413d 98b2 5ebd 2580 17be 6ad2 4abc
000001c0: 8120 ac3c c356 89bc fba9 943d 4c83 593e
000001d0: 67bc 983d c967 de3d 647c 06be 4df3 4b3e
000001e0: bec7 b93c d59c 1abd 3383 703c f969 9fbc
000001f0: af87 94bd 480f 523b c6b0 803d 6b22 b23d
00000200: 240e bcbd 9b66 4ebd c9be 763d 66cb 0e3e
00000210: 36f2 033e cd6e ba3d 619d bebd 3082 bc3b
00000220: 5671 293d 4d09 0b3c 6953 6c3e 17c5 1fbd
00000230: 0c02 96bc 053e 24be f4e9 a93c 25ca 6abd
00000240: 0af8 653e 93a2 b3bc 2cc8 51be 809f d6bd
00000250: 7890 743d 1d52 473d 58dd 9a3d bc20 343e
00000260: ec2a 4bbd 3e95 67bd b01a 21bd 93f3 eb3d
00000270: 72e9 d93c a17a 183c a788 b93c 6a81 3d3d
00000280: bf8a 163e 53db 01bd 6ab1 053e 0f49 8d3d
00000290: 2072 95bc 8cd6 fb3a 4904 2bbd a0a9 223d
000002a0: ea8f 7c3d c5e1 2fbe ad76 39be cf15 52bd
000002b0: 5dd9 e53d 679a 8cbc 7fbd ac3d a58c 48bc
000002c0: 3e9b f6bd 6712 28be 0f92 e13d 90b0 c53d
000002d0: f3a8 abbc 096b a63d 79ef 8abd 367d e23d
000002e0: 0678 8d3c c769 103e 21f8 403e e7ed 953d
000002f0: 6e7d 9bbd d141 a73c 18c7 3b3c d881 cb3d
00000300: 98cd 513e e168 bb3e 29ef 92bd b8e5 493e
00000310: 30d5 2ebd e9f2 8b3d 7353 e13d ab41 46be
00000320: b855 63bd c994 babd a48f 69bc c156 59bd
00000330: b202 833e 5d9d f93d 8393 ad3c d619 063e
00000340: d8bf ea3b 1d43 dc3d 81a7 33bc 1ecf b2bb
00000350: dad3 9ebd 45db 24be ffbf 60bb 87c8 46bd
00000360: e85e 113e 02c3 863d 0d7b e83d cdc5 323d
00000370: f7a2 433d 9bc2 293d 3819 133e 8bb5 283e
00000380: 00fe e03c c146 563d 0184 453d ace2 2f3d
00000390: 2919 0c3d e51f 85bd 808c f83c 753f aa3d
000003a0: 5208 02bd 2271 1e3e 750e f43d 1556 10be
000003b0: ccc8 0abd d71f 3dbe eec6 673d b4fc c03d
000003c0: 8fa3 963c 4c86 a93d 17eb 983c cf56 c9bd
000003d0: fdc0 a73d 90a9 2d3d 76da ed3d bbda 2bbc
000003e0: 81f0 073d 0201 33bd 1871 9f3d 894a e3bb
000003f0: ebce 283e ca1b c03d 25e8 7c3d 7957 6fbd

lstm.weight_hh_l0 f4 [256, 64]
-0.06770615 0.015449123 0.11091722 0.0859477 -0.018438704 -0.10295622 0.07855553 -0.036351398
0.14485645 0.10121047 0.13003188 -0.05872728 0.11013726 -0.014582531 -0.11546721 0.10464834
-0.005096277 -0.08552225 -0.10695227 -0.018282589 0.09784419 0.05733853 -0.10806247 -0.15154073
0.06063972 0.013890726 -0.053698003 0.13323979 0.01796394 0.113535084 0.11300288 0.109079875
-0.051869035 0.11368419 -0.10972974 0.13546441 -0.16543427 -0.04374022 0.14060658 0.12408049
-0.060130082 0.036134604 0.032875407 0.06536307 -0.09327328 0.073449634 0.09790265 -0.012367566
0.08433875 0.007319927 -0.008441227 -0.03945568 0.10693001 -0.048023842 -0.14994256 0.13830015
-0.1374703 0.09291117 -0.12809461 -0.06257393 -0.08692186 0.06915342 -0.018111365 -0.002006689
0.11691502 0.082616515 -0.12811098 0.010387638 0.08657633 -0.13745153 -0.20744975 0.042677097
-0.08715449 -0.0045821792 -0.08033964 0.039949246 -0.016067484 0.06452817 0.1325586 0.15207995
-0.042285584 -0.17281486 -0.057834633 -0.118291564 -0.13755684 -0.047554314 -0.031913333 -0.0005161606
-0.0032676756 -0.084431574 -0.019346047 -0.06954388 -0.011059833 0.0009062119 -0.06966268 -0.16986522
0.06829895 -0.1139191 0.12790123 -0.050761532 -0.0833975 -0.09867309 -0.06767691 0.1018014
-0.055290304 0.04007676 -0.08631427 0.087217875 -0.03348004 0.040905684 0.009707257 -0.03953041
-0.010318976 -0.028477645 -0.045410544 0.09344374 -0.11149754 -0.023072 0.053957667 0.034899082
0.015216882 0.046791244 0.04036432 -0.14021043 0.07513362 0.03184037 -0.06987894 0.0062529016
-0.018264899 0.0935586 -0.036830354 -0.07792731 0.10871982 -0.11176543 -0.1017748 0.003242237
0.034898423 -0.11302439 -0.075652316 0.013571158 0.051055256 -0.16477291 -0.02763951 0.020771971
0.017602291 -0.14329469 0.013081387 0.064538054 -0.04248118 -0.048362568 0.04741724 0.07195018
-0.037168887 -0.0356096 0.08083777 0.165749 0.17733735 0.049501404 0.023853987 -0.15935966
0.006740056 0.01235028 0.04681763 0.014592672 -0.044924907 0.15226056 0.004329878 0.100742936
0.1317983 0.012426403 0.021442382 -0.15170318 -0.01980881 0.07532881 0.10602058 0.034978602
0.056004025 -0.03941043 0.0617017 0.026305268 -0.11505046 0.08026534 0.076603256 0.16199245
-0.0013175113 -0.054928213 0.092598416 -0.09773062 0.13070902 0.008359223 -0.009530934 0.041847296
-0.07169896 -0.1011003 0.050016254 -0.13071583 0.05107496 -0.08139956 -0.12957124 -0.086748
0.035097327 -0.16001138 0.03168081 0.1629126 0.12822501 0.14580727 0.0970092 0.12838967
-0.19022776 0.05796813 0.110967286 -0.09101264 -0.043332897 0.028608745 -0.087790675 0.10463557
0.026341546 -0.084222786 0.12364934 0.0064310622 -0.012671163 0.1037632 -0.044728078 -0.061868496
0.083736494 -0.015119665 -0.10023261 0.06653282 -0.02804041 -0.055226255 -0.04693232 0.07666375
0.047863152 -0.07042395 -0.09325625 0.014640901 -0.016255721 -0.11121629 -0.07532953 -0.01860096
-0.008758294 -0.12642503 -0.036994804 -0.042725552 0.034372166 0.14508508 -0.22418241 0.1664119
-0.003490084 0.037575517 0.04134143 -0.07325215 0.14230813 -0.033926856 0.02999072 0.09564794
00000000: 86a9 8abd 521e 7d3c 9128 e33d 5905 b03d
00000010: c40c 97bc b6da d2bd b9e1 a03d 34e5 14bd
00000020: 4055 143e 6f47 cf3d 1427 053e 048c 70bd
00000030: a58f e13d 91eb 6ebc 137a ecbd de51 d63d
00000040: acfe a6bb 4a26 afbd cb09 dbbd 5ec5 95bc
00000050: 8962 c83d cedb 6a3d db4f ddbd 7e2d 1bbe
00000060: 5b61 783d ed95 633c 70f2 5bbd 0370 083e
00000070: 1d29 933c 1585 e83d 0e6e e73d 4565 df3d
00000080: a074 54bd 42d3 e83d fcb9 e0bd 2fb7 0a3e
00000090: 9a67 29be f228 33bd 2cfb 0f3e e91d fe3d
000000a0: f64a 76bd e101 143d 5da8 063d 13dd 853d
000000b0: 1006 bfbd c36c 963d 2f81 c83d 55a1 4abc
000000c0: cbb9 ac3d 00dc ef3b 124d 0abc 479c 21bd
000000d0: 1ffe da3d a6b4 44bd 8b8a 19be 8e9e 0d3e
000000e0: 04c5 0cbe 3648 be3d 3c2b 03be c326 80bd
000000f0: 1704 b2bd 4fa0 8d3d 495e 94bc a882 03bb
00000100: 2471 ef3d d932 a93d 862f 03be e930 2a3c
00000110: ee4e b13d 18c0 0cbe b56d 54be 2ece 2e3d
00000120: 0e7e b2bd 1b26 96bb 1c89 a4bd d2a1 233d
00000130: f59f 83bc 5827 843d 71bd 073e d9ba 1b3e
00000140: a633 2dbd 61f6 30be 02e4 6cbd d942 f2bd
00000150: b3db 0cbe 50c8 42bd 8eb7 02bd f44e 07ba
00000160: 8026 56bb 76ea acbd 9a7b 9ebc 066d 8ebd
00000170: 4d34 35bc da8e 6d3a 4fab 8ebd 26f1 2dbe
00000180: 52e0 8b3d 6b4e e9bd 8af8 023e 53eb 4fbd
00000190: 4fcc aabd 1e15 cabd 319a 8abd 417d d03d
000001a0: 1678 62bd 8727 243d 89c5 b0bd 499f b23d
000001b0: 5e22 09bd b88c 273d 300b 1f3c a4ea 21bd
000001c0: ec10 29bc f349 e9bc 6800 3abd 6e5f bf3d
000001d0: d258 e4bd 7e01 bdbc b702 5d3d 57f2 0e3d
000001e0: 3b50 793c 2da8 3f3d 0f55 253d 5393 0fbe
000001f0: a8df 993d 0c6b 023d b11c 8fbd 24e5 cc3b
00000200: 45a0 95bc a79b bf3d 6ddb 16bd 5a98 9fbd
00000210: 7fa8 de3d 46e5 e4bd 4e6f d0bd b67b 543b
00000220: a6f1 0e3d 5579 e7bd 9aef 9abd 9059 5e3c
00000230: 511f 513d 3bba 28be 416c e2bc fb29 aa3c
00000240: ae32 903c d8bb 12be 5053 563c 872c 843d
00000250: bf00 2ebd d417 46bd 9438 423d 9e5a 933d
00000260: 673e 18bd 5fdb 11bd 468e a53d 1bba 293e
00000270: ec97 353e fcc1 4a3d 7069 c33c 2e2f 23be
00000280: b0db dc3b d458 4a3c d8c3 3f3d 1a16 6f3c
00000290: 2e03 38bd 31ea 1b3e a6e1 8d3b 5052 ce3d
000002a0: 22f6 063e 1d98 4b3c efa7 af3c 1458 1bbe
000002b0: 1646 a2bc fe45 9a3d 5121 d93d b945 0f3d
000002c0: 7a64 653d d56c 21bd ecba 7c3d 257e d73c
000002d0: 939f ebbd 2862 a43d 2be2 9c3d 59e1 253e
000002e0: 58b0 acba 68fc 60bd 3da4 bd3d fe26 c8bd
000002f0: 96d8 053e 1ff5 083c a227 1cbc 1268 2b3d
00000300: e8d6 92bd ad0d cfbd d8dd 4c3d 5fda 05be
00000310: fa33 513d d0b4 a6bd 53ae 04be efa8 b1bd
00000320: 37c2 0f3d 06da 23be bdc3 013d 90d2 263e
00000330: 6b4d 033e 804e 153e c2ac c63d 9578 033e
00000340: 11cb 42be fd6f 6d3d d142 e33d d664 babd
00000350: d67d 31bd e35c ea3c 99cb b3bd 2c4b d63d
00000360: 3aca d73c ff7c acbd dd3b fd3d a9bb d23b
00000370: b69a 4fbc cd81 d43d ca34 37bd d269 7dbd
00000380: 0a7e ab3d 79b8 77bc c146 cdbd 5c42 883d
00000390: 00b5 e5bc ed34 62bd 1b3c 40bd e201 9d3d
000003a0: 270c 443d 6f3a 90bd 22fd bebd 64e0 6f3c
000003b0: b82a 85bc 5ec5 e3bd 5e46 9abd 0a61 98bc
000003c0: f37e 0fbc 9075 01be dd87 17bd fd00 2fbd
000003d0: d4c9 0c3d 2f91 143e 1390 65be e267 2a3e
000003e0: e5b9 64bb c9e8 193d a255 293d 3905 96bd
000003f0: 39b9 113e e3f6 0abd 19af f53c 11e3 c33d

lstm.bias_ih_l0 f4 [256]
0.16987395 0.09286002 0.05479028 0.088060334 -0.07188114 0.0669872 0.010826619 -0.017082078
-0.19698139 0.15209351 -0.100885496 -0.11731963 0.0637044 -0.0897472 0.13499251 0.21363956
0.04277955 -0.06695819 -0.03277551 0.08791063 0.025173431 -0.039415464 -0.08603009 -0.12617344
-0.1952931 0.16036023 -0.1059774 -0.04700576 -0.200531 -0.16038315 0.019571379 -0.06413911
0.092567556 -0.085342534 -0.06540584 -0.016262395 -0.0675558 -4.2166575e-05 -0.11654139 -0.013826031
-0.020431018 -0.0057881232 -0.059942372 0.121100895 0.06063237 -0.0754127 0.054652292 -0.025091292
-0.13700849 0.06882468 -0.09541786 -0.01666101 -0.17463095 -0.08164411 -0.08142825 0.11975752
0.10879979 -0.075813375 0.0507615 -0.07884286 -0.07984288 -0.009346925 -0.028817689 -0.17443505
-0.044284664 -0.10270932 -0.19341055 -0.058482297 -0.049531877 -0.055880174 -0.21970648 -0.12999992
-0.18611917 -0.21012178 0.06856321 -0.19275372 0.03221523 -0.16500193 -0.15846826 -0.11843264
-0.21361396 -0.20948687 -0.106674716 -0.17798829 -0.10000686 -0.09505791 -0.07238947 -0.072517134
-0.07445676 -0.050866216 -0.13900447 -0.02780575 -0.19723226 -0.15242758 -0.15215002 -0.099785715
-0.21604815 -0.14674132 -0.16435708 -0.025761627 -0.085456274 -0.14613323 0.03960204 0.062215533
-0.0019361916 -0.15405118 -0.17601101 -0.038689625 -0.15938501 0.008527506 -0.042853616 -0.035514202
-0.097564355 -0.036824975 -0.10265127 -0.13231148 -0.11110455 0.04455861 -0.09945516 -0.07653547
-0.1959187 -0.11175465 -0.07919471 -0.16848326 -0.19585416 0.039603323 -0.20414743 -0.022283766
0.10381523 0.080347575 0.06558667 -0.060545877 0.067122854 -0.14457974 -0.06860408 -0.07482977
0.05137852 0.0022760972 -0.03197022 0.11038677 -0.043976083 0.077745155 0.100291885 0.007552256
0.034675755 -0.034196004 0.0010250105 -0.15305993 0.041732725 -0.01029562 0.052949343 -0.0363504
-0.03271774 0.015017011 0.0639932 -0.06457148 0.030237775 -0.02621677 -0.038335185 0.10780265
0.13510363 0.0911506 0.067767635 0.03939393 -0.059693303 0.14119914 0.07845262 0.049900446
0.10274149 -0.06943466 0.07253368 -0.02643281 -0.027927887 -0.042902198 -0.04160757 -0.044374738
0.017430173 0.01857497 0.051782355 0.092167884 0.10180788 0.048317514 0.030001896 0.08059366
0.14519829 -0.04963705 0.053319972 -0.11658206 -0.08668516 -0.07386454 0.08449153 -0.098919034
0.1290808 -0.016136574 -0.0039889277 0.057024334 -0.021022804 -0.07714984 -0.023347707 -0.07156576
0.01205035 0.18265027 0.03802508 -0.08349842 -0.03170023 0.0049191993 0.1593765 0.18898453
0.0006553492 -0.08208483 -0.14924651 0.07493701 0.028562708 -0.14952382 -0.08322006 0.061734453
0.04455172 0.085316785 -0.0881066 -0.019134916 -0.01840332 -0.122085944 -0.068693385 -0.003331847
0.19377548 0.05020516 0.09098202 -0.007474888 -0.046587903 0.028338274 -0.16422296 0.032594133
-0.15340802 -0.14170441 0.016756369 -0.0453739 0.018587492 -0.04009181 -0.052561227 -0.12211719
-0.04347506 -0.07283084 0.009216774 -0.10433999 0.0015677919 -0.0825747 -0.1772163 0.063875504
0.11567691 0.10595774 -0.09612354 -0.099986374 0.068918735 -0.13057314 -0.16683237 -0.12357436
00000000: 70f3 2d3e 652d be3d c66b 603d fa58 b43d
00000010: 6b36 93bd 9630 893d 2262 313c b7ef 8bbc
00000020: 7db5 49be 67be 1b3e 0e9d cebd 4645 f0bd
00000030: 7477 823d 61cd b7bd 7a3b 0a3e 54c4 5a3e
00000040: 9c39 2f3d 6021 89bd 9d3f 06bd 7d0a b43d
00000050: 8338 ce3c 1c72 21bd 8b30 b0bd 9c33 01be
00000060: eafa 47be 7935 243e ae0a d9bd 1d89 40bd
00000070: 0058 4dbe 7b3b 24be 2854 a03c 5e5b 83bd
00000080: 0f94 bd3d 11c8 aebd 7ff3 85bd b738 85bc
00000090: b25a 8abd 04dc 30b8 41ad eebd 9486 62bc
000000a0: f35e a7bc 4caa bdbb 2286 75bd bf03 f83d
000000b0: a659 783d f971 9abd 15db 5f3d 418c cdbc
000000c0: f44b 0cbe f4f3 8c3d 706a c3bd ac7c 88bc
000000d0: 75d2 32be 0735 a7bd dbc3 a6bd 6e43 f53d
000000e0: 6dd2 de3d 0b44 9bbd 4aeb 4f3d 5e78 a1bd
000000f0: aa84 a3bd d823 19bc 1313 ecbc 1a9f 32be
00000100: d663 35bd 4459 d2bd 6a0d 46be 228b 6fbd
00000110: f0e1 4abd 9ce2 64bd bcfa 60be b31e 05be
00000120: 0696 3ebe 2a2a 57be de6a 8c3d 3b61 45be
00000130: 1ef4 033d 44f6 28be 8145 22be d08c f2bd
00000140: 9ebd 5abe ba83 56be 4678 dabd 9042 36be
00000150: 66d0 ccbd b9ad c2bd ee40 94bd dd83 94bd
00000160: c97c 98bd 1859 50bd 3057 0ebe e2c8 e3bc
00000170: 41f7 49be fa15 1cbe 37cd 1bbe 745c ccbd
00000180: ba3b 5dbe 5b43 16be 394d 28be 0c0a d3bc
00000190: b303 afbd f3a3 15be c035 223d b7d5 7e3d
000001a0: cfc7 fdba 98bf 1dbe 3b3c 34be 0379 1ebd
000001b0: d335 23be f4b6 0b3c 4687 2fbd 5777 11bd
000001c0: d2cf c7bd c9d5 16bd d43a d2bd a97c 07be
000001d0: c88a e3bd 1783 363d 26af cbbd a1be 9cbd
000001e0: e99e 48be 9fdf e4bd d630 a2bd e086 2cbe
000001f0: fe8d 48be 1837 223d 060c 51be 728c b6bc
00000200: 149d d43d 458d a43d 4e52 863d f4fe 77bd
00000210: b577 893d b60c 14be 4c80 8cbd 5a40 99bd
00000220: 4872 523d 932a 153b 35f3 02bd 7512 e23d
00000230: 4420 34bd da38 9f3d d565 cd3d ea78 f73b
00000240: 2a08 0e3d 1c11 0cbd a559 863a bebb 1cbe
00000250: efef 2a3d f6ae 28bc 69e1 583d 28e4 14bd
00000260: 0903 06bd e909 763c de0e 833d 0d3e 84bd
00000270: 36b5 f73c 8dc4 d6bc 5b05 1dbd a3c7 dc3d
00000280: 9b58 0a3e 2aad ba3d c2c9 8a3d 885b 213d
00000290: f780 74bd 8296 103e c4ab a03d 6964 4c3d
000002a0: 216a d23d c233 8ebd 8a8c 943d 9f89 d8bc
000002b0: 06c9 e4bc 37ba 2fbd b36c 2abd 49c2 35bd
000002c0: b9c9 8e3c 892a 983c bc19 543d 84c2 bc3d
000002d0: a680 d03d 96e8 453d 89c6 f53c 4a0e a53d
000002e0: dcae 143e 3850 4bbd 0b66 5a3d 93c2 eebd
000002f0: fd87 b1bd 4b46 97bd e509 ad3d 1096 cabd
00000300: c22d 043e d930 84bc 8db5 82bb 5992 693d
00000310: 0438 acbc bc00 9ebd b143 bfbc 1291 92bd
00000320: d56e 453c ac08 3b3e 30c0 1b3d 3801 abbd
00000330: 1ad8 01bd 3c31 a13b 9833 233e 2985 413e
00000340: becb 2b3a 171c a8bd 14d4 18be 9378 993d
00000350: 57fc e93c c61c 19be 476f aabd 44dd 7c3d
00000360: dd7b 363d 91ba ae3d 3c71 b4bd d4c0 9cbc
00000370: 8fc2 96bc 3208 fabd 1eaf 8cbd 1e5b 5abb
00000380: 146d 463e eda3 4d3d c854 ba3d e8ef f4bb
00000390: f5d2 3ebd ab25 e83c 102a 28be 6d81 053d
000003a0: fe16 1dbe f61a 11be a744 893c fcd9 39bd
000003b0: cc44 983c 4f37 24bd 714a 57bd 9418 fabd
000003c0: e812 32bd 5628 95bd f401 173c 34b0 d5bd
000003d0: 5e7e cd3a ed1c a9bd 3178 35be 29d1 823d
000003e0: 04e8 ec3d 5f00 d93d 6bdc c4bd a8c5 ccbd
000003f0: 4425 8d3d f7b4 05be 1bd6 2abe 8e14 fdbd

lstm.bias_hh_l0 f4 [256]
-0.071792446 0.03682016 -0.13647078 0.007678817 -0.1430562 0.05988644 0.0070094434 0.07742758
-0.08135391 0.13602544 0.02437055 0.012998685 -0.14227489 -0.09553496 -0.017098531 0.15185934
-0.14351952 0.029031966 -0.13673694 0.1477944 -0.18451872 -0.0067171473 0.068896614 0.0022404427
-0.19193959 0.047738135 -0.16384555 0.09309264 -0.16779172 -0.0044380077 0.12136077 -0.07874696
0.2197047 -0.06652928 0.047495343 0.051107064 -0.07465647 -0.008829219 0.0049022906 -0.09254153
-0.0051959143 -0.14974202 0.074174814 0.11680519 -0.02453522 0.03302025 -0.1048542 -0.060543455
-0.118031755 -0.16074474 -0.12592685 -0.106726214 -0.16183586 -0.14756249 -0.21601014 0.001990654
-0.000109822235 -0.06923379 -0.06819052 -0.05472706 -0.11444454 -0.16152161 -0.094147004 -0.16736281
-0.19365762 -0.13838041 -0.15715319 -0.1456112 -0.0611592 -0.008753838 -0.038110137 -0.122638404
-0.10926922 -0.17594627 -0.13173215 -0.0723628 -0.059687577 0.049855884 -0.08536947 -0.13842672
-0.13039634 0.0036824464 -0.09775846 -0.025699582 -0.10246214 -0.072389 -0.20319696 -0.04725216
-0.2165366 -0.024189703 -0.16351563 -0.054944042 -0.08305997 -0.058191422 -0.1501555 -0.0980923
-0.2275565 0.0011714379 -0.24051161 -0.05308903 -0.13233013 -0.08517398 -0.18624613 0.020589065
-0.03498141 0.049847018 0.02381562 -0.010268971 -0.22235386 -0.11303387 0.04234907 -0.12143257
-0.10434389 -0.036863588 0.002416307 0.02274323 -0.1661433 -0.113313764 -0.037196044 -0.22560763
-0.25458598 -0.096157335 -0.08456963 -0.19065788 -0.16628298 0.027722176 0.014028199 -0.11378786
0.097102344 0.07927329 -0.10371554 0.05759798 -0.097209744 0.021661362 -0.050465804 0.14060837
-0.14622195 -0.065282114 0.056007568 0.08284547 0.010164782 -0.091326535 -0.007488078 0.060645927
-0.09396802 -0.049642533 0.004681295 -0.034895618 0.035789397 -0.07419381 -0.05836106 -0.046104476
-0.06499149 -0.10633882 0.06068902 -0.022247968 -0.046002347 -0.03737815 -0.05003692 -0.105702184
-0.005230252 -0.0086499965 0.022134626 -0.041499898 0.14176992 -0.045855656 0.01996148 0.08651201
-0.0470064 -0.07696256 -0.031754125 0.062250633 0.07902873 -0.032735046 0.0875697 0.009109913
0.054714877 0.05041908 -0.08509592 0.024740739 -0.09143846 0.02360633 -0.08526557 0.100670025
0.016737936 0.08725632 0.04573742 0.041732084 0.04214254 0.10766614 -0.057536785 -0.03159544
-0.042277485 -0.01728676 -0.03819618 0.025232645 -0.044221148 -0.060172036 0.07124855 0.003850172
-0.1495763 0.053070765 0.05728107 -0.16908257 -0.16732463 -0.14046513 -0.013321986 0.15573181
-0.077856384 -0.06926001 -0.023070963 0.017458435 -0.033033036 -0.17670462 -0.10897135 -0.1552809
-0.14092644 -0.0747232 -0.10197647 0.049247827 -0.14500187 -0.15357922 -0.03952261 0.053493753
0.18498498 -0.19134201 0.087694794 -0.00415289 -0.044419426 -0.033095393 0.021938412 -0.13078211
-0.12570879 0.037747726 -0.14751936 0.06321175 -0.08340553 -0.13784029 0.030410854 0.04977951
0.085637435 -0.03733311 -0.032524787 0.07129422 -0.12687287 -0.024373759 -0.03238876 0.057786327
-0.008848571 -0.040721003 -0.145192 -0.0027337794 0.044173677 -0.17850001 0.006161744 -0.055298317
00000000: eb07 93bd bcd0 163d ffbe 0bbe 969e fb3b
00000010: 537d 12be 7c4b 753d 79af e53b 5a92 9e3d
00000020: e19c a6bd 414a 0b3e bfa4 c73c 70f8 543c
00000030: 82b0 11be d5a7 c3bd 3812 8cbc 0481 1b3e
00000040: c8f6 12be 72d4 ed3c c504 0cbe 6a57 173e
00000050: 7af2 3cbe 841b dcbb ab19 8d3d 64d4 123b
00000060: d08b 44be 1089 433d 21c7 27be 5ba7 be3d
00000070: 98d1 2bbe b56c 91bb ff8b f83d 1646 a1bd
00000080: 45fa 603e 8140 88bd 7a8a 423d a455 513d
00000090: 7ee5 98bd 6ea8 10bc 65a3 a03b 6a86 bdbd
000000a0: 7d42 aabb f955 19be f7e8 973d 8f37 ef3d
000000b0: 16fe c8bc 3e40 073d ccbd d6bd 6afc 77bd
000000c0: a2ba f1bd 459a 24be f8f2 00be 4693 dabd
000000d0: 4db8 25be 9f1a 17be c331 5dbe a275 023b
000000e0: 5d50 e6b8 72ca 8dbd 79a7 8bbd 7b29 60bd
000000f0: e661 eabd ec65 25be 25d0 c0bd 2861 2bbe
00000100: 2f4e 46be 98b3 0dbe c4ec 20be 1a1b 15be
00000110: 1282 7abd 426c 0fbc 6019 1cbd d829 fbbd
00000120: 8ac8 dfbd 422b 34be cbe4 06be f332 94bd
00000130: f67a 74bd af35 4c3d 30d6 aebd bcbf 0dbe
00000140: 9e86 05be 3355 713b 9635 c8bd ee87 d2bc
00000150: acd7 d1bd af40 94bd dd12 50be 7b8b 41bd
00000160: c5bb 5dbe 7c29 c6bc a470 27be 010d 61bd
00000170: 581b aabd 215a 6ebd 5dc2 19be 9ee4 c8bd
00000180: 9204 69be ef8a 993a ad48 76be e273 59bd
00000190: 8d81 07be b26f aebd 4eb7 3ebe 66aa a83c
000001a0: ab48 0fbd 632c 4c3d fa18 c33c 303f 28bc
000001b0: bbb0 63be 4d7e e7bd 3876 2d3d a4b1 f8bd
000001c0: 40b2 d5bd 46fe 16bd e85a 1e3b 0350 ba3c
000001d0: 7821 2abe 0c11 e8bd e15a 18bd b005 67be
000001e0: 1859 82be 23ee c4bd d832 adbd d23b 43be
000001f0: 1646 2abe 9e19 e33c 88d6 653c 9c09 e9bd
00000200: 98dd c63d 095a a23d d068 d4bd dceb 6b3d
00000210: e715 c7bd 2b73 b13c 3bb5 4ebd a4fb 0f3e
00000220: 35bb 15be a1b2 85bd 3168 653d e3aa a93d
00000230: 308a 263c 6809 bbbd 8d5e f5bb dd67 783d
00000240: 4e72 c0bd f855 4bbd 8c65 993b b5ee 0ebd
00000250: e797 123d edf2 97bd 020c 6fbd 0cd8 3cbd
00000260: 421a 85bd 2bc8 d9bd 0d95 783d 5f41 b6bc
00000270: f56c 3cbd d519 19bd 83f3 4cbd 637a d8bd
00000280: 8962 abbb b7b8 0dbc ad53 b53c ccfb 29bd
00000290: 222c 113e 24d3 3bbd 4286 a33c 352d b13d
000002a0: c889 40bd 8c9e 9dbd 9d10 02bd 85fa 7e3d
000002b0: d1d9 a13d 2f15 06bd be57 b33d bf41 153c
000002c0: b51c 603d 3d84 4e3d c546 aebd 17ad ca3c
000002d0: 1644 bbbd 1062 c13c b79f aebd 162c ce3d
000002e0: ff1d 893c 71b3 b23d 2957 3b3d 43ef 2a3d
000002f0: a89d 2c3d 1180 dc3d b1ab 6bbd 386a 01bd
00000300: 282b 2dbd f79c 8dbc 9973 1cbd b1b4 ce3c
00000310: 3c21 35bd f476 76bd c3ea 913d 2b53 7c3b
00000320: 882a 19be bb60 593d 8e9f 6a3d fb23 2dbe
00000330: 2657 2bbe 17d6 0fbe 7644 5abc 2978 1f3e
00000340: 2b73 9fbd 31d8 8dbd 51ff bcbc fe04 8f3c
00000350: a64d 07bd 0ef2 34be 5f2c dfbd f501 1fbe
00000360: 054f 10be 7a08 99bd 0ad9 d0bd 17b8 493d
00000370: 5f7b 14be df43 1dbe 76e2 21bd 441c 5b3d
00000380: b46c 3d3e 29ef 43be 5499 b33d f714 88bb
00000390: 25f1 35bd 098f 07bd 2fb8 b33c bfeb 05be
000003a0: ceb9 00be 5c9d 1a3d 510f 17be 2975 813d
000003b0: 85d0 aabd 0126 0dbe 2f20 f93c 99e5 4b3d
000003c0: ae62 af3d 9aea 18bd b638 05bd b402 923d
000003d0: f6ea 01be 7aab c7bc 14aa 04bd 5bb1 6c3d
000003e0: 99f9 10bc 11cb 26bd 36ad 14be 3529 33bb
000003f0: 75ef 343d b5c8 36be 74e8 c93b 7d80 62bd

lstm.weight_ih_l0_reverse f4 [256, 6]
0.10065639 0.0075092805 0.03354757 0.0035398093 0.051832266 0.097340025 -0.05718809 -0.024692494
0.012430343 -0.032054774 0.10059173 0.056997765 0.08289192 -0.081528544 -0.04127934 -0.04060192
-0.0153010385 -0.003259884 -0.0026758902 0.01812977 0.010855922 0.0423091 -0.15026248 0.12101573
0.21207562 -0.07858037 -0.016094256 -0.14330676 0.06663818 0.09108171 -0.022036681 -0.11458123
0.010761065 0.05665889 0.015792854 0.02049888 0.048178215 -0.08782042 -0.21632054 0.059011895
0.13602921 0.04888956 0.1165091 0.30742028 0.0881838 0.115704454 -0.17362031 0.18862413
0.24832556 0.23246187 0.13333625 0.068537675 -0.16221261 0.13271412 0.027475273 0.008492726
-0.026634663 -0.11233678 0.0061420347 0.090894386 0.21174425 0.052924395 -0.0034790987 -0.07040134
0.12933013 0.06849257 0.022341901 -0.13005263 -0.048395004 0.08615235 -0.090801574 0.00046049798
0.15855832 -0.0926194 -0.10339371 -0.06475575 0.094742425 -0.05639619 0.1990676 -0.010009255
0.06855621 -0.018243125 0.011961502 -0.025458481 0.17863843 -0.04167213 -0.14600174 0.024609657
-0.008013861 0.0224885 0.1727652 -0.0584428 0.073099956 -0.14254527 0.06562588 -0.0030747843
0.16834182 0.018058768 -0.075584516 -0.027270533 0.11738565 0.043988634 -0.004198704 -0.18313468
0.020241572 -0.19952127 0.06480135 -0.069670975 0.105774455 -0.085486606 -0.052465975 -0.018900117
0.015548986 0.001552968 0.2727736 0.46265578 0.025504634 0.1413485 -0.15306213 0.10411176
0.15248549 0.047846407 -0.029292358 0.053933907 0.044475533 0.030864578 0.16117097 -0.19680591
-0.11200618 -0.05195017 0.10562594 -0.08182536 0.18510334 -0.06344269 0.07305493 -0.07698892
0.105748296 0.12066935 0.14642379 -0.051711164 -0.1572658 0.035075642 -0.088219106 -0.033920273
0.03465741 -0.08800466 -0.022925694 -0.1125814 0.064305075 0.029891813 -0.059373837 -0.17272076
0.040677004 0.020495975 0.03280393 -0.039820008 0.20998214 0.3650861 -0.01757679 -0.024974268
-0.19992839 0.13580847 0.08405339 0.16898653 0.086909935 0.15325996 -0.10325332 0.07876519
0.16108914 0.07242315 -0.15552416 0.016619476 -0.066577 -0.09321 0.073163845 -0.023100393
0.028686242 -0.038089614 -0.09065805 -0.1315004 0.09356197 -0.0013192294 -0.013242936 0.061245266
0.091964945 -0.019672055 0.055598777 -0.19361962 -0.09127533 -0.15880172 0.029774696 0.0140998205
0.14792322 0.3078452 0.19083378 0.08496964 0.024896558 0.03270009 0.2461733 0.02726857
-0.069220744 0.03901838 0.108417735 0.06842845 -0.05782893 -0.16326681 -0.1057471 -0.09253231
0.10547814 0.0071573714 -0.08632981 0.004245375 -0.078769095 -0.023923092 0.050756432 -0.056995094
-0.014206159 -0.035916466 -0.14758499 0.05751767 -0.0005680645 0.121698864 0.13816424 -0.033715814
-0.032487974 -0.036200784 0.060465988 0.1344963 0.26374987 0.18478574 0.059632186 0.17555507
-0.014402191 0.12670799 0.0595008 -0.006666021 -0.14114821 -0.01785438 0.06359179 0.00928201
0.022404948 -0.16476823 0.06676668 -0.034261398 0.0005929 -0.056237917 0.18429595 0.07239294
-0.0014284409 0.0762288 0.056896836 0.19760431 0.21552442 0.2891462 0.17823088 0.118213154
00000000: f024 ce3d 6910 f63b 2d69 093d 25fc 673b
00000010: 124e 543d 355a c73d 0f3e 6abd ea47 cabc
00000020: a3a8 4b3c de4b 03bd 0903 ce3d 7d76 693d
00000030: 3dc3 a93d 70f8 a6bd 8614 29bd 334e 26bd
00000040: 35b1 7abc c7a3 55bb fd5d 2fbb e284 943c
00000050: 09dd 313c 4f4c 2d3d 68de 19be 18d7 f73d
00000060: 5a2a 593e bfee a0bd 1ad8 83bc 02bf 12be
00000070: 9979 883d 0c89 ba3d 4586 b4bc 90a9 eabd
00000080: 2e4f 303c 2713 683d 0460 813c 44ed a73c
00000090: 8556 453d 31db b3bd 2283 5dbe 75b6 713d
000000a0: 3e4b 0b3e 6b40 483d 539c ee3d 3166 9d3e
000000b0: b599 b43d 75f6 ec3d 86c9 31be af26 413e
000000c0: 0e49 7e3e 7c0a 6e3e 4c89 083e 7b5d 8c3d
000000d0: 101b 26be 36e6 073e d313 e13c 1325 0b3c
000000e0: f030 dabc d310 e6bd 1f43 c93b d626 ba3d
000000f0: 7cd3 583e 40c7 583d 9701 64bb 942e 90bd
00000100: 1e6f 043e d545 8c3d 5d06 b73c 842c 05be
00000110: d739 46bd a570 b03d 2df6 b9bd fe6e f139
00000120: 1d5d 223e 3daf bdbd 15c0 d3bd aa9e 84bd
00000130: 5108 c23d b1ff 66bd 60d8 4b3e dcfd 23bc
00000140: 3367 8c3d 9b72 95bc 2dfa 433c 4e8e d0bc
00000150: feec 363e 65b0 2abd 7b81 15be 319a c93c
00000160: 924c 03bc ce39 b83c 5ce9 303e b861 6fbd
00000170: 6eb5 953d 63f7 11be dd66 863d 5282 49bb
00000180: cc61 2c3e fbef 933c 0ecc 9abd 7466 dfbc
00000190: e367 f03d 6d2d 343d 4895 89bb a887 3bbe
000001a0: a7d1 a53c 4e4f 4cbe 92b6 843d a8af 8ebd
000001b0: 47a0 d83d 9a13 afbd 90e6 56bd 6bd4 9abc
000001c0: 2dc1 7e3c f68c cb3a fba8 8b3e 38e1 ec3e
000001d0: 18ef d03c a9bd 103e 52bc 1cbe 8c38 d53d
000001e0: 2825 1c3e 98fa 433d 87f6 efbc cde9 5c3d
000001f0: fa2b 363d b6d7 fc3c 010a 253e 7d87 49be
00000200: 7f63 e5bd b4c9 54bd 6a52 d83d 0e94 a7bd
00000210: bb8b 3d3e 3eee 81bd d39d 953d 5eac 9dbd
00000220: 9092 d83d 7e21 f73d 1ef0 153e 16cf 53bd
00000230: 490a 21be 7aab 0f3d 38ac b4bd fcef 0abd
00000240: eef4 0d3d ca3b b4bd aace bbbc 1491 e6bd
00000250: 61b2 833d addf f43c fb31 73bd b6dd 30be
00000260: ee9c 263d 2de7 a73c 6a5d 063d 4e1a 23bd
00000270: 8f05 573e 91ec ba3e 33fd 8fbc d696 ccbc
00000280: 07ba 4cbe 6011 0b3e 2f24 ac3d ce0a 2d3e
00000290: d6fd b13d 2ef0 1c3e 7a76 d3bd a54f a13d
000002a0: 8df4 243e 9752 943d ba41 1fbe 9125 883c
000002b0: 8659 88bd e2e4 bebd edd6 953d 093d bdbc
000002c0: 69ff ea3c db03 1cbd edaa b9bd 0aa8 06be
000002d0: 6b9d bf3d fee9 acba e6f8 58bc 51dc 7a3d
000002e0: 1e58 bc3d 4a27 a1bc 8bbb 633d 3944 46be
000002f0: 8fee babd eb9c 22be 10ea f33c ef02 673c
00000300: 2f79 173e e39d 9d3e ee69 433e 9004 ae3d
00000310: def3 cb3c 88f0 053d db14 7c3e 5662 df3c
00000320: 9bc3 8dbd bdd1 1f3d 1e0a de3d 3724 8c3d
00000330: 07de 6cbd 6a2f 27be f091 d8bd 9481 bdbd
00000340: ec04 d83d 6288 ea3b afcd b0bd c91c 8b3b
00000350: b151 a1bd 5cfa c3bc fae5 4f3d b073 69bd
00000360: f3c0 68bc 251d 13bd 8520 17be a697 6b3d
00000370: 2aea 14ba 413d f93d ed7a 0d3e 9819 0abd
00000380: 1c12 05bd 4647 14bd 2fab 773d 66b9 093e
00000390: 390a 873e 7938 3d3e e140 743d b5c4 333e
000003a0: 2bf7 6bbc bdbf 013e 1cb7 733d a36e dabb
000003b0: 2889 10be 5943 92bc 6a3c 823d 9213 183c
000003c0: 958a b73c 01b9 28be f8bc 883d ae55 0cbd
000003d0: d86c 1b3a bb59 66bd 14b8 3c3e c042 943d
000003e0: 863a bbba d81d 9c3d a80c 693d c958 4a3e
000003f0: 6fb2 5c3e f90a 943e 2882 363e bd19 f23d

lstm.weight_hh_l0_reverse f4 [256, 64]
0.1714689 0.0027828491 -0.04991294 0.13907623 -0.017273558 0.03638338 -0.099187 -0.19559102
0.12880793 -0.15578248 -0.02544169 -0.19189936 0.03614103 -0.06424188 0.0023377058 -0.022187082
0.042829223 0.106231295 -0.0014354028 0.0010894976 0.10612063 -0.09775527 -0.1381242 0.115135655
-0.102166906 -0.024072383 0.075918294 -0.004545827 -0.027176369 -0.06316587 0.077202745 0.09730347
-0.049069718 0.08659255 0.025472017 -0.06711588 0.010348504 -0.086127825 -0.019900855 0.010092142
-0.0036890905 0.11369302 0.019463537 -0.057445686 -0.0069343764 -0.025910003 -0.07371647 -0.03793924
0.07277382 -0.007821261 0.036636945 -0.08068495 -0.0076866816 0.028783698 -0.0074145165 0.0833084
-0.05115937 0.18659855 -0.052068137 -0.14398874 0.0077199843 0.097430125 0.07307067 -0.06501241
0.12431297 0.054747373 0.12494153 -0.059517223 -0.07381635 0.047056545 -0.08604789 0.022859419
-0.02150342 -0.032469366 0.16363509 -0.08240667 0.17390293 -0.0864391 0.114322536 -0.031680435
0.0002563631 0.020406527 0.10560389 -0.09648417 -0.056003667 0.0147437975 -0.06977152 0.034000196
0.09099468 0.031749416 0.013932934 -0.042913392 0.03982384 0.026973493 0.064795755 -0.010529907
0.0016819503 -0.03938372 -0.026638899 -0.028441893 -0.110078394 -0.084312014 0.0189754 -0.066051975
0.0056322264 -0.03022607 0.095127776 0.104492836 0.052648567 -0.08026156 -0.103289716 -0.12717655
-0.1126864 0.08017419 0.15926233 -0.10469708 0.012853245 -0.01644309 0.08999685 -0.093729086
-0.06464822 -0.08919647 0.124356866 -0.047767628 -0.054785464 -0.0884923 0.069645315 -0.037402727
-0.080259584 -0.01841826 -0.011256263 0.092827946 0.017247038 0.0971703 -0.10559389 0.04935859
0.062356796 -0.10405532 -0.011107532 0.077493355 -0.047018025 -0.04394237 -0.007442416 0.09115098
0.02892259 -0.09229229 -0.08160444 0.04711258 0.05802835 0.08516889 -0.04379213 -0.06365123
-0.07900167 -0.08415946 0.007964164 -0.10545135 0.011984501 0.096778326 0.04045646 -0.06202043
0.031336702 0.00280879 0.03939623 -0.062258307 -0.12619068 0.13359077 -0.094196334 0.029407108
-0.039707635 -0.03882431 0.00538518 -0.006394729 0.024332112 0.10350388 0.08554987 0.09357038
-0.017323025 0.02867749 -0.08415817 0.0802738 -0.06599532 0.08312447 0.12716283 0.049590223
0.022771092 -0.097550035 -0.03468194 0.09848356 0.09885744 -0.098470375 0.11607329 -0.09210203
0.08536969 0.04702627 -0.046614185 -0.067426465 -0.08444933 -0.066912495 -0.035176042 0.10915897
-0.002736258 -0.10616802 -0.03680411 0.08571425 0.086460225 0.043317467 -0.060997255 -0.04696055
0.089876704 -0.08135718 0.043286268 0.054443657 -0.06331159 -0.119160675 -0.08977107 0.0827551
0.049148344 -0.073010385 0.04356468 -0.09307795 -0.10056311 0.028585076 -0.049290597 0.11027044
-0.06608946 -0.03691378 0.0019074087 0.09782906 0.0042235665 -0.08537148 -0.0014487216 0.02237432
0.09326008 0.056520868 -0.009839751 0.077069 0.056259688 -0.00870646 -0.06605518 0.060761712
-0.055516116 0.11030571 0.073044 -0.10386688 -0.11441922 0.029658528 0.063933976 0.055975456
0.1127947 0.09710973 -0.061282218 -0.030079596 -0.11784295 -0.09566815 0.063674256 -0.07754651
00000000: 8b95 2f3e 7660 363b 8371 4cbd 006a 0e3e
00000010: 4781 8dbc bd06 153d 8e22 cbbd 0349 48be
00000020: 3ae6 033e 7185 1fbe 176b d0bc 4481 44be
00000030: 9e08 143d 3f91 83bd 3234 193b afc1 b5bc
00000040: b26d 2f3d cb8f d93d 2024 bcba 79cd 8e3a
00000050: c655 d93d ea33 c8bd 6e70 0dbe 3ecc eb3d
00000060: e23c d1bd 7233 c5bc 0d7b 9b3d 29f5 94bb
00000070: faa0 debc 1c5d 81bd 791c 9e3d 0b47 c73d
00000080: 54fd 48bd 6f57 b13d b1aa d03c 0d74 89bd
00000090: c68c 293c c963 b0bd 1e07 a3bc 8359 253c
000000a0: abc4 71bb e3d7 e83d ff71 9f3c 2b4c 6bbd
000000b0: c439 e3bb 3741 d4bc a9f8 96bd 2d66 1bbd
000000c0: 710a 953d bf24 00bc 9f10 163d 273e a5bd
000000d0: 8fe0 fbbb cacb eb3c 79f5 f2bb 989d aa3d
000000e0: 7d8c 51bd b113 3f3e 6645 55bd c971 13be
000000f0: ecf7 fc3b 7289 c73d 13a6 953d 3a25 85bd
00000100: cc97 fe3d c83e 603d 58e1 ff3d 55c8 73bd
00000110: 072d 97bd 5dbe 403d e039 b0bd ad43 bb3c
00000120: f127 b0bc 99fe 04bd f58f 273e d4c4 a8bd
00000130: 9c13 323e fc06 b1bd ef21 ea3d 58c3 01bd
00000140: 7968 8639 972b a73c da46 d83d 7e99 c5bd
00000150: 1a64 65bd f88f 713c 5fe4 8ebd ca43 0b3d
00000160: 6b5b ba3d ad0b 023d f646 643c f4c5 2fbd
00000170: 531e 233d 84f7 dc3c a3b3 843d a285 2cbc
00000180: e374 dc3a d350 21bd d239 dabc f9fe e8bc
00000190: c870 e1bd c7ab acbd 4c72 9b3c 4246 87bd
000001a0: 8a8e b83b aa9c f7bc 5ad2 c23d 5700 d63d
000001b0: 06a6 573d 2c60 a4bd 8f89 d3bd 923a 02be
000001c0: 21c8 e6bd 5e32 a43d aa15 233e 6c6b d6bd
000001d0: 6b96 523c a9b3 86bc 4550 b83d 09f5 bfbd
000001e0: 4966 84bd a4ac b6bd d0ae fe3d fda7 43bd
000001f0: b966 60bd 733b b5bd 34a2 8e3d 9a33 19bd
00000200: 235f a4bd e4e1 96bc 306c 38bc 941c be3d
00000210: a949 8d3c 3901 c73d 9c41 d8bd 3c2c 4a3d
00000220: d769 7f3d f51a d5bd 5efc 35bc d6b4 9e3d
00000230: f995 40bd eafc 33bd 83df f3bb 5dad ba3d
00000240: 11ef ec3c bd03 bdbd 3b20 a7bd 1ff9 403d
00000250: 23af 6d3d 076d ae3d 605f 33bd 935b 82bd
00000260: a1cb a1bd cc5b acbd 207c 023c e1f6 d7bd
00000270: a45a 443c b733 c63d acb5 253d 2209 7ebd
00000280: ea5a 003d ad13 383b f15d 213d 9102 7fbd
00000290: 2138 01be 05cc 083e 02ea c0bd 2de7 f03c
000002a0: 79a4 22bd 3d06 1fbd 2a76 b03b e08a d1bb
000002b0: 2354 c73c d8f9 d33d c534 af3d d4a1 bf3d
000002c0: 04e9 8dbc 0eed ea3c 1e5b acbd 9766 a43d
000002d0: 8e28 87bd 2a3d aa3d f936 023e 1e1f 4b3d
000002e0: 718a ba3c 50c8 c7bd a60e 0ebd c0b1 c93d
000002f0: c575 ca3d d6aa c9bd d5b7 ed3d fd9f bcbd
00000300: 4ed6 ae3d 9e9e 403d 84ee 3ebd e316 8abd
00000310: c5f3 acbd 6b09 89bd c114 10bd bd8e df3d
00000320: cb52 33bb 9e6e d9bd e8bf 16bd f48a af3d
00000330: 0f12 b13d a86d 313d 42d8 79bd b559 40bd
00000340: 4711 b83d 989e a6bd f14c 313d 5000 5f3d
00000350: 82a9 81bd 830a f4bd e5d9 b7bd 827b a93d
00000360: c64f 493d 7886 95bd e170 323d a79f bebd
00000370: 08f4 cdbd 402b ea3c f0e4 49bd 78d5 e13d
00000380: e959 87bd e732 17bd 0402 fa3a 9a5a c83d
00000390: d865 8a3b 3ed7 aebd 08e3 bdba 5a4a b73c
000003a0: 24ff be3d 6d82 673d e836 21bc 5ad6 9d3d
000003b0: 8f70 663d 8aa5 0ebc f047 87bd 46e1 783d
000003c0: de64 63bd f6e7 e13d 1898 953d 29b8 d4bd
000003d0: a054 eabd 71f6 f23c d1ef 823d 8546 653d
000003e0: e800 e73d 77e1 c63d 1003 7bbd 7c69 f6bc
000003f0: a557 f1bd aaed c3bd a667 823d b4d0 9ebd

lstm.bias_ih_l0_reverse f4 [256]
-0.02416232 -0.08160619 0.116373785 -0.12300421 -0.06282422 -0.079121985 -0.018377755 0.20451574
0.16948588 -0.12757525 -0.17667222 -0.0034108078 -0.06868552 0.05172371 -0.09859574 -0.023403456
-0.035520054 0.02251788 -0.2058696 0.3055691 -0.13381775 -0.11706401 -0.040267285 -0.051929615
-0.0748231 -0.039171144 0.16945446 0.03908019 0.02790717 -0.057708587 -0.009701597 -0.17095245
0.20524772 0.010605104 -0.10024792 -0.16967803 0.007786287 -0.07987733 0.014553149 -0.067087986
-0.008462859 0.09253505 0.015518533 -0.13510668 -0.156455 -0.11377463 0.021588633 0.007386821
0.06610601 0.026979052 -0.022587093 -0.040045615 -0.04933863 -0.11788848 0.10284068 -0.02310997
-0.0565254 -0.09744741 -0.018578302 0.06417627 0.011241584 -0.06029458 -0.034043934 -0.08018698
-0.14369512 0.046326406 0.004134147 -0.16325624 -0.1890479 0.04690335 -0.17046116 -0.067558065
-0.28812274 -0.16767712 -0.16243689 -0.17207512 -0.23200521 -0.18359725 0.027939405 -0.04371344
-0.07638811 -0.13901566 -0.10679935 -0.20016459 -0.003377778 0.042747017 -0.18863869 -0.11727214
0.065488346 0.0418917 -0.10068668 -0.006056928 0.013000558 -0.061820254 -0.14479066 -0.13103136
-0.07069391 -0.021769172 -0.005830941 0.05596564 -0.040703706 -0.011499896 -0.2690571 0.02809574
0.046587292 -0.0066156522 -0.12122931 0.0024334854 -0.027732274 0.036716692 -0.09391715 -0.13772841
0.005021149 -0.11483239 -0.16758625 0.021329893 -0.0722988 0.034697462 0.038803928 -0.0014441371
-0.031265344 -0.14469458 -0.1755638 -0.18302499 -0.14513284 -0.1031909 0.0076003745 0.06379042
-0.09978088 0.09659086 -0.027745916 -0.025458349 0.001285811 -0.066542424 0.040796805 -0.010439348
0.1486115 -0.0826165 0.07790189 0.05362598 0.041832957 -0.018617637 -0.035183344 -0.06698679
-0.022333661 -0.036293726 0.049919847 0.034597453 -0.05241772 0.044847067 0.06005503 0.03640439
-0.019839516 0.019556683 -0.12347762 0.012556256 0.04332251 -0.09548256 0.11106929 0.06003249
0.066672415 -0.035558306 -0.058185037 -0.011002694 0.06454505 0.009399457 0.03568284 -0.032517936
-0.14067002 -0.07361 0.05891162 0.022746908 -0.04427572 -0.037561864 0.098736994 -0.016239196
0.039108865 0.041590057 0.12376867 0.06986932 0.046534617 -0.042940754 0.040338468 -0.004953962
-0.03210058 0.0036789423 0.062310986 0.09121862 0.074110344 -0.015596263 0.028996805 -0.08451467
-0.13610554 0.07632975 -0.029699778 0.06628939 0.027884025 -0.07543378 -0.12405038 0.2663952
0.17558421 0.04442933 0.058127243 0.023691341 0.028940523 -0.031068372 -0.18015215 -0.13570033
-0.0315606 -0.14159347 0.00555239 0.17285241 0.05555145 -0.16426902 0.10717228 -0.023915123
-0.10853213 -0.080952026 0.14549197 0.016723102 -0.0677279 0.038871944 -0.07216426 -0.086303815
-0.015205094 -0.1152298 -0.1418152 -0.04089098 -0.10547778 -0.09593248 0.13615799 -0.1437379
-0.21064454 -0.08464658 0.21523479 0.02902102 -0.18346892 -0.03997894 -0.07915414 -0.16433409
-0.058629576 -0.054315872 0.091760844 -0.013225476 -0.04376216 -0.12791261 -0.010574098 -0.004791601
-0.11594377 -0.1283742 -0.084357664 0.042351045 -0.10248669 -0.058019135 0.04146374 -0.17951208
00000000: 0ff0 c5bc 2521 a7bd 6155 ee3d a2e9 fbbd
00000010: fca9 80bd b50a a2bd f28c 96bc 936c 513e
00000020: b58d 2d3e 16a3 02be 90e9 34be dc87 5fbb
00000030: feaa 8cbd 3edc 533d 90ec c9bd 9bb8 bfbc
00000040: 7a7d 11bd 6b77 b83c 7bcf 52be 8e73 9c3e
00000050: 8507 09be 41bf efbd 4fef 24bd 26b4 54bd
00000060: da3c 99bd ec71 20bd 7885 2d3e 8d12 203d
00000070: 949d e43c d75f 6cbd 72f3 1ebc 290e 2fbe
00000080: 752c 523e 08c1 2d3c c84e cdbd 14c0 2dbe
00000090: 1c24 ff3b ba96 a3bd 5570 6e3c 6d65 89bd
000000a0: cea7 0abc 0483 bd3d 7241 7e3c 6859 0abe
000000b0: bd35 20be ac02 e9bd a5da b03c 250d f23b
000000c0: 9662 873d 2c03 dd3c 9108 b9bc df06 24bd
000000d0: 4e17 4abd 846f f1bd 229e d23d 1f51 bdbc
000000e0: 2e87 67bd 8292 c7bd 8631 98bc d96e 833d
000000f0: 9f2e 383c 73f7 76bd a771 0bbd 1239 a4bd
00000100: d024 13be c2c0 3d3d bd77 873b a52c 27be
00000110: c695 41be ba1d 403d 5f8d 2ebe e25b 8abd
00000120: d384 93be 8db3 2bbe db55 26be 7634 30be
00000130: c692 6dbe eb00 3cbe 2ee1 e43c dd0c 33bd
00000140: 5f71 9cbd 1f5a 0ebe 9eb9 dabd f2f7 4cbe
00000150: b65d 5dbb 7f17 2f3d 802a 41be 602c f0bd
00000160: c11e 863d a296 2b3d d134 cebd 3279 c6bb
00000170: 4b00 553c 3c37 7dbd 0144 14be 162d 06be
00000180: f8c7 90bd 4355 b2bc 7a11 bfbb 3a3c 653d
00000190: eeb8 26bd 0f6a 3cbc dac1 89be 0a29 e63c
000001a0: 51d2 3e3d 1dc8 d8bb 1347 f8bd 1c7b 1f3b
000001b0: cb2e e3bc 3e64 163d a257 c0bd ad08 0dbe
000001c0: 7388 a43b 3e2d ebbd bb9b 2bbe 07bc ae3c
000001d0: 6511 94bd ed1e 0e3d def0 1e3d 3349 bdba
000001e0: 1710 00bd d12a 14be ffc6 33be e76a 3bbe
000001f0: b49d 14be c055 d3bd 900c f93b 8da4 823d
00000200: eb59 ccbd 6ed1 c53d 674b e3bc 078e d0bc
00000210: a888 a83a 6547 88bd 8d1a 273d cd09 2bbc
00000220: 9d2d 183e d732 a9bd 078b 9f3d eaa6 5b3d
00000230: 0959 2b3d 0484 98bc 691c 10bd 5f30 89bd
00000240: 15f5 b6bc bba8 14bd c178 4c3d 0fb6 0d3d
00000250: f7b3 56bd 8fb1 373d 43fc 753d c51c 153d
00000260: 7b86 a2bc 5635 a03c d6e1 fcbd c1b8 4d3c
00000270: f272 313d 5c8c c3bd 4c78 e33d a1e4 753d
00000280: 8c8b 883d 96a5 11bd 6f53 6ebd a544 34bc
00000290: 3230 843d 2e00 1a3c 2b28 123d 8731 05bd
000002a0: cd0b 10be d7c0 96bd 504d 713d b957 ba3c
000002b0: 755a 35bd 78da 19bd 9f36 ca3d 1008 85bc
000002c0: 9e30 203d 565a 2a3d 6e7a fd3d a517 8f3d
000002d0: 159b 3e3d a5e2 2fbd f339 253d d854 a2bb
000002e0: e67b 03bd 691a 713b ce39 7f3d d4d0 ba3d
000002f0: 2ac7 973d 7887 7fbc b58a ed3c 0716 adbd
00000300: 405f 0bbe c652 9c3d f34c f3bc bbc2 873d
00000310: 0a6d e43c 077d 9abd 200e febd f464 883e
00000320: 59cc 333e 87fb 353d d516 6e3d 5814 c23c
00000330: ad14 ed3c 1983 febc ce79 38be 07f5 0abe
00000340: b045 01bd e1fd 10be d3f0 b53b 3900 313e
00000350: eb89 633d 2336 28be 247d db3d a6e9 c3bc
00000360: 1846 debd 2dca a5bd d9fb 143e e3fe 883c
00000370: edb4 8abd 3038 1f3d dbca 93bd 0ec0 b0bd
00000380: c91e 79bc 9afd ebbd 0138 11be 4d7d 27bd
00000390: bc04 d8bd 4078 c4bd 006d 0b3e 0730 13be
000003a0: 34b3 57be 305b adbd 8266 5c3e 7dbd ed3c
000003b0: 47df 3bbe f5c0 23bd 911b a2bd 3247 28be
000003c0: 9125 70bd 527a 5ebd 1ced bb3d abaf 58bc
000003d0: f33f 33bd 86fb 02be fb3e 2dbc dd02 9dbb
000003e0: ed73 edbd 8774 03be b6c3 acbd 4a78 2d3d
000003f0: 8be4 d1bd 79a5 6dbd e2d5 293d 04d2 37be
