src/best_model.pth (torch, 115362 bytes, 10 tensors)

embedding.weight f4 [10, 5]
00000000: d807 edbe 01c8 213f 2c4d a0bf 6b5d 64bf
00000010: d561 d4be d57c 563e 35c3 72be c6b7 c63e
00000020: b093 c73c a981 a53f 6024 823f d6fc a53e
00000030: f3d4 b5bd 942d 59bf 6530 2fbf 7e5d d2bf
00000040: 69eb ffbe 7f32 6ebf f044 60be 63b2 e03f
00000050: 6f09 adbe 8f0a b4bf a8ff 93be 7b73 4a3f
00000060: 03ed 92bd c150 b2bf 0f24 8bbd f571 54be
00000070: 96f8 103e eca3 e0bd f899 3fbf c783 01c0
00000080: 9d84 e63b 81cd 9a3f b6d8 23c0 29de 7dbf
00000090: 8bba edbd 70bb 73be ebe6 c7bd 850c 2cbf
000000a0: 536e 8f3f 122d 19c0 59f2 12c0 bcc1 20be
000000b0: 7d6c a03f 1288 0abe 173f c6bf 94d4 0b3d
000000c0: c1ef 92be 5240 27be
-0.46295047 0.63195807 -1.2523551 -0.89205045 -0.4148089 0.20946057 -0.23707278 0.38812083
0.024362415 1.2930194 1.0167351 0.3241946 -0.088785075 -0.8483517 -0.6843322 -1.6434782
-0.4998429 -0.930458 -0.21901298 1.7554439 -0.3379626 -1.4065722 -0.28905988 0.7908246
-0.07174113 -1.3930894 -0.06793987 -0.20746596 0.14157328 -0.109687656 -0.7484431 -2.023668
0.0070348517 1.2093965 -2.560102 -0.99167114 -0.11607846 -0.2380197 -0.09760841 -0.67206603
1.1205543 -2.3933759 -2.2960417 -0.15698904 1.2533108 -0.13528469 -1.5488003 0.034138277
-0.28698543 -0.1633313

gru.weight_ih_l0 f4 [192, 6]
00000000: 792d 583d 0443 e5bd f244 ac3d 1e2b 8a3d
00000010: 04d7 1cbd a0ab ba3d 3c96 0fbe 9024 36bd
00000020: 2843 e93d 2f92 6fbd 52ea abbd cd62 e3bc
00000030: a200 ae3d 11d6 9cbd 47c8 e8bb 6514 93bd
00000040: 648b 2e3e ba81 12be b622 833d f980 e23d
00000050: 9198 2ebd 1023 e13d 845d 9b3d 9318 da3d
00000060: 44c3 223c 34bd bf3c eaad d5bd b982 90bd
00000070: d830 663c e020 07be 409e 4bbe 7b8f e93d
00000080: 8cab 8d3d 6ddd df3d 1aae c8bc 130e 203d
00000090: b320 303e 3eb0 563d 43ff b03d d146 e43d
000000a0: 7b25 163e 1c89 afbb 6536 ab3c 18fa 9e3d
000000b0: 7cb7 c3bd 8719 cd3c 2b88 ba3c 2cc2 243d
000000c0: d629 593e f6d4 05be 4e9b c73c cf0a 013e
000000d0: 9c71 e2bc 1ddf 55bd 3c1c a2be 61e1 553c
000000e0: 70fb 6b3d 2c36 1ebd c2e6 e1bd 7b1d f13d
000000f0: 359e 8b3d 052e 2a3e cc86 f5bc cbad 413c
00000100: 2686 7dbd 2259 e43d 9f03 cd3c 094a fbbd
00000110: 4c31 c4bd 0d6c bdbd b1c6 903d 1900 efbd
00000120: c253 9cbe 2c65 9b3d 82e8 9f3d dec4 433d
00000130: 4be2 153e 1365 c93d ecfe 39be 4422 af3d
00000140: 3e7b 323d fecd 7ebd a848 3f3c 5312 12be
00000150: 901e 2abd 6425 96bd 9336 52bd 1524 773d
00000160: 3f6f 0abe 58e9 0a3e ef4c 09be eea0 30bd
00000170: c841 363c 5b10 7c3e 4f01 55bd f909 11bd
00000180: 5705 11bd e3e8 cc3d 4705 f2bd 01cb e33d
00000190: a191 e63d db6e d9bc 9c09 c13d e013 d93d
000001a0: c6ec d5bc bd1b 1c3d 36c0 3c3d 1282 f73c
000001b0: 7518 15be 5bab 843d 97a0 5e3d 158b c33d
000001c0: 31f2 b6bd f3f8 d4bd 2442 583e 5661 d0bd
000001d0: 63fd 90bd fc92 24bb 269c 163e efa2 0ebe
000001e0: 3025 273e f4a9 a9bd 91a6 c43c a219 0bbd
000001f0: ad29 75bd 63be 19bd 6705 45bd 58cc e2bd
00000200: caad 0d3e 245a 66ba 1b6f d23d 06e3 79bd
00000210: 6b1a 3d3d 7009 d63c 4615 61bd 3498 703d
00000220: 5624 c8bc f580 773d f825 a2be 5874 973d
00000230: 266d 6b3d 6a83 9ebd bb08 cf3d 213e 013c
00000240: 1df5 92be 1dac 623d 2b7b ebbc 0be2 a43b
00000250: 5ff5 debd 1d7f f13c 7bfd 4ebd 7033 b53d
00000260: 6849 9abc aac0 7d3c 5ba6 e3bc ad37 2abe
00000270: ea70 d8bd 32a0 df3d 5de6 8b3c e83f 0bbd
00000280: 9e10 2c3d cd86 073e d4a8 d4bc 6eb3 f53d
00000290: a687 ba3d e751 3abd be86 003d 85f6 093d
000002a0: 85e5 60bd 8624 bb3d 67e8 c73d ecf8 9d3e
000002b0: 45e9 d7bc 5d40 263d 16d8 88bc 3e55 31bd
000002c0: 72c0 153d 5c9d 173e 24dc 99bd 7582 6cbd
000002d0: 3b75 13be ebb6 d5bc 7e91 41bd 60ec 9dbc
000002e0: 9769 e33c da47 a7bc 511b 963d 2cc2 d3bc
000002f0: ea74 a33d 4562 bfbd 0800 523c 05f4 23bd
00000300: 8b09 11bb acb5 c0bd ff25 b93b 2485 da3c
00000310: 4295 1c3b 6346 e3bd 66e7 a0bd db9c d8bd
00000320: 1b54 c0bc b3e1 d33d 5909 e4bd bcb2 86bd
00000330: a517 183e bb83 6f3d 2b94 ffbb 7744 c03c
00000340: 5107 6d3d 6856 9f3d 3484 a43d 8b5a 8e3c
00000350: 7fbf 20bd b4f5 f43d 3a07 41bd 5c2b dabd
00000360: fcdb e13d ef89 703d bf8a 82bd 1bc4 133d
00000370: 32b6 a5bc 2b62 7f3d b079 133e c91e d43c
00000380: 555b bdbd 7dc9 a13d 1771 9dbd 186e a2bd
00000390: c14b 61be 95c4 6a3c e741 413d c9ca 1ebc
000003a0: 76dc 313d 1ba8 433d 828f 5bbe f459 ad3b
000003b0: 9405 04be a0d2 33bd 6c1f 203e f080 d83d
000003c0: 02ea 413e 9b21 113e 1407 e0bc e7fa 3c3d
000003d0: fdac da3b 5cf3 99bd 281f 92be 078e a8bd
000003e0: 12ad c4bd 5eea a5bd b36e 2dbd c082 39bc
000003f0: 831e a4bd 499d f1bd e841 5cbd 2d04 733d
0.05277774 -0.11194423 0.08411588 0.06746505 -0.038290992 0.09114766 -0.14022154 -0.044468462
0.11389762 -0.05848902 -0.083943024 -0.027757073 0.084962144 -0.076580174 -0.007103953 -0.07181624
0.17045361 -0.143073 0.06403105 0.11059756 -0.042625967 0.10993016 0.07586196 0.106492184
0.00993425 0.023405649 -0.10433562 -0.07056183 0.014049731 -0.13196135 -0.19884586 0.1140432
0.069174856 0.109309055 -0.02449708 0.039075922 0.17199974 0.05241417 0.08642437 0.1114632
0.14662735 -0.005356921 0.02089996 0.07762545 -0.09556481 0.025036586 0.022770008 0.04022424
0.21207365 -0.1306952 0.024366047 0.1260178 -0.027642064 -0.05221473 -0.31662166 0.013054223
0.057612836 -0.03862588 -0.11030342 0.11773201 0.06817285 0.16619118 -0.029971503 0.011821221
-0.061895512 0.11149813 0.02502614 -0.122699805 -0.09579715 -0.09249125 0.070691474 -0.116699405
-0.30532652 0.075876564 0.07808019 0.04779517 0.14637105 0.098337315 -0.18163651 0.085514575
0.043574564 -0.06220817 0.011675037 -0.14264803 -0.041533053 -0.073313504 -0.051321577 0.060337145
-0.13519 0.13565576 -0.13408254 -0.043122225 0.011124082 0.24615614 -0.0520032 -0.0354099
-0.035405483 0.10005357 -0.11817413 0.11122704 0.11258245 -0.026542118 0.09425661 0.10599494
-0.026113879 0.03811239 0.046081744 0.03021339 -0.14560111 0.06477996 0.05435237 0.09548012
-0.08932913 -0.10399046 0.2111898 -0.10174815 -0.0707958 -0.0025112024 0.14708003 -0.13929342
0.1632278 -0.08284369 0.024005206 -0.033959992 -0.0598542 -0.037535083 -0.048100855 -0.11074132
0.13835827 -0.0008787236 0.10275098 -0.061007522 0.046167772 0.026127547 -0.05495193 0.058738902
-0.024431389 0.060425717 -0.31669593 0.07395238 0.05747714 -0.07739909 0.10109087 0.007888348
-0.28702632 0.05533992 -0.028745255 0.0050318292 -0.108866446 0.029479558 -0.050534707 0.088477015
-0.018833831 0.015487829 -0.027789285 -0.16622801 -0.10568412 0.10919227 0.01707762 -0.033996493
0.042008035 0.13235016 -0.02595941 0.11997114 0.09107904 -0.045488264 0.0313785 0.033682365
-0.054906387 0.09137826 0.09761124 0.30853975 -0.026356349 0.040588725 -0.0167046 -0.043294184
0.036560483 0.14806122 -0.075126916 -0.0577416 -0.14400189 -0.026088199 -0.047257893 -0.019277751
0.02776031 -0.020420004 0.07329429 -0.025849424 0.07981284 -0.09344915 0.01281739 -0.040027637
-0.0022130932 -0.09409651 0.0056502814 0.026674815 0.0023892676 -0.110974096 -0.07856636 -0.10576793
-0.023477605 0.10345783 -0.111345954 -0.065770596 0.1485277 0.058475237 -0.0077996454 0.023470147
0.057868306 0.077801526 0.08033028 0.017377159 -0.039245125 0.11960927 -0.047126032 -0.106528014
0.11028287 0.058725294 -0.0637412 0.036075693 -0.020228479 0.06234948 0.14401889 0.025893586
-0.09245936 0.07899759 -0.07687586 -0.07931155 -0.22001554 0.014329095 0.04718199 -0.009691902
0.04342314 0.04776774 -0.21441463 0.0052902643 -0.12892753 -0.04390204 0.15636986 0.10571468
0.18936923 0.14172976 -0.027347125 0.046137717 0.006673454 -0.0751712 -0.28539395 -0.082302146
-0.09603323 -0.081013426 -0.0423419 -0.011322677 -0.08013632 -0.11797578 -0.05377379 0.059330154

gru.weight_hh_l0 f4 [192, 64]
00000000: be87 24bb b11d c13d 0a56 e73d d9cf 79bc
00000010: f96b dabd 0493 5bbd 337d 583d d8c7 053e
00000020: 140d 773c 6f53 82bc 2ffe 11bd e684 a839
00000030: e8a8 8d3d 25e3 9cbd 6285 973d 6c85 c6bc
00000040: 876c 333d 23e2 6cbc 0e07 9cbd 33c0 743d
00000050: 2950 c33d f569 c3bd 3c22 cd3d 3282 dfbd
00000060: a8bd 023e 097c df3d fd68 f1bc 6bce d5bb
00000070: 21a8 10bd 0c09 d1bd f292 2a3d cbb6 ddbb
00000080: 70f0 913c 3ea8 32bd 38a7 9b3d 9394 363b
00000090: cf82 c43d a040 d3bd ed5c 893d b6e8 16bd
000000a0: 360b e2bc ba98 94bc ee23 de3b 71e7 09bd
000000b0: 6ff4 8a3d c6f5 813d 559e 58bd c95f 803d
000000c0: 85d9 d03d c2b5 1dbd 98b6 6fbd 8e17 7ebd
000000d0: a45d 65bd a15c 31bd 666d aa3d ec11 0a3e
000000e0: d19b a0bd 26f1 293d 22b0 46bd fe27 90bd
000000f0: 4abf d0bd b315 8ebd 42d2 f93c c0d3 3b3d
00000100: cdd3 2abd 7914 273d 2d6f 763c 1e7c d1bb
00000110: c714 a53d 2f6f 343c 491d 0d3e 2d96 3a3d
00000120: a5ad acbd 1a0f bdbd 9e03 663d c45f 483b
00000130: 67b6 ba3d a4d9 223d 3ef5 6abd 8e51 b8bd
00000140: 1fa4 6e3d 5ed5 93bc fd31 ad3c c94a 383d
00000150: db17 72bd b23a c0bc 3a91 90bd a3a2 9d3d
00000160: 1e1c cebd 3f33 bc3d 7a49 943b 8aca fdbc
00000170: c0db 153c b475 dbbd a673 c3bd c976 2ebd
00000180: ea5d 3dbc 519b d83d 4d9d f0bc 2e81 98bd
00000190: c7ea 62bc b187 173d 8836 bb3b 74ac 833d
000001a0: aa1d 0d3e 7d8e b6bd d566 e6bd 2462 94bd
000001b0: 597c c2bc e6c8 e03d 42dc efbd 4b74 673c
000001c0: f590 27bc 3367 99bd cb6d 633c 3555 303d
000001d0: 75f4 c4bd 972d e7bd 6c85 ccbc a584 84bd
000001e0: 1b7e 933d d125 763d 3e38 d4bd 63f8 57bd
000001f0: 7bc2 0a3d 0510 7bbd 6533 ba3c 3587 2ebc
00000200: 536e 2bbe 6ccb d6bd 1855 4dbe 5fde 9dbd
00000210: 18f3 d2bd d4af 55bd fb2e 80bc 0423 193c
00000220: 9f80 d2bd a28a 0e3d a848 4bbc 1a0e 0a3d
00000230: 6f7c 8e3d 8b60 12bc 593d 15be d5ea 153d
00000240: a44e d2bd 819d 17be 4407 653d f4eb a73b
00000250: fb5f 3cbd ca39 dbbd 4877 9a3d 4a39 443d
00000260: 5606 57bd 317f c6bd 50fe 8e3d 19f5 d43d
00000270: 58b7 253d b222 e9bd c16a 54bc 1837 a8bd
00000280: ea27 183d 04bc 60bd c404 5fbb da85 b9bc
00000290: c597 b5bb 08bc eb3c 0f8c 13bc 4b67 58bd
000002a0: bf4a be3d 61f2 ba3d ef9e 553c 6658 a93c
000002b0: 53fe 8fbd 0bd5 18bd 4fe2 c8bd 19bc 833d
000002c0: b830 8c3d ee73 16be a1bf 0cbe 99d6 e1bc
000002d0: 228d 213d ca0c 133c b824 a7bc 6485 813d
000002e0: 4423 95bd a278 bebd cb9c 3bbd 9a86 263a
000002f0: 4a72 9ebd bcf0 cdbd 7da1 673d c1e5 ab3d
00000300: 0cad 983d 5bf5 8c3c f5c9 c7bd e803 203d
00000310: e3d0 e3bc a912 f6bd 0385 db3d a807 b33c
00000320: 2716 9e3d efcb 00be 61e3 8ebd 065c 33bd
00000330: eff4 1cbd 3a9f acbc 4def cf3d 4b49 f2bd
00000340: e415 3e3d b5cf 53bd cd3c bc3d cddf e83d
00000350: 372d cd3d fe21 edbd ef26 8e3d 65d2 f73d
00000360: 0d8c 28bd d581 31bd 31f8 f23c fb8c a1bd
00000370: 3a5c df3c 3092 033d 2e78 6a3b 62ea 63bd
00000380: 8fec 4cbd 0f45 3c3d edb9 cdbd 9ba0 b7bd
00000390: 5826 123c 514c afbb 7176 80bd e615 8f3d
000003a0: 4450 c13d 54b6 553c 6fc2 d53d 680b 60bd
000003b0: 88a4 753d 09df ba3d 76ec b9bc 32a2 fc3d
000003c0: b53e 313d e3cb e2bd 1d45 dbbc 6c02 a53d
000003d0: cf5b be3d cdd0 29bc bd2b 8f3c 89b6 97bd
000003e0: e869 453d 506a 983d 4e64 acbd f3b8 e23d
000003f0: 5672 52bd 3cbb bcbd 44b1 9cbd 97bf 9b3d
-0.0025105323 0.09429491 0.112957075 -0.015247309 -0.106651254 -0.053607002 0.052853774 0.13064516
0.015078802 -0.015908925 -0.0356428 0.00032142474 0.06916982 -0.07660512 0.07398488 -0.024233542
0.04380467 -0.014458212 -0.07618533 0.059753608 0.09536774 -0.09541694 0.10016295 -0.10913505
0.1276766 0.1091233 -0.029469008 -0.006524851 -0.03531659 -0.10206804 0.041644044 -0.0067661754
0.017814845 -0.04361748 0.07600254 0.0027859553 0.09595262 -0.103150606 0.06707177 -0.036843024
-0.027593236 -0.018139232 0.0067791855 -0.033667985 0.06784903 0.06345706 -0.052885372 0.062682696
0.101977386 -0.038503416 -0.058523744 -0.062034182 -0.055997506 -0.04330123 0.08321647 0.13483399
-0.078422196 0.041489743 -0.048507817 -0.07038878 -0.101927355 -0.069377325 0.030495767 0.045856237
-0.041705895 0.04079101 0.015041155 -0.0063929697 0.080606036 0.011012836 0.13780703 0.045553375
-0.084315576 -0.09231396 0.056155793 0.003057466 0.09116822 0.03975834 -0.057362787 -0.0899993
0.058261987 -0.018046077 0.021142 0.044993196 -0.05910478 -0.023465488 -0.0705895 0.07697036
-0.10063957 0.09189462 0.0045253607 -0.030980367 0.009146631 -0.107158095 -0.095435426 -0.04259375
-0.011558035 0.10576499 -0.029371882 -0.07446514 -0.013849921 0.03699464 0.0057132877 0.06429377
0.13780847 -0.08913896 -0.112500824 -0.07245281 -0.023740934 0.10975818 -0.11711933 0.0141268475
-0.010227432 -0.07490387 0.013881157 0.04305001 -0.09616939 -0.112879924 -0.024965964 -0.064706124
0.07201787 0.06009466 -0.1036229 -0.052727114 0.033876877 -0.061294574 0.022729585 -0.010652353
-0.16741304 -0.104880184 -0.20051992 -0.077084295 -0.10300273 -0.052169636 -0.015647402 0.009346727
-0.10278439 0.03480018 -0.012407459 0.033704855 0.069573276 -0.00893415 -0.14574184 0.036600906
-0.10268906 -0.14806177 0.055915132 0.0051245634 -0.04598997 -0.10704382 0.07542282 0.047906198
-0.052496277 -0.096922286 0.069821 0.10398311 0.040458053 -0.11383571 -0.012964905 -0.08213633
0.03714744 -0.054866806 -0.003402994 -0.022646833 -0.005541774 0.028776184 -0.009005561 -0.052832883
0.092916004 0.09128261 0.013038381 0.020672034 -0.0703093 -0.03731255 -0.0980879 0.06432361
0.0684523 -0.14692661 -0.13744976 -0.027568148 0.039441235 0.008975217 -0.020403251 0.0632427
-0.07282117 -0.09300353 -0.045803826 0.00063524547 -0.07736643 -0.10055682 0.05655049 0.083934315
0.07454881 0.017206838 -0.09755317 0.039066225 -0.027809566 -0.12015278 0.10718729 0.021854237
0.07719069 -0.12577794 -0.06976963 -0.043788932 -0.038319524 -0.021072019 0.10153065 -0.11830386
0.046407595 -0.051711757 0.09191284 0.113708116 0.1001839 -0.11578749 0.0694102 0.121006764
-0.041149188 -0.043336708 0.029659363 -0.07888218 0.027265657 0.032121837 0.00357772 -0.055643447
-0.050030287 0.045964297 -0.10045228 -0.0896618 0.008920275 -0.005349674 -0.06272591 0.06986599
0.094391376 0.013043959 0.10437476 -0.054698378 0.059971362 0.09124572 -0.022695761 0.12335624
0.043272693 -0.110740446 -0.026766354 0.080571026 0.09294855 -0.010364723 0.01747691 -0.07407863
0.048196703 0.074421525 -0.08417569 0.110704325 -0.05137857 -0.092153996 -0.07650998 0.07604902

gru.bias_ih_l0 f4 [192]
00000000: 42b2 0d3d 7988 78bc 04f0 03be 4650 c13d
00000010: 9320 9dbc c1da ab3c bc99 353e f591 b93d
00000020: 078c 163e 18e0 2bbd 41f5 963a f988 abbd
00000030: 6575 a2bd f9bb 1e3d a78a d6bd 662c 3c3c
00000040: fe36 2bbd 271d ffbc 73a6 133d 5b84 b63d
00000050: c60c 3e3c fc83 dabd a9ba a5bd 3c0c 1b3d
00000060: 13e8 93bd 05df 73bd 76e2 953d 3682 0c3c
00000070: 0152 b7bd 1220 ebbd 664b f1bd bd59 583d
00000080: b28c 103e 8332 f0bd 92fe dfba a639 8d3d
00000090: 1f06 bebd cab1 a13c 1c8d bbbd 91b1 bcbd
000000a0: 6070 d8bd b565 8f3c a562 28bd 9259 033d
000000b0: 02cf e03d 6c93 e53d 8fc7 aabd f56e f7bd
000000c0: cb65 9fbd d88f 493d 9acb 5f3d 6b43 963c
000000d0: a7a6 f13d 64c0 cebd e207 da3d ff8f d03d
000000e0: a867 093d e3a3 f1bd 8e7f a13d 31c9 043e
000000f0: 2992 a43d e62a 563d bdb0 febd eb5a 8ab9
00000100: 82fc ae3d 4bd3 193e 781f a4bd a933 803d
00000110: e8a5 7539 fa05 7cbe d0ed e9bd d211 b23d
00000120: b7c0 033e 2662 c0bd abd6 c2bd 9ee4 8a3d
00000130: c0e0 bdbd f4df 4d3b e0b3 0bbe 5714 85bd
00000140: e61e c73d a9f8 bd3b abc0 4dbd 513c 88be
00000150: 3d5e 203c caf7 18be a2ca 33be 65cb a7be
00000160: 6237 b7be 128b 2fbe deeb 433c 59fb 7fbe
00000170: dc62 c3be 26c5 75bd cab5 58bd b947 f23d
00000180: 8111 14bd 950c 103e bcf5 863d afea a5bd
00000190: 0ff5 e83d 2843 d2bc 392b cdbd e29c 27be
000001a0: 71c0 86bd 75bb e2bd adda 9bbc caf7 10bd
000001b0: b261 c6bd 28e1 dfbc 43fa 87be 701b 093d
000001c0: 8886 f93d e0cb 53be c526 a2be b0c4 743d
000001d0: feb7 eebd a370 87bd ab4a 8c3c b7e1 213e
000001e0: 2d84 81bd 7011 61bd 7558 98bd 8bfc cf3d
000001f0: bdc2 f3bd 3216 e63d 28f4 a1bd de7a 31bc
00000200: 854c 96bd 69c3 fa3c 3e4a d23c a252 213d
00000210: 154c cebd db55 32bd c5fd 043c 4d6c 863d
00000220: c57c 89bd 591e 8cbd 6604 bd3d 840d 01bd
00000230: 76ae 693b ec43 d83d add5 cc3d 49e3 053c
00000240: aa98 86bd 6fea f53b 4639 adb7 e384 85bc
00000250: a230 dbba e87b 34bd b310 90bd 5483 f53b
00000260: 58f6 913d 1deb beba 6799 fcbc 7aa7 0cbc
00000270: f6bb a6bd 9558 883d 9f40 0c3e 6649 aabd
00000280: 3a0d df39 18d1 833c 4413 23bd df59 1dbd
00000290: a98e 05be 3ac2 de3c 1420 d63d 63c5 2bbc
000002a0: 1459 e6bd 68f8 0abd 9e66 70bd a236 8bbc
000002b0: 9c7c 853d ab2f 7abd 9c3d 013d 7582 e13a
000002c0: e114 143d 2daa 983d ceb5 0ebd a38a 003d
000002d0: a306 35bd 0f25 8a3c 7d99 6dbc 97e7 a93d
000002e0: 648c e7bd e070 06bd 5772 d93d 579e 753c
000002f0: d55c 9b3d 76de 75bd 2e4a 9b3d 05bb 4d3d
0.034593828 -0.015169256 -0.12884527 0.09439139 -0.019180572 0.020978333 0.17734426 0.09061042
0.14701854 -0.04196176 0.0011517183 -0.08375735 -0.079325475 0.038753483 -0.104756646 0.011485195
-0.04180049 -0.03114183 0.03604741 0.089119636 0.011599725 -0.10669705 -0.08092243 0.037853464
-0.07221999 -0.05953886 0.073185846 0.008575967 -0.08951188 -0.11480726 -0.11781959 0.052819956
0.14116171 -0.11728384 -0.0017089418 0.06895761 -0.09278511 0.019738097 -0.09157774 -0.092135556
-0.10568309 0.017504552 -0.0411097 0.032067843 0.109769836 0.11209759 -0.08338844 -0.1208171
-0.07783087 0.049209446 0.05463753 0.018342694 0.117993645 -0.10095289 0.10646035 0.10183715
0.03354612 -0.11798837 0.07885657 0.12967373 0.0803569 0.052287005 -0.12436054 -0.0002638915
0.08544256 0.15022008 -0.08013815 0.062598534 0.00023426826 -0.24611655 -0.11422312 0.08694805
0.12866484 -0.0939372 -0.09513601 0.067818865 -0.09271383 0.0031414004 -0.13642836 -0.0649802
0.0972269 0.005797465 -0.05023257 -0.26608518 0.009788093 -0.14938274 -0.17557767 -0.32772365
-0.3578444 -0.17142895 0.011958091 -0.24998225 -0.3816136 -0.06000247 -0.052907743 0.11830086
-0.036149506 0.140673 0.06589839 -0.08101403 0.11374866 -0.025666788 -0.1001801 -0.1636844
-0.06579674 -0.11070911 -0.019025171 -0.03539256 -0.09686603 -0.027329043 -0.26558122 0.033473432
0.12183863 -0.20683241 -0.31670204 0.05975789 -0.116561875 -0.066132806 0.017125448 0.1580876
-0.06324039 -0.05494827 -0.07438747 0.101555906 -0.11902378 0.11234702 -0.07907897 -0.0108325165
-0.07338814 0.030610757 0.025670167 0.039385445 -0.10073105 -0.04353891 0.008117144 0.065636255
-0.06713251 -0.06841726 0.092293546 -0.03150703 0.0035656965 0.1055983 0.10001693 0.008171865
-0.06572087 0.0075047533 -2.0649877e-05 -0.016298717 -0.0016722868 -0.04406348 -0.07034435 0.007492462
0.071270645 -0.0014565919 -0.030834867 -0.008584851 -0.081413195 0.06657521 0.13696526 -0.08314781
0.0004254373 0.016090915 -0.039813295 -0.038415786 -0.13042702 0.027192224 0.10455337 -0.010484072
-0.11247459 -0.033928305 -0.058691613 -0.016993824 0.06517908 -0.061080616 0.031552896 0.0017205017
0.036152724 0.074543335 -0.03484135 0.031382214 -0.044195782 0.016863374 -0.0145019265 0.082961254
-0.11306074 -0.03282249 0.10617512 0.014991364 0.07586066 -0.06002661 0.07582508 0.050227184

gru.bias_hh_l0 f4 [192]
00000000: 7f0f 563d 29e6 a53c 6296 973d 1117 5b3c
00000010: 0e6d 903d 8e51 2abe 2205 993d c22e 04be
00000020: 7243 0e3e abf6 493d cc2b 893d 35cd e63d
00000030: 0a94 a83d 5536 c13c 799d 9cbd f5ee 6dbc
00000040: 02d0 87bd b9f0 0f3c cd37 f3bd 9201 9c3c
00000050: 6160 7f3d 5dd1 723d f49c c73d 2297 ad3d
00000060: f267 7abd 06c0 83bd 90cf 11be bf00 0fbd
00000070: de01 1bbe c516 cf3d 17e1 95bd deaf cbbc
00000080: 393d e23d 71b6 bc3d 17ab 92bd 94f6 efbd
00000090: 2e22 9ebd fbe2 35bc e632 813c 5796 d33d
000000a0: d023 cd38 2004 3cbd 841f a1bd caa8 9ebd
000000b0: c36f cabb 31a1 23bd e3f6 3ebe ed2b 99bb
000000c0: 3f52 a43c 9833 e3bd e4dd cbbd 93de a43d
000000d0: 53d3 a83d a7d3 c43d 3b9a 5bbd 3ab1 8cbd
000000e0: 284a 1abc 8991 ca3c 7e32 4bbd cded dc3d
000000f0: c11b 7c3c 1f28 ef3c a139 a03d 4f6e 8bbb
00000100: 9305 23bd c5a1 0d3e e208 c1bc 2393 a23d
00000110: fcc8 933d f43b b9be 45d0 ebba 96e6 f6bc
00000120: 6808 bf3d ee71 6a3c d0c6 74bd 08f7 f0bc
00000130: 41bf c2bd 9dfe 8bbd d110 04bd 903a 55be
00000140: de40 9e3d cbe7 483d fba7 c83b e06e 50be
00000150: 7b1a a33d a0a7 14be 3268 11be 9099 0ebe
00000160: 1766 61be f575 6cbd c172 13be 1e6b f1bd
00000170: 5c9e b4be d8b3 29be e3c6 85bd 23c0 07bc
00000180: 7bf3 7abd fe7d 53bb f2c5 18be fd37 6cbd
00000190: badf fa3d 07c2 1dbe be10 edbd 0133 94be
000001a0: 862d 513d 848b 0dbe d125 a0bd b517 0d3d
000001b0: 68ba 02be 7624 5e3d 0fce 25be 253b ebbd
000001c0: 5e00 b1bd 05c8 c3bd ce78 b5be 2164 0fb9
000001d0: 6742 bbbd 303a 063e 2212 343d 1855 103c
000001e0: 998a 00be 7420 23bd 4a72 e33c 4fd7 33bd
000001f0: 8dc9 51be 13c8 913d 61a5 36bc 9909 51be
00000200: 6002 623d 9f8f 713d 7b65 993d 2ea8 9d3d
00000210: 4cd1 1f3d 3e38 57bd b549 7fbd c004 6b3d
00000220: 7d12 e13d 493b dabd bf2e 5cbd a7d5 0b3e
00000230: 588e 053e 0de8 6cbd 28dc 13bc e1a3 273d
00000240: 60d9 65bc f859 2a3c bb13 3abb 75c3 9c3d
00000250: dde7 0c3e a3c8 96bd e7ac 973b 5635 ef3d
00000260: ae21 fbbd f595 b13d 9532 2d3d b350 063e
00000270: c9b4 5fbc 3347 0dbd 6d84 66bd 5be5 b33d
00000280: c897 27bd e7d6 953c 5649 eb3c c850 943d
00000290: c92e e3bc 80c5 cbbd b95d 65bd 5707 99bd
000002a0: d17c 043c 0628 a83d baf4 d2bb 0ce2 50bd
000002b0: 7cab f3bd 8f29 8fbd f7b2 993d 491b a2bd
000002c0: 473c bbbd cb8b a13d 4d24 52bb 64af d33c
000002d0: 5179 033e 1ea2 bbbd 3eb1 abbc a392 a9bd
000002e0: 08aa 55bd e197 9e3d ba42 cebd 2643 973d
000002f0: 8e78 aebd 5cba bf3d a6c2 cdbd 826f cb3c
0.052260872 0.02025135 0.0740173 0.013372199 0.070520505 -0.16632673 0.07471682 -0.12908462
0.13892916 0.049307507 0.06697807 0.11269609 0.08231361 0.023585478 -0.07647223 -0.014522304
-0.06631471 0.00878542 -0.118758775 0.019043718 0.062347773 0.059281696 0.09746733 0.08476092
-0.061134286 -0.0643311 -0.14239335 -0.03491282 -0.15137431 0.10111765 -0.07318323 -0.024864133
0.110468335 0.092144854 -0.07161539 -0.11716953 -0.07721363 -0.01110148 0.01577134 0.103314094
9.781832e-05 -0.04590237 -0.07867339 -0.07747038 -0.006177874 -0.039948646 -0.18648867 -0.004674426
0.02005875 -0.11093825 -0.09954432 0.08050265 0.08243432 0.09610682 -0.053613883 -0.06869741
-0.009417094 0.0247276 -0.0496087 0.107875444 0.015387476 0.029193936 0.07823492 -0.004255093
-0.039800238 0.13831241 -0.023563806 0.0793822 0.07216069 -0.36178553 -0.0017991146 -0.030139249
0.09327775 0.0143093895 -0.059759915 -0.029414669 -0.09509135 -0.06835673 -0.0322426 -0.20823121
0.07727216 0.04904918 0.0061235405 -0.20354795 0.07964035 -0.14517069 -0.14199904 -0.13925767
-0.220116 -0.05772968 -0.14399244 -0.11788009 -0.3527707 -0.16572511 -0.06532075 -0.008285555
-0.061267357 -0.0032271142 -0.1491926 -0.057670582 0.12249704 -0.15406047 -0.11575459 -0.28945163
0.051068805 -0.13822752 -0.07819713 0.034446437 -0.12766421 0.05423399 -0.16191886 -0.1148589
-0.08642648 -0.09559635 -0.3544373 -0.00013674844 -0.091435246 0.13108134 0.043962605 0.00880935
-0.12552871 -0.03982587 0.027764458 -0.043906506 -0.20487042 0.07118239 -0.011147828 -0.20413817
0.055178046 0.05897486 0.07490059 0.07698093 0.03901796 -0.05254387 -0.062326152 0.057377577
0.109898545 -0.10655839 -0.053755518 0.1365572 0.13042581 -0.05783849 -0.009024657 0.04092777
-0.014028877 0.010397427 -0.0028393108 0.07654468 0.13760324 -0.07362487 0.004628766 0.11680095
-0.12262283 0.0867118 0.042284567 0.13116722 -0.013653942 -0.03449173 -0.056278635 0.087839805
-0.040916234 0.01829095 0.028721493 0.0724197 -0.02773227 -0.099497795 -0.055997584 -0.07472103
0.008086399 0.08210759 -0.006437865 -0.050996825 -0.118979424 -0.069903485 0.07504838 -0.079153605
-0.09142356 0.078879915 -0.0032065094 0.025840469 0.12839247 -0.09161781 -0.02095854 -0.08279922
-0.052164108 0.07743812 -0.10071321 0.073858544 -0.08519088 0.09361717 -0.10046892 0.024833445

gru.weight_ih_l0_reverse f4 [192, 6]
00000000: 40fa 553e b53a ac3d 5569 0bbb 564f 3fbd
00000010: f1d4 a9bd aa1a 603c 7ae9 07be 0796 33bd
00000020: f265 c43d 9b7b fd3a f0bf c8bd 4d95 9d3d
00000030: 91f8 dd3c 214b 903d f6c2 4f3d 3a56 b23d
00000040: 0902 3ebd c8ef a4bd 85d1 dcbd 54dd c3bd
00000050: 4de1 b1bc 6126 88bd 9f6e b9ba e523 5bbd
00000060: bb67 41bd e8e9 adbd 7e8f 99bd 5b45 a53d
00000070: e21e 3ebd c4cd 843d cef1 1b3e 1ee1 713d
00000080: f6c2 28bd 663d c03d b05b efbd 70c3 0f3d
00000090: 990d b33d 7850 4fbd 0898 48be 93ef b33d
000000a0: 1cf2 44bd 68ab e5bd 060b c2bc a3a0 933a
000000b0: 595e bdbd eb12 e13d bf53 52bd 2ef2 efbd
000000c0: d650 f53c 1d6d 4bbd 5d53 fcbd c651 fabd
000000d0: a1b0 bcbd 6354 413c ea17 a1bd 413c 96bd
000000e0: c16a ec3d 955c bfbc 98ef 89bd afa7 10bc
000000f0: a74e 623d b488 06bd daec ab3d e7dd 71bc
00000100: f0fa d3bd 314a d1bd e617 3abe d4f3 093e
00000110: bc00 3abd 48be e63c 7fe0 76bd 9f49 8f3c
00000120: bb44 1ebc e536 a83d 506b 123d 1dbd ef3d
00000130: 13d6 ccbc 13fd 003e 94f9 9dbd d2f9 c63d
00000140: 142e 1c3d a994 a6bd 58b0 03bd ab61 8e3d
00000150: 26a2 503d b37d 443c 26f7 b43d d80d 58bd
00000160: 365a aa3c cd99 053e 482a edbc e390 d83d
00000170: 1305 36bd 6456 2cbd 1c8a aebd f11f 3a3d
00000180: 16bf 70bd ecb8 5bbd 0638 f13d 40af 37bd
00000190: 6bfe a93c 5b4a ce3d dc47 11bd eb0b 283c
000001a0: 02fa 2dbd 226d 9ebc 0953 423d 3de5 34bc
000001b0: 5e1c 463e a22c b63d c336 b0bd 70a6 c0bd
000001c0: 5c1a b7bd fdab d3bd 0386 1d3e 46f6 62bd
000001d0: 7c5f a13d aadb cb3c 113b 0cbd c384 aebd
000001e0: 3c1a a43d 2020 76bd 2b58 233d 09ef debd
000001f0: fb14 123d 41ce 03bd a3da 7bbd 0db9 b63d
00000200: 6a2c 113d 0b5e 9bbc 5b3a a3bc c21e 43be
00000210: 5820 92be 76d0 c6bd 3847 a5bd 7294 8d3d
00000220: b1df 92bd 9ef6 82bc da75 b0bd 731c dbbd
00000230: 0c2b efbd aead c73d 9805 ba3d a54b 093e
00000240: 48a7 90bd 6f3f cbbd 99c3 863d 5f61 86bc
00000250: 08be 763d 9e78 8f3d e10c 50be b2e7 29bb
00000260: 7bac 5d3d 50f6 203d 0ca2 b43d f4ff 333d
00000270: bd4b 5dbd 0257 5e3d 0bba 813d e3a1 183e
00000280: 0868 d6bd 16f9 d5bd 73af 203d eaa5 a63d
00000290: c4c5 9e3c b5d3 95bd 29c5 5fbd b611 d3bd
000002a0: 99de 87be d499 64bd b29c 4ebd 05d0 873d
000002b0: 9690 dc3c e25d b93d 484f 0b3e 6988 79bc
000002c0: a0ec 88bd 498a 973d 4c5d f4bc c4c1 f5bd
000002d0: 44d1 8f3d a700 163d 089a c4bd f6d6 8fbd
000002e0: 8dcf 5e3d b3ed 0cbe 264e 4dbe 6fc6 8f3d
000002f0: ccc6 cf3c 1886 753d d82f 1c3b afe3 b7bc
00000300: af33 a8bd 16a6 e93c 388b 81bd 3440 d23d
00000310: 0516 11be 839d 893d 214c 1a3e 4f18 09bd
00000320: be45 e5bd f6ca 01bd 0feb c3bd f139 4ebd
00000330: 0b57 53bd a844 16be f858 2b3c 4963 fcbb
00000340: c5de bfbd 4f40 333d a5d2 143d 536b cabd
00000350: 1f76 b7bd 830c 7bbc 04d5 163c 9f5c e23c
00000360: 5ec7 b2bc 5a4d 083e 5eea 2ebd 6f41 0b3d
00000370: 5944 81bd 77e4 8a3d 932a 743c e73d 1dbe
00000380: fe24 773d 74ac b8bc b03e 193e ed88 a93c
00000390: e260 8bbb 0a6d 1d3b b7f7 df3d d542 513c
000003a0: 7f20 c03d bd19 00bc bfb4 923c 8247 0cbc
000003b0: 9830 c1bd beb5 943d 1eee ce3d 3fb6 923b
000003c0: 8d96 96bd c843 063e 514b e3bd 34e5 a9bc
000003d0: a94d b5bd 5660 a0bd ca46 71be 2906 cdbb
000003e0: 7cd0 e0bb d321 f83c 2593 033e 92d7 8bb9
000003f0: 1ab6 33be a92d 15be 8d87 a0bd 2a8f 2f3c
0.20896244 0.08409635 -0.00212725 -0.04670652 -0.082925685 0.013678232 -0.13272658 -0.04384425
0.09589757 0.0019339205 -0.09802234 0.076944925 0.027096065 0.0704558 0.05072304 0.08707853
-0.04638866 -0.08053547 -0.1078215 -0.09563699 -0.021713877 -0.06647945 -0.0014147348 -0.05350103
-0.047218066 -0.0849188 -0.07498072 0.08069869 -0.04641617 0.06484559 0.1522896 0.05905258
-0.041201554 0.09386711 -0.1168741 0.035098493 0.08742828 -0.05061385 -0.19589245 0.087859295
-0.048082456 -0.11214334 -0.023686897 0.0011263083 -0.09246511 0.109899364 -0.051349398 -0.11716114
0.029945772 -0.049664605 -0.12320588 -0.12222628 -0.09213377 0.0117999045 -0.07865889 -0.07335711
0.11543799 -0.023359576 -0.06735152 -0.008829041 0.05525079 -0.032845214 0.08394785 -0.014762378
-0.10350597 -0.10219229 -0.18173179 0.1347192 -0.045410857 0.028166905 -0.06027269 0.01749116
-0.009659941 0.08213595 0.035746872 0.11705992 -0.025004422 0.1259654 -0.07713619 0.09715618
0.03812988 -0.081338234 -0.032150596 0.069522224 0.050935887 0.01199286 0.08836202 -0.052747577
0.020794969 0.13046952 -0.028950825 0.1057451 -0.044438433 -0.042074576 -0.08522436 0.045440618
-0.058775984 -0.053643152 0.11778264 -0.044844866 0.020751199 0.10072776 -0.03546892 0.010256748
-0.042474754 -0.019339148 0.04744247 -0.011040983 0.19346759 0.08895232 -0.08604195 -0.094067454
-0.089405745 -0.103355385 0.15383153 -0.055410646 0.0787954 0.024885017 -0.034236018 -0.08521416
0.08012816 -0.06008923 0.039879005 -0.10885436 0.03566454 -0.03217912 -0.061487805 0.089220144
0.035442747 -0.018965742 -0.019925287 -0.19054702 -0.285403 -0.097077295 -0.080702245 0.06913079
-0.07171572 -0.015986737 -0.086162284 -0.10698786 -0.116781324 0.09749924 0.09083098 0.13407762
-0.07063156 -0.099242084 0.06580276 -0.016403852 0.06023982 0.07005428 -0.20317413 -0.0025925455
0.05411957 0.039297402 0.088199705 0.043945268 -0.054027308 0.054282196 0.06334313 0.14905505
-0.10469061 -0.104479 0.03922982 0.08137114 0.019381411 -0.073157705 -0.054631386 -0.103061125
-0.26537016 -0.055810764 -0.050442405 0.066314735 0.026924413 0.0905111 0.13604462 -0.015230277
-0.06685758 0.07399423 -0.029829644 -0.119998485 0.07022336 0.036621716 -0.09599692 -0.070234224
0.054397155 -0.1376255 -0.20049343 0.0702027 0.025363348 0.059942335 0.0023832228 -0.022447435
-0.08212983 0.028521579 -0.06325382 0.10266152 -0.14168556 0.06719496 0.15068103 -0.033470448
-0.11194943 -0.0316877 -0.09566318 -0.050348226 -0.051596683 -0.14674628 0.0104582235 -0.0077022654
-0.09368662 0.0437625 0.0363337 -0.09883752 -0.08958077 -0.015322807 0.00920606 0.027632056
-0.021823581 0.13310757 -0.04270398 0.03399795 -0.063118644 0.067818575 0.014902729 -0.15355645
0.060338013 -0.02254317 0.1496532 0.020695174 -0.0042534927 0.0024021291 0.1093592 0.012772282
0.09381198 -0.0078186365 0.017908452 -0.008561971 -0.09433097 0.07261227 0.10104011 0.004477292
-0.07352934 0.13111794 -0.1109835 -0.020739175 -0.08852703 -0.078308746 -0.2356216 -0.006256838
-0.006860791 0.030289566 0.128491 -0.00026672758 -0.17549935 -0.14568199 -0.07838354 0.010715285

gru.weight_hh_l0_reverse f4 [192, 64]
00000000: e2e7 623e f578 9fbd 4356 83bc 027c c9bc
00000010: 7857 0c3e d42a a63d 4e52 a63d 2e6a a3bc
00000020: 212c db3d 3e58 ec3d cf49 60bd 4a6d f8bd
00000030: e67c e039 9cc6 96bd ef2a 2bbd 65c4 91bd
00000040: f461 2d3d 7bd2 c6bc 071c 26be aecb 3c3c
00000050: 1777 b63d 61e3 17be 92d5 813d e435 093e
00000060: c462 db3c 1325 d83d 54d3 283d 5f59 1abd
00000070: f696 093e 6b98 8c3d 94a5 ef3d 28b0 9abd
00000080: 57a0 b4bd 1e38 e9bd e428 dbbd f910 23bd
00000090: aa88 1bbd 8f9c cc3d 71eb ffbd ba3b ac3d
000000a0: c2cc 083d 70c4 e73b 5c42 ddbd df47 8dbc
000000b0: f16e cb3d 7e19 16be eec7 62bd cd4b bdbd
000000c0: b362 973d 3055 afbc 96d1 22bd fb84 aebc
000000d0: 59e9 7ebd 9ed3 74bb 7360 103e 2c40 023e
000000e0: 66e3 b03d 5fd6 363d 1152 ae3c 794a 4bbd
000000f0: f96d 743d dc6b dfbd 1233 893d 107a 7c3d
00000100: 005a e33c 44c1 243e b0ca 813d cb2e 5abd
00000110: d04f 553d 3426 90bd 7fe4 153e ec79 043e
00000120: ab14 033d a3f7 993c 30f1 1a3e 02b0 0abe
00000130: e450 923d 5acb 57bb 6fde 01be 37d9 d2bb
00000140: b3dd e83d f4c8 52ba f8cf afbd b714 d43c
00000150: d852 40bd b364 81bd bd30 e93d 5b39 e33c
00000160: 2d32 bebd bb8e dcbd 59fe 76bd 3fbe 0f3d
00000170: f22d e2bc 2bdd e53d 8e21 04be 0602 f33c
00000180: 41ef 8ebd 8b92 dbbd 899e 0cbe f932 15bc
00000190: dc6c 8c3d 2009 bd3d 4759 d23c fa1d aebd
000001a0: a92d bfbc 4a7a d6bd 8fa6 053e af13 6cbd
000001b0: 7d2b ac3d 6b47 96bd dc9f 3e3c 620d f33c
000001c0: 2d11 e33d 16e2 e23d 44a5 e23d 8459 253d
000001d0: d16e ddbc 2fb5 e03c 75dd 813c 759a 0b3d
000001e0: bf41 153e 48a5 313d 8659 46bd 7a16 6c3d
000001f0: 8133 d13c 0706 11bd 8e9a dcbc ef9f 763d
00000200: 1188 48bd bf55 3dbd 81b2 bd3d 68a9 71bd
00000210: fe53 e83d ae59 5f3d bf46 a2bd 993e 74bc
00000220: b914 d0bc ca78 dc3d 82d7 fa3c 0e39 10bd
00000230: 8a14 5f3d 1233 a239 0d0b 51bc 736b a0bb
00000240: 179c 803d 1b97 70bd 71c6 b6bc d2eb c13d
00000250: c6df efbc 7915 82bd 61cf 2f3c 3fa0 10bd
00000260: d686 ebbd 8d63 78bc 7ca7 ecbc ad0a 0c3d
00000270: 4624 cfbd d4fa 0a3e 141d dbba 5bb8 c1bd
00000280: d626 22bd a05c 5c3b 7f18 5e3d 7f25 aebd
00000290: 2f6f b43d 03c3 273c c57b d0bd b0a2 dfbd
000002a0: 969a 213d 87a5 0bbe 121a c5bd d2bb 6ebd
000002b0: 4f6d df3c 0fda 36bd 9018 083e cfb5 edbc
000002c0: a950 5cbc 33db e33d 0568 1cbd 0b4a 63bd
000002d0: 9128 4e3d d930 c93c d3ea b0bd 5d8b 23bd
000002e0: 3407 b13b e80e aa3d 938e b23d e12a bb3d
000002f0: a0ee 8c3d d958 e3bd c197 b9bd 647f 02be
00000300: 28e8 a4bd 8f04 e0bd fbd7 783d 701e 56bd
00000310: 8ffd e83d 405b f93d 8c61 76bc a081 e03c
00000320: 3fb3 acbd 36ec f33d 3bf8 b33d 54a0 ad3d
00000330: 074c c2bd 9f34 d73d 4d47 babd 1092 91bd
00000340: 203b 893c fe95 a53d aed9 45bd 9768 143b
00000350: b10f 413b 7180 c53c 98e2 eabc 5e3f 9bbd
00000360: f612 773d e9b4 88bc fcab a03d 442f 2cbd
00000370: 9e60 0cbd ef1f 9bbd accd 253c e757 4abd
00000380: df38 edba 728a 0c3d 2ff8 b33d cb3f 9e3c
00000390: 4dce c8bc 0386 333d 2a67 7b3b 94c1 cabb
000003a0: 7aee cf3d 1dfa 2cbd 0532 54bd 4347 6d3d
000003b0: 0359 a8bd 9ab7 bdbd eebe d43d 1c29 823d
000003c0: 4082 a6bd 0465 cd3d c08c 143d c93b f2bd
000003d0: 45db aabd ec75 a83d 3132 ae3d 3bd2 dc3c
000003e0: 2574 01bd 7695 a9bc 7b70 a4bd 2517 8d3d
000003f0: 82e2 9a3c 1db3 adbd 9b0a efbd b945 e33d
0.22158769 -0.077867426 -0.016032344 -0.024595264 0.13705242 0.081136376 0.08121167 -0.019948091
0.10701776 0.11540268 -0.05475789 -0.1213022 0.00042817666 -0.073621005 -0.04178899 -0.071175374
0.042329744 -0.024270287 -0.16221629 0.01152317 0.08909433 -0.14832832 0.063395634 0.13399464
0.026780494 0.10553946 0.041217163 -0.037682887 0.13436493 0.06865009 0.117015034 -0.075531304
-0.08819645 -0.11387657 -0.10701159 -0.03981111 -0.03797213 0.09990799 -0.12496079 0.084098294
0.033398397 0.0070729777 -0.10803673 -0.017246185 0.0993327 -0.14658162 -0.05536645 -0.092429735
0.07391872 -0.021402925 -0.039750658 -0.021303644 -0.062234256 -0.003735758 0.14099292 0.12719792
0.08637123 0.044638034 0.021279367 -0.04963157 0.05967519 -0.109092444 0.06699194 0.061639845
0.027752876 0.1608935 0.06337488 -0.05326728 0.05207807 -0.07038537 0.14637946 0.12937135
0.032002132 0.01879484 0.15131068 -0.13543704 0.07144335 -0.0032927603 -0.12682508 -0.0064345854
0.11370411 -0.00080408086 -0.08584589 0.025888784 -0.046954006 -0.06318035 0.11386249 0.02773731
-0.09286914 -0.10769411 -0.06030116 0.035093542 -0.027609799 0.11223825 -0.12903425 0.02966405
-0.06979228 -0.1072131 -0.13732351 -0.009106391 0.06856701 0.09230256 0.025677336 -0.08501811
-0.023337202 -0.104725435 0.13051818 -0.05763596 0.08406732 -0.07337841 0.011634793 0.029669467
0.110872604 0.11078279 0.11066678 0.040368572 -0.02703038 0.027430145 0.01585267 0.03408285
0.14575861 0.043370515 -0.04842522 0.057638623 0.025537254 -0.03540614 -0.026929166 0.06021112
-0.048957888 -0.046224352 0.092625625 -0.05899945 0.11344145 0.054528885 -0.0792365 -0.014907503
-0.025400506 0.10765226 0.03062034 -0.03521066 0.054462947 0.00030937098 -0.012758982 -0.0048956214
0.06279772 -0.058737855 -0.022311421 0.09468807 -0.029281508 -0.06351752 0.010730595 -0.035309073
-0.11500327 -0.0151604535 -0.028888457 0.03418987 -0.101143405 0.13572246 -0.001671704 -0.09458991
-0.039587818 0.0033624545 0.05422258 -0.085032456 0.08810269 0.0102393655 -0.10179857 -0.10919702
0.039454065 -0.13637362 -0.09624113 -0.05828459 0.027273802 -0.04464155 0.1329062 -0.029017357
-0.013446965 0.11125793 -0.03818514 -0.055490535 0.050331656 0.024559425 -0.08638539 -0.03992783
0.00540247 0.083036244 0.087186 0.09139038 0.068814516 -0.11100931 -0.09062148 -0.12743908
-0.08052093 -0.109383695 0.06075285 -0.05227512 0.113764875 0.12175608 -0.015037905 0.02740556
-0.08432626 0.11910288 0.087875806 0.08477846 -0.09487157 0.105080836 -0.09095631 -0.07107937
0.016751826 0.08085249 -0.0483033 0.0022645348 0.0029458816 0.024109097 -0.028672501 -0.07580446
0.060320817 -0.016687827 0.078453034 -0.042037264 -0.03427183 -0.0757445 0.010119837 -0.049400236
-0.0018098614 0.03431172 0.08787572 0.019317528 -0.024512434 0.043828975 0.003836105 -0.006187627
0.10152908 -0.042230714 -0.051805515 0.05792929 -0.08220103 -0.09263535 0.103879794 0.06355497
-0.08130312 0.10029033 0.036267042 -0.11827809 -0.083426036 0.08225617 0.08505667 0.026955714
-0.031604905 -0.020701151 -0.080292664 0.0688918 0.018906835 -0.08481429 -0.11671945 0.11097283

gru.bias_ih_l0_reverse f4 [192]
00000000: 3356 b4bb d76a 14be 2f54 533d b70e cfbc
00000010: b67b f43b cc61 cf3d 112f 353d 0e4c 1cbd
00000020: d722 f7bc 73ea a7bd f639 4d3c 7f52 c3bd
00000030: cc94 a83d b7e2 bcbd b17d 06be 640a e33c
00000040: 8277 d93c 63cd 6f3d 3700 673d 4063 863d
00000050: 5e13 d23a 9272 3dbc 1073 7bbd 830c fabc
00000060: db3e cd3d 9cb5 ffbb 59e5 6c3d 46e2 f33d
00000070: b8d4 d1bb fa13 91bd a4a2 e03d dce5 6b3c
00000080: b3b0 b43d 7abd fb3d fc0f c2bd 9790 40bd
00000090: ada5 b23c b92a 243d 8cb3 903c a436 19bd
000000a0: 2104 4b3d 0a51 f13d a77a c3bd 3a9d f9bd
000000b0: 3bce e33d 77ec 84bc 6777 b83d 5d0b 64bd
000000c0: f662 0b3e ba31 763d 05df 913d b18a 8c3d
000000d0: 99f1 dfbc 0100 ae3d 01b7 8a3d 8273 b13d
000000e0: b1f6 603d 3306 ca3d 32d6 ecbc b541 e93d
000000f0: 4b9d 08be 238b 94bd 8575 35bd d3ac d4bc
00000100: e6b5 48be 953c 44be 7c00 05bd b16d 1f3c
00000110: 1ec7 763d 6a6c 443d 293c d23c eed5 78be
00000120: 25a8 213d db77 7bbe e4ed d63d d765 7abb
00000130: e1aa e43d 8c8a 1e3d 3d9e 0e3e 264d cebd
00000140: 5fb8 9fbc 4f83 7b3d 7992 283d db59 8d3d
00000150: 37cc 933d e0d8 d5bd a58d 4dbe 1653 07be
00000160: 4b69 aebc 1933 a2bd 2180 f8bd 90d0 dc3d
00000170: 2c94 82be 6fde 95bd 6f94 cfbd b357 1bbe
00000180: 35c2 183e 4a35 d53d c37c 21be 058b 99bd
00000190: 573a 9cbc 62f6 a1bc f50e 9bbc 3d67 c9ba
000001a0: 85a5 4abe a6ab 1bbe b522 78be d78c 30bd
000001b0: aeae c6bc fe71 813d 187d 57ba cd77 443c
000001c0: 7b5a bb3d 96ba 56be 93dc ec3d 0a36 9ebe
000001d0: 7c71 0ebd 35f6 b3bd 70bd aebd 757a 02be
000001e0: 2876 21be 47b2 f3bd 2864 3abe 2848 923d
000001f0: 1999 a33c 51d5 1abe 512b b8bb e9bd 9abd
00000200: d6fa 803d 6508 713d b5d5 5f3d 52e1 4f3d
00000210: 4dd3 0fbb c46a 94bd 48bc a93c e70e 6b3d
00000220: 5e02 bb3c c9bd 51bb a347 35bd 4d92 b4bd
00000230: 2405 453d e83a a5bd b37c b4bd 0357 cdbd
00000240: c551 e3bd 6687 5ebd d7ff ddbc 5664 d6bd
00000250: 81a2 bfbd bfba d33d c1cf 913d 6b26 80bd
00000260: bc43 b0bd 830e c7bc 7828 d6bd 2647 483d
00000270: f2bb c6bd 98fe c7bd ce11 8a3d 2630 033d
00000280: 30d0 13bc 1103 e43c 3b09 383d af63 d83a
00000290: dea4 1f3d 2658 723c ea92 803d 59fa 9abd
000002a0: aa2d b7bb 958d 7cba 7a64 be3d 229a e33c
000002b0: a172 9f3d f732 c23d 9239 2ebd 6f81 923d
000002c0: 0c34 b5bd 2ffb f1bd d36b 6e3c a4c0 be3d
000002d0: 97da 1e3e 8e56 78bd 26f7 86bc 87a9 29bd
000002e0: a6e0 87bd 1398 ef3d 938c 643d 9ccf a93d
000002f0: 3027 013b bcca 683d 7cef 553d e5c0 8fbd
-0.00550344 -0.14493881 0.051593956 -0.025275571 0.0074610366 0.10126075 0.04423434 -0.03815847
-0.03016798 -0.081990145 0.012526026 -0.09537219 0.08231506 -0.0922293 -0.13133885 0.027714916
0.026546244 0.05854548 0.05639669 0.06561899 0.00160275 -0.01156296 -0.06138903 -0.030523544
0.10021754 -0.007803632 0.05783591 0.119083926 -0.006403532 -0.07083888 0.10968521 0.014398064
0.08822765 0.12291999 -0.09475705 -0.04701289 0.021807516 0.040079806 0.01766374 -0.037405625
0.049564485 0.11783035 -0.095448785 -0.12188192 0.1112332 -0.016226036 0.09007149 -0.0556749
0.1361197 0.060106017 0.07122616 0.06862391 -0.027336882 0.084960945 0.067731865 0.086646095
0.054922763 0.09864464 -0.02891073 0.11389486 -0.13341253 -0.07253101 -0.04430153 -0.025961315
-0.19600639 -0.19163735 -0.032471165 0.009730742 0.060248487 0.047954954 0.025663452 -0.24300358
0.039466996 -0.2455744 0.10494593 -0.0038207674 0.11165405 0.038706347 0.1392755 -0.10073309
-0.019497095 0.061404523 0.041155312 0.06901904 0.07216685 -0.10441756 -0.20073564 -0.13215289
-0.021290442 -0.07919902 -0.12133814 0.10781968 -0.2550367 -0.073178165 -0.10135733 -0.15170173
0.14917834 0.10410555 -0.15770249 -0.07497219 -0.019070787 -0.019770805 -0.01892803 -0.001536585
-0.19789703 -0.15202197 -0.2423199 -0.043103065 -0.024253216 0.063205704 -0.00082202395 0.011991453
0.09148117 -0.20969614 0.11565509 -0.30900604 -0.034776196 -0.08787195 -0.08532226 -0.12742026
-0.1576773 -0.11899238 -0.18202269 0.07142669 0.019970464 -0.15120436 -0.005620398 -0.07555754
0.06297843 0.058845896 0.054647166 0.05075199 -0.0021946013 -0.072469264 0.020719662 0.05738726
0.022828277 -0.003200399 -0.04425777 -0.08816967 0.048100606 -0.08067876 -0.08812847 -0.10026362
-0.11099581 -0.054328345 -0.027099533 -0.10468356 -0.09357167 0.10338353 0.07119704 -0.06257328
-0.08606669 -0.024298912 -0.104569376 0.048895977 -0.097038165 -0.09765357 0.06741677 0.03202834
-0.009021804 0.027833493 0.044930678 0.00165092 0.03897559 0.014791524 0.06278022 -0.07567281
-0.0055901604 -0.00096341345 0.09296508 0.027783457 0.077855356 0.09482377 -0.042535372 0.07153594
-0.08847818 -0.118154876 0.0145520745 0.09314087 0.15513073 -0.06062942 -0.016475271 -0.04142144
-0.06634645 0.11698928 0.055798125 0.082915515 0.0019707195 0.056833968 0.052230343 -0.070192136

gru.bias_hh_l0_reverse f4 [192]
00000000: 0a16 c8bd 8d57 a23d cf7d bc3d 4a5b a93c
00000010: 221d 0f3e 48a9 a33d fd67 843d 661a 8a3d
00000020: 9905 adbd 5b80 da3b 4988 bcbd 0eed 8cbd
00000030: 1026 843d 0b1d a8bc ba4a 113d c706 8ebc
00000040: 98e1 c3bd 225d ccbd 016c 073d 47f8 843d
00000050: 2a4a 3a3b 6810 143e cca5 c6bc 1f14 433d
00000060: 0e9b f6bd b9e9 883d c757 ecbd e221 8abd
00000070: 478b 363d b044 a9bd a693 77bd 485f 1fbc
00000080: ff4a c6bc 3e2d 2abd cff4 c43d 984d 0cbe
00000090: 6f27 d9bd e3e5 bdbd 8d2a 9abd b002 92bd
000000a0: 98db f23c b0c5 c4bd 337d a6bd a28f 17bd
000000b0: ab8c f7bd cec0 453d 12c8 563d 25e0 dc3c
000000c0: 67d3 193e b7ff c73d 8fbb 043d 080e 963d
000000d0: 1f25 2dbe 0602 bf3d 6c09 843d f2ba 063e
000000e0: ef3f f8bd fb9d ebbd c175 053d cc4d 29bc
000000f0: e531 4cbd 4666 93bd ca56 f53d 2319 cabd
00000100: 6cca 84bd 4d5a 9ebd 01c4 92bd 90b7 3c3d
00000110: 7979 e2bc 06d3 1d3e dd96 373d fcca 37be
00000120: e508 983d 82af d4bd ef90 89bd 151f 5fbe
00000130: ea3d b4bd 398a bd3c 1f4b f93d 4ca9 fdbd
00000140: 7384 883c e2a3 89bb 469d dfbc 6a74 af3d
00000150: a0dd 7d3d 83c6 85bd 17c3 52be 9ca3 39bc
00000160: 97fa d23d e7dd 93be f545 dabd fbad 273e
00000170: 0974 5dbe fa53 993d d996 2abe 18d8 67be
00000180: ff2a 123e ec13 07bd 829e 453d 9ca4 643d
00000190: 085d 94bc 23df 163e 92f8 103d 09b6 bb3d
000001a0: d31c 1cbe 02b9 6dbe 057a 73be 559b 633d
000001b0: 7e81 003e 5de9 c9bc 8a6f b2ba 632d 2dbe
000001c0: 09ba 8f3d 72fd cbbc a875 2e3d 36b9 3abe
000001d0: 3487 d0bd c1fe 25be f58e 3e3b b247 b4bd
000001e0: 5bae 80be 5697 f7bd 211d e3bc 1375 04be
000001f0: f156 bc3d cdea 09be 189e d63d 28f2 3b3d
00000200: e4dd c5bd 73ac 2c3c b372 843d 6398 acbd
00000210: e411 df3b 7030 53bd badb a1bd 533b c9bc
00000220: 2855 b4bd 9f22 22bc 6df3 ef3c b6d2 56bd
00000230: dd10 d53d 948b cfbb 41ce c43d 0efa 03bd
00000240: 6e4d 853b 0b05 863d 3731 b73d cc01 4f3d
00000250: cfee afbd eda5 343c 1f93 9c3d f36e bd3d
00000260: 95fb 6f3d b347 86bd a68e 783c f47f b4bd
00000270: 14a9 913d 8986 8ebc cafd 8f3d 5224 7ebd
00000280: b7e6 6d3d 8f4e d2bd 727b f8bd f9a9 e1bc
00000290: 49ff 963d 291c ec3c d479 17bd 3446 773d
000002a0: 2755 f7bd 319f 103c 5ce6 18be e896 d0bd
000002b0: 841d 9b3d eb4c 22bc 3560 363d 287c b53d
000002c0: a122 d53c 111b 853c e7bd eabd 0d8a c1bd
000002d0: 0715 99bd c25f 92bd 82f5 203d 5c81 42bd
000002e0: 5fab d8bc ff51 26bd e618 b23c 2c66 92bd
000002f0: 87c4 cc3d d60c 5abd 382c 503d 567e 933d
-0.097698286 0.07926855 0.092036836 0.020673413 0.13975957 0.07991272 0.06465147 0.06743316
-0.08448333 0.006668133 -0.09205682 -0.06881152 0.06452572 -0.020521661 0.035471655 -0.017337216
-0.09564513 -0.09978701 0.033061985 0.06492668 0.0028425553 0.14459383 -0.02424898 0.04762661
-0.12041293 0.06685204 -0.1154018 -0.06744744 0.04456642 -0.08265054 -0.060443543 -0.009727307
-0.024205683 -0.041547053 0.09617006 -0.13701475 -0.106032245 -0.09272363 -0.07527647 -0.07129419
0.029645726 -0.096080184 -0.081293486 -0.037002213 -0.12087377 0.048279576 0.052436896 0.02696235
0.1502205 0.097655706 0.032405432 0.07326895 -0.16908692 0.09326558 0.064471096 0.13157251
-0.12121569 -0.11504742 0.032583002 -0.01033349 -0.04985227 -0.071972415 0.11979444 -0.09868076
-0.064839214 -0.07732067 -0.07166291 0.046073496 -0.027645813 0.1541253 0.04482161 -0.17948526
0.074235715 -0.10385038 -0.06717097 -0.217892 -0.08800872 0.023137199 0.12172531 -0.123858064
0.01666472 -0.0042004446 -0.027296674 0.08567126 0.061978936 -0.06532004 -0.20582233 -0.011330511
0.103017025 -0.28880236 -0.106578745 0.16374962 -0.21626295 0.074867204 -0.16659106 -0.22641027
0.14274214 -0.032977983 0.048246868 0.055821046 -0.018110767 0.14733557 0.035393305 0.0916558
-0.1524537 -0.23215106 -0.23777016 0.055568058 0.12549397 -0.02464741 -0.0013613563 -0.16911845
0.07017905 -0.024901126 0.042592674 -0.18234715 -0.10182038 -0.16210462 0.0029076908 -0.08802737
-0.25133023 -0.12089412 -0.02772385 -0.12935285 0.0919627 -0.13468476 0.10479373 0.045885235
-0.09661463 0.010539162 0.0646719 -0.08427503 0.0068075527 -0.051559865 -0.07903238 -0.02456442
-0.08805305 -0.00989595 0.02929088 -0.052447043 0.10403607 -0.0063337777 0.09609652 -0.032220893
0.004068068 0.065439306 0.08944934 0.050538823 -0.08590471 0.011025888 0.076452486 0.092496775
0.058589537 -0.06556644 0.015170729 -0.088134676 0.07112327 -0.017398136 0.07030828 -0.062046356
0.058081355 -0.1026889 -0.1213292 -0.02754687 0.073729105 0.028822022 -0.03698142 0.060369685
-0.120767884 0.008827017 -0.14931625 -0.10185033 0.07573989 -0.009906034 0.044525344 0.088615716
0.026017489 0.016248258 -0.11462002 -0.09450159 -0.07474714 -0.071471706 0.039296634 -0.047486648
-0.026448904 -0.04060554 0.021740388 -0.07148394 0.09998422 -0.053234898 0.05082342 0.07201831

linear.weight f4 [1, 128]
00000000: 759c 8b3c 7fe0 7f39 b7ea c43c be83 b53c
00000010: b35e 473c 1efb 163e 55a4 01bd 4840 9dbb
00000020: 9149 0c3d 6d94 aa3d c4e1 b1bd 3d50 0a3d
00000030: c385 7abd 8a69 a03d 4cc2 423d 1f86 f63d
00000040: ce52 a0bc b266 3a3d 8476 fa3c 6d4d 053e
00000050: 6f29 183d 8deb 8c3d 0e2c b63d af70 01be
00000060: d499 893d 7fcd c23d be2e 943c bd39 18be
00000070: 1db3 453e a1f4 a23d 2ec7 223c db7e 053c
00000080: 6608 f43b 6b96 0fbd e70c cd3c 617a 21bd
00000090: cc9a 6abc 77da 85bd 88f0 913d bf66 a93d
000000a0: 1761 8dbc e6f7 f8bd fa62 9abd 7a09 82bd
000000b0: 8449 993d 8b0c 35bd 9909 603d 1de6 67bd
000000c0: 5755 f63c 13f3 3e3d 0227 8c3d 452b a3bd
000000d0: ff75 0b3d d5fc b7bc 12c0 163d 9e93 eabb
000000e0: d66e b939 bd9e 1f39 280f 92bb fbed e83b
000000f0: 1126 1b3e 2905 403c 1502 adbc 667d d03c
00000100: e67e 49bd 7a16 b13d 7435 83ba 59e2 7bbc
00000110: d4bb 43bd b463 17bd b9c6 07bd 9b97 8fbd
00000120: 95b5 fdbb fd11 8ebd c570 9cbc e43e 433d
00000130: e752 363c 2710 06bd 7d7b bebc 0aec 02bd
00000140: fde2 d5bb afd0 493c 5396 513d 8d34 063d
00000150: 1b67 93bc 6cd4 503d 3bae ffbd 72ea 99bd
00000160: a7dd a7bc 00ec 9fbd 5b3e 8cbc 9f63 19bc
00000170: 72a9 dabd f8c1 c73b 8428 7ebd e9d7 bb3d
00000180: 6fb8 a5ba 0fa6 c6bc 4c4f 4f3d 909f 1dbd
00000190: 11c8 2bbc 710a 473d 2e62 573d a9d9 533d
000001a0: 9735 f33d 0093 d2bd cb35 b03d b9c3 243d
000001b0: b6e3 663c 5e77 083d f51a bf3c 426c fe3c
000001c0: a168 4cbd d752 933d 7701 e1bc be19 74bd
000001d0: 533a a63c 3303 323d e8fc c2bc e5c9 2abd
000001e0: 8662 1c3e 4148 ae3c 936a 773d 7372 143d
000001f0: 6735 4dbc ba81 133d 68fe 173c e25e 10bd
0.017042378 0.00024402326 0.024037702 0.022157546 0.012168574 0.14744231 -0.03165086 -0.0047989227
0.034249846 0.08329091 -0.086856395 0.033767927 -0.06116272 0.0783263 0.047548577 0.120373
-0.019570734 0.045508094 0.03057409 0.13017817 0.03714889 0.06880865 0.088951215 -0.12640642
0.067187935 0.095118515 0.018088695 -0.14865775 0.19306608 0.079568155 0.009935183 0.0081479205
0.0074472902 -0.03505556 0.025030566 -0.03942335 -0.014319133 -0.065358095 0.07125956 0.082715504
-0.01725821 -0.12156658 -0.075384095 -0.06349464 0.07484725 -0.044201415 0.054696653 -0.056615938
0.03006999 0.046618532 0.06843378 -0.079672374 0.034048077 -0.022459427 0.036804266 -0.0071587106
0.0003536853 0.00015222556 -0.004457373 0.0071084476 0.1515124 0.01171998 -0.021119157 0.02545042
-0.049193285 0.08646865 -0.0010010437 -0.01537379 -0.04778655 -0.03696032 -0.0331485 -0.07011338
-0.0077425935 -0.06937025 -0.019096741 0.0476674 0.011128164 -0.032730248 -0.023252243 -0.031963386
-0.0065273033 0.01231782 0.05116875 0.03276496 -0.0179935 0.05098383 -0.12484404 -0.0751542
-0.020491434 -0.07808685 -0.017119577 -0.00936213 -0.106768504 0.006096121 -0.062050357 0.09172041
-0.0012643466 -0.024249105 0.050612733 -0.03848225 -0.010484711 0.048593942 0.052583866 0.05172125
0.11875456 -0.10281944 0.0860401 0.04022572 0.014092376 0.033316962 0.023328284 0.03105748
-0.04990447 0.07193535 -0.027466519 -0.059594862 0.020291483 0.043460082 -0.023802236 -0.041696448
0.15271959 0.021274688 0.06040437 0.03624196 -0.012524939 0.03601239 0.009276964 -0.035246737
